…
I0405 00:40:33.503458 16042 net.cpp:294] The NetState phase (0) differed from the phase (1) specified by a rule in layer L4G_IDS_4
I0405 00:40:33.503531 16042 net.cpp:294] The NetState phase (0) differed from the phase (1) specified by a rule in layer accuracy
I0405 00:40:33.504114 16042 net.cpp:51] Initializing net from parameters: 
name: "ResNet-50"
state {
  phase: TRAIN
  level: 0
  stage: ""
}
layer {
  name: "L4G_IDS_4"
  type: "ImageData"
  top: "data"
  top: "label"
  include {
    phase: TRAIN
  }
  transform_param {
    mirror: true
    crop_size: 7
  }
  image_data_param {
    source: "Train.txt"
    batch_size: 256
  }
}
layer {
  name: "conv1"
  type: "Convolution"
  bottom: "data"
  top: "conv1"
  convolution_param {
    num_output: 64
    bias_term: true
    pad: 3
    kernel_size: 7
    stride: 2
    weight_filler {
      type: "msra"
    }
  }
}
layer {
  name: "bn_conv1"
  type: "BatchNorm"
  bottom: "conv1"
  top: "conv1"
  batch_norm_param {
    use_global_stats: false
  }
}
layer {
  name: "scale_conv1"
  type: "Scale"
  bottom: "conv1"
  top: "conv1"
  scale_param {
    bias_term: true
  }
}
layer {
  name: "conv1_relu"
  type: "ReLU"
  bottom: "conv1"
  top: "conv1"
}
layer {
  name: "pool1"
  type: "Pooling"
  bottom: "conv1"
  top: "pool1"
  pooling_param {
    pool: MAX
    kernel_size: 3
    stride: 2
  }
}
layer {
  name: "res2a_branch1"
  type: "Convolution"
  bottom: "pool1"
  top: "res2a_branch1"
  convolution_param {
    num_output: 256
    bias_term: false
    pad: 0
    kernel_size: 1
    stride: 1
    weight_filler {
      type: "msra"
    }
  }
}
layer {
  name: "bn2a_branch1"
  type: "BatchNorm"
  bottom: "res2a_branch1"
  top: "res2a_branch1"
  batch_norm_param {
    use_global_stats: false
  }
}
layer {
  name: "scale2a_branch1"
  type: "Scale"
  bottom: "res2a_branch1"
  top: "res2a_branch1"
  scale_param {
    bias_term: true
  }
}
layer {
  name: "res2a_branch2a"
  type: "Convolution"
  bottom: "pool1"
  top: "res2a_branch2a"
  convolution_param {
    num_output: 64
    bias_term: false
    pad: 0
    kernel_size: 1
    stride: 1
    weight_filler {
      type: "msra"
    }
  }
}
layer {
  name: "bn2a_branch2a"
  type: "BatchNorm"
  bottom: "res2a_branch2a"
  top: "res2a_branch2a"
  batch_norm_param {
    use_global_stats: false
  }
}
layer {
  name: "scale2a_branch2a"
  type: "Scale"
  bottom: "res2a_branch2a"
  top: "res2a_branch2a"
  scale_param {
    bias_term: true
  }
}
layer {
  name: "res2a_branch2a_relu"
  type: "ReLU"
  bottom: "res2a_branch2a"
  top: "res2a_branch2a"
}
layer {
  name: "res2a_branch2b"
  type: "Convolution"
  bottom: "res2a_branch2a"
  top: "res2a_branch2b"
  convolution_param {
    num_output: 64
    bias_term: false
    pad: 1
    kernel_size: 3
    stride: 1
    weight_filler {
      type: "msra"
    }
  }
}
layer {
  name: "bn2a_branch2b"
  type: "BatchNorm"
  bottom: "res2a_branch2b"
  top: "res2a_branch2b"
  batch_norm_param {
    use_global_stats: false
  }
}
layer {
  name: "scale2a_branch2b"
  type: "Scale"
  bottom: "res2a_branch2b"
  top: "res2a_branch2b"
  scale_param {
    bias_term: true
  }
}
layer {
  name: "res2a_branch2b_relu"
  type: "ReLU"
  bottom: "res2a_branch2b"
  top: "res2a_branch2b"
}
layer {
  name: "res2a_branch2c"
  type: "Convolution"
  bottom: "res2a_branch2b"
  top: "res2a_branch2c"
  convolution_param {
    num_output: 256
    bias_term: false
    pad: 0
    kernel_size: 1
    stride: 1
    weight_filler {
      type: "msra"
    }
  }
}
layer {
  name: "bn2a_branch2c"
  type: "BatchNorm"
  bottom: "res2a_branch2c"
  top: "res2a_branch2c"
  batch_norm_param {
    use_global_stats: false
  }
}
layer {
  name: "scale2a_branch2c"
  type: "Scale"
  bottom: "res2a_branch2c"
  top: "res2a_branch2c"
  scale_param {
    bias_term: true
  }
}
layer {
  name: "res2a"
  type: "Eltwise"
  bottom: "res2a_branch1"
  bottom: "res2a_branch2c"
  top: "res2a"
  eltwise_param {
    operation: SUM
  }
}
layer {
  name: "res2a_relu"
  type: "ReLU"
  bottom: "res2a"
  top: "res2a"
}
layer {
  name: "res2b_branch2a"
  type: "Convolution"
  bottom: "res2a"
  top: "res2b_branch2a"
  convolution_param {
    num_output: 64
    bias_term: false
    pad: 0
    kernel_size: 1
    stride: 1
    weight_filler {
      type: "msra"
    }
  }
}
layer {
  name: "bn2b_branch2a"
  type: "BatchNorm"
  bottom: "res2b_branch2a"
  top: "res2b_branch2a"
  batch_norm_param {
    use_global_stats: false
  }
}
layer {
  name: "scale2b_branch2a"
  type: "Scale"
  bottom: "res2b_branch2a"
  top: "res2b_branch2a"
  scale_param {
    bias_term: true
  }
}
layer {
  name: "res2b_branch2a_relu"
  type: "ReLU"
  bottom: "res2b_branch2a"
  top: "res2b_branch2a"
}
layer {
  name: "res2b_branch2b"
  type: "Convolution"
  bottom: "res2b_branch2a"
  top: "res2b_branch2b"
  convolution_param {
    num_output: 64
    bias_term: false
    pad: 1
    kernel_size: 3
    stride: 1
    weight_filler {
      type: "msra"
    }
  }
}
layer {
  name: "bn2b_branch2b"
  type: "BatchNorm"
  bottom: "res2b_branch2b"
  top: "res2b_branch2b"
  batch_norm_param {
    use_global_stats: false
  }
}
layer {
  name: "scale2b_branch2b"
  type: "Scale"
  bottom: "res2b_branch2b"
  top: "res2b_branch2b"
  scale_param {
    bias_term: true
  }
}
layer {
  name: "res2b_branch2b_relu"
  type: "ReLU"
  bottom: "res2b_branch2b"
  top: "res2b_branch2b"
}
layer {
  name: "res2b_branch2c"
  type: "Convolution"
  bottom: "res2b_branch2b"
  top: "res2b_branch2c"
  convolution_param {
    num_output: 256
    bias_term: false
    pad: 0
    kernel_size: 1
    stride: 1
    weight_filler {
      type: "msra"
    }
  }
}
layer {
  name: "bn2b_branch2c"
  type: "BatchNorm"
  bottom: "res2b_branch2c"
  top: "res2b_branch2c"
  batch_norm_param {
    use_global_stats: false
  }
}
layer {
  name: "scale2b_branch2c"
  type: "Scale"
  bottom: "res2b_branch2c"
  top: "res2b_branch2c"
  scale_param {
    bias_term: true
  }
}
layer {
  name: "res2b"
  type: "Eltwise"
  bottom: "res2a"
  bottom: "res2b_branch2c"
  top: "res2b"
  eltwise_param {
    operation: SUM
  }
}
layer {
  name: "res2b_relu"
  type: "ReLU"
  bottom: "res2b"
  top: "res2b"
}
layer {
  name: "res2c_branch2a"
  type: "Convolution"
  bottom: "res2b"
  top: "res2c_branch2a"
  convolution_param {
    num_output: 64
    bias_term: false
    pad: 0
    kernel_size: 1
    stride: 1
    weight_filler {
      type: "msra"
    }
  }
}
layer {
  name: "bn2c_branch2a"
  type: "BatchNorm"
  bottom: "res2c_branch2a"
  top: "res2c_branch2a"
  batch_norm_param {
    use_global_stats: false
  }
}
layer {
  name: "scale2c_branch2a"
  type: "Scale"
  bottom: "res2c_branch2a"
  top: "res2c_branch2a"
  scale_param {
    bias_term: true
  }
}
layer {
  name: "res2c_branch2a_relu"
  type: "ReLU"
  bottom: "res2c_branch2a"
  top: "res2c_branch2a"
}
layer {
  name: "res2c_branch2b"
  type: "Convolution"
  bottom: "res2c_branch2a"
  top: "res2c_branch2b"
  convolution_param {
    num_output: 64
    bias_term: false
    pad: 1
    kernel_size: 3
    stride: 1
    weight_filler {
      type: "msra"
    }
  }
}
layer {
  name: "bn2c_branch2b"
  type: "BatchNorm"
  bottom: "res2c_branch2b"
  top: "res2c_branch2b"
  batch_norm_param {
    use_global_stats: false
  }
}
layer {
  name: "scale2c_branch2b"
  type: "Scale"
  bottom: "res2c_branch2b"
  top: "res2c_branch2b"
  scale_param {
    bias_term: true
  }
}
layer {
  name: "res2c_branch2b_relu"
  type: "ReLU"
  bottom: "res2c_branch2b"
  top: "res2c_branch2b"
}
layer {
  name: "res2c_branch2c"
  type: "Convolution"
  bottom: "res2c_branch2b"
  top: "res2c_branch2c"
  convolution_param {
    num_output: 256
    bias_term: false
    pad: 0
    kernel_size: 1
    stride: 1
    weight_filler {
      type: "msra"
    }
  }
}
layer {
  name: "bn2c_branch2c"
  type: "BatchNorm"
  bottom: "res2c_branch2c"
  top: "res2c_branch2c"
  batch_norm_param {
    use_global_stats: false
  }
}
layer {
  name: "scale2c_branch2c"
  type: "Scale"
  bottom: "res2c_branch2c"
  top: "res2c_branch2c"
  scale_param {
    bias_term: true
  }
}
layer {
  name: "res2c"
  type: "Eltwise"
  bottom: "res2b"
  bottom: "res2c_branch2c"
  top: "res2c"
  eltwise_param {
    operation: SUM
  }
}
layer {
  name: "res2c_relu"
  type: "ReLU"
  bottom: "res2c"
  top: "res2c"
}
layer {
  name: "res3a_branch1"
  type: "Convolution"
  bottom: "res2c"
  top: "res3a_branch1"
  convolution_param {
    num_output: 512
    bias_term: false
    pad: 0
    kernel_size: 1
    stride: 2
    weight_filler {
      type: "msra"
    }
  }
}
layer {
  name: "bn3a_branch1"
  type: "BatchNorm"
  bottom: "res3a_branch1"
  top: "res3a_branch1"
  batch_norm_param {
    use_global_stats: false
  }
}
layer {
  name: "scale3a_branch1"
  type: "Scale"
  bottom: "res3a_branch1"
  top: "res3a_branch1"
  scale_param {
    bias_term: true
  }
}
layer {
  name: "res3a_branch2a"
  type: "Convolution"
  bottom: "res2c"
  top: "res3a_branch2a"
  convolution_param {
    num_output: 128
    bias_term: false
    pad: 0
    kernel_size: 1
    stride: 2
    weight_filler {
      type: "msra"
    }
  }
}
layer {
  name: "bn3a_branch2a"
  type: "BatchNorm"
  bottom: "res3a_branch2a"
  top: "res3a_branch2a"
  batch_norm_param {
    use_global_stats: false
  }
}
layer {
  name: "scale3a_branch2a"
  type: "Scale"
  bottom: "res3a_branch2a"
  top: "res3a_branch2a"
  scale_param {
    bias_term: true
  }
}
layer {
  name: "res3a_branch2a_relu"
  type: "ReLU"
  bottom: "res3a_branch2a"
  top: "res3a_branch2a"
}
layer {
  name: "res3a_branch2b"
  type: "Convolution"
  bottom: "res3a_branch2a"
  top: "res3a_branch2b"
  convolution_param {
    num_output: 128
    bias_term: false
    pad: 1
    kernel_size: 3
    stride: 1
    weight_filler {
      type: "msra"
    }
  }
}
layer {
  name: "bn3a_branch2b"
  type: "BatchNorm"
  bottom: "res3a_branch2b"
  top: "res3a_branch2b"
  batch_norm_param {
    use_global_stats: false
  }
}
layer {
  name: "scale3a_branch2b"
  type: "Scale"
  bottom: "res3a_branch2b"
  top: "res3a_branch2b"
  scale_param {
    bias_term: true
  }
}
layer {
  name: "res3a_branch2b_relu"
  type: "ReLU"
  bottom: "res3a_branch2b"
  top: "res3a_branch2b"
}
layer {
  name: "res3a_branch2c"
  type: "Convolution"
  bottom: "res3a_branch2b"
  top: "res3a_branch2c"
  convolution_param {
    num_output: 512
    bias_term: false
    pad: 0
    kernel_size: 1
    stride: 1
    weight_filler {
      type: "msra"
    }
  }
}
layer {
  name: "bn3a_branch2c"
  type: "BatchNorm"
  bottom: "res3a_branch2c"
  top: "res3a_branch2c"
  batch_norm_param {
    use_global_stats: false
  }
}
layer {
  name: "scale3a_branch2c"
  type: "Scale"
  bottom: "res3a_branch2c"
  top: "res3a_branch2c"
  scale_param {
    bias_term: true
  }
}
layer {
  name: "res3a"
  type: "Eltwise"
  bottom: "res3a_branch1"
  bottom: "res3a_branch2c"
  top: "res3a"
  eltwise_param {
    operation: SUM
  }
}
layer {
  name: "res3a_relu"
  type: "ReLU"
  bottom: "res3a"
  top: "res3a"
}
layer {
  name: "res3b_branch2a"
  type: "Convolution"
  bottom: "res3a"
  top: "res3b_branch2a"
  convolution_param {
    num_output: 128
    bias_term: false
    pad: 0
    kernel_size: 1
    stride: 1
    weight_filler {
      type: "msra"
    }
  }
}
layer {
  name: "bn3b_branch2a"
  type: "BatchNorm"
  bottom: "res3b_branch2a"
  top: "res3b_branch2a"
  batch_norm_param {
    use_global_stats: false
  }
}
layer {
  name: "scale3b_branch2a"
  type: "Scale"
  bottom: "res3b_branch2a"
  top: "res3b_branch2a"
  scale_param {
    bias_term: true
  }
}
layer {
  name: "res3b_branch2a_relu"
  type: "ReLU"
  bottom: "res3b_branch2a"
  top: "res3b_branch2a"
}
layer {
  name: "res3b_branch2b"
  type: "Convolution"
  bottom: "res3b_branch2a"
  top: "res3b_branch2b"
  convolution_param {
    num_output: 128
    bias_term: false
    pad: 1
    kernel_size: 3
    stride: 1
    weight_filler {
      type: "msra"
    }
  }
}
layer {
  name: "bn3b_branch2b"
  type: "BatchNorm"
  bottom: "res3b_branch2b"
  top: "res3b_branch2b"
  batch_norm_param {
    use_global_stats: false
  }
}
layer {
  name: "scale3b_branch2b"
  type: "Scale"
  bottom: "res3b_branch2b"
  top: "res3b_branch2b"
  scale_param {
    bias_term: true
  }
}
layer {
  name: "res3b_branch2b_relu"
  type: "ReLU"
  bottom: "res3b_branch2b"
  top: "res3b_branch2b"
}
layer {
  name: "res3b_branch2c"
  type: "Convolution"
  bottom: "res3b_branch2b"
  top: "res3b_branch2c"
  convolution_param {
    num_output: 512
    bias_term: false
    pad: 0
    kernel_size: 1
    stride: 1
    weight_filler {
      type: "msra"
    }
  }
}
layer {
  name: "bn3b_branch2c"
  type: "BatchNorm"
  bottom: "res3b_branch2c"
  top: "res3b_branch2c"
  batch_norm_param {
    use_global_stats: false
  }
}
layer {
  name: "scale3b_branch2c"
  type: "Scale"
  bottom: "res3b_branch2c"
  top: "res3b_branch2c"
  scale_param {
    bias_term: true
  }
}
layer {
  name: "res3b"
  type: "Eltwise"
  bottom: "res3a"
  bottom: "res3b_branch2c"
  top: "res3b"
  eltwise_param {
    operation: SUM
  }
}
layer {
  name: "res3b_relu"
  type: "ReLU"
  bottom: "res3b"
  top: "res3b"
}
layer {
  name: "res3c_branch2a"
  type: "Convolution"
  bottom: "res3b"
  top: "res3c_branch2a"
  convolution_param {
    num_output: 128
    bias_term: false
    pad: 0
    kernel_size: 1
    stride: 1
    weight_filler {
      type: "msra"
    }
  }
}
layer {
  name: "bn3c_branch2a"
  type: "BatchNorm"
  bottom: "res3c_branch2a"
  top: "res3c_branch2a"
  batch_norm_param {
    use_global_stats: false
  }
}
layer {
  name: "scale3c_branch2a"
  type: "Scale"
  bottom: "res3c_branch2a"
  top: "res3c_branch2a"
  scale_param {
    bias_term: true
  }
}
layer {
  name: "res3c_branch2a_relu"
  type: "ReLU"
  bottom: "res3c_branch2a"
  top: "res3c_branch2a"
}
layer {
  name: "res3c_branch2b"
  type: "Convolution"
  bottom: "res3c_branch2a"
  top: "res3c_branch2b"
  convolution_param {
    num_output: 128
    bias_term: false
    pad: 1
    kernel_size: 3
    stride: 1
    weight_filler {
      type: "msra"
    }
  }
}
layer {
  name: "bn3c_branch2b"
  type: "BatchNorm"
  bottom: "res3c_branch2b"
  top: "res3c_branch2b"
  batch_norm_param {
    use_global_stats: false
  }
}
layer {
  name: "scale3c_branch2b"
  type: "Scale"
  bottom: "res3c_branch2b"
  top: "res3c_branch2b"
  scale_param {
    bias_term: true
  }
}
layer {
  name: "res3c_branch2b_relu"
  type: "ReLU"
  bottom: "res3c_branch2b"
  top: "res3c_branch2b"
}
layer {
  name: "res3c_branch2c"
  type: "Convolution"
  bottom: "res3c_branch2b"
  top: "res3c_branch2c"
  convolution_param {
    num_output: 512
    bias_term: false
    pad: 0
    kernel_size: 1
    stride: 1
    weight_filler {
      type: "msra"
    }
  }
}
layer {
  name: "bn3c_branch2c"
  type: "BatchNorm"
  bottom: "res3c_branch2c"
  top: "res3c_branch2c"
  batch_norm_param {
    use_global_stats: false
  }
}
layer {
  name: "scale3c_branch2c"
  type: "Scale"
  bottom: "res3c_branch2c"
  top: "res3c_branch2c"
  scale_param {
    bias_term: true
  }
}
layer {
  name: "res3c"
  type: "Eltwise"
  bottom: "res3b"
  bottom: "res3c_branch2c"
  top: "res3c"
  eltwise_param {
    operation: SUM
  }
}
layer {
  name: "res3c_relu"
  type: "ReLU"
  bottom: "res3c"
  top: "res3c"
}
layer {
  name: "res3d_branch2a"
  type: "Convolution"
  bottom: "res3c"
  top: "res3d_branch2a"
  convolution_param {
    num_output: 128
    bias_term: false
    pad: 0
    kernel_size: 1
    stride: 1
    weight_filler {
      type: "msra"
    }
  }
}
layer {
  name: "bn3d_branch2a"
  type: "BatchNorm"
  bottom: "res3d_branch2a"
  top: "res3d_branch2a"
  batch_norm_param {
    use_global_stats: false
  }
}
layer {
  name: "scale3d_branch2a"
  type: "Scale"
  bottom: "res3d_branch2a"
  top: "res3d_branch2a"
  scale_param {
    bias_term: true
  }
}
layer {
  name: "res3d_branch2a_relu"
  type: "ReLU"
  bottom: "res3d_branch2a"
  top: "res3d_branch2a"
}
layer {
  name: "res3d_branch2b"
  type: "Convolution"
  bottom: "res3d_branch2a"
  top: "res3d_branch2b"
  convolution_param {
    num_output: 128
    bias_term: false
    pad: 1
    kernel_size: 3
    stride: 1
    weight_filler {
      type: "msra"
    }
  }
}
layer {
  name: "bn3d_branch2b"
  type: "BatchNorm"
  bottom: "res3d_branch2b"
  top: "res3d_branch2b"
  batch_norm_param {
    use_global_stats: false
  }
}
layer {
  name: "scale3d_branch2b"
  type: "Scale"
  bottom: "res3d_branch2b"
  top: "res3d_branch2b"
  scale_param {
    bias_term: true
  }
}
layer {
  name: "res3d_branch2b_relu"
  type: "ReLU"
  bottom: "res3d_branch2b"
  top: "res3d_branch2b"
}
layer {
  name: "res3d_branch2c"
  type: "Convolution"
  bottom: "res3d_branch2b"
  top: "res3d_branch2c"
  convolution_param {
    num_output: 512
    bias_term: false
    pad: 0
    kernel_size: 1
    stride: 1
    weight_filler {
      type: "msra"
    }
  }
}
layer {
  name: "bn3d_branch2c"
  type: "BatchNorm"
  bottom: "res3d_branch2c"
  top: "res3d_branch2c"
  batch_norm_param {
    use_global_stats: false
  }
}
layer {
  name: "scale3d_branch2c"
  type: "Scale"
  bottom: "res3d_branch2c"
  top: "res3d_branch2c"
  scale_param {
    bias_term: true
  }
}
layer {
  name: "res3d"
  type: "Eltwise"
  bottom: "res3c"
  bottom: "res3d_branch2c"
  top: "res3d"
  eltwise_param {
    operation: SUM
  }
}
layer {
  name: "res3d_relu"
  type: "ReLU"
  bottom: "res3d"
  top: "res3d"
}
layer {
  name: "res4a_branch1"
  type: "Convolution"
  bottom: "res3d"
  top: "res4a_branch1"
  convolution_param {
    num_output: 1024
    bias_term: false
    pad: 0
    kernel_size: 1
    stride: 2
    weight_filler {
      type: "msra"
    }
  }
}
layer {
  name: "bn4a_branch1"
  type: "BatchNorm"
  bottom: "res4a_branch1"
  top: "res4a_branch1"
  batch_norm_param {
    use_global_stats: false
  }
}
layer {
  name: "scale4a_branch1"
  type: "Scale"
  bottom: "res4a_branch1"
  top: "res4a_branch1"
  scale_param {
    bias_term: true
  }
}
layer {
  name: "res4a_branch2a"
  type: "Convolution"
  bottom: "res3d"
  top: "res4a_branch2a"
  convolution_param {
    num_output: 256
    bias_term: false
    pad: 0
    kernel_size: 1
    stride: 2
    weight_filler {
      type: "msra"
    }
  }
}
layer {
  name: "bn4a_branch2a"
  type: "BatchNorm"
  bottom: "res4a_branch2a"
  top: "res4a_branch2a"
  batch_norm_param {
    use_global_stats: false
  }
}
layer {
  name: "scale4a_branch2a"
  type: "Scale"
  bottom: "res4a_branch2a"
  top: "res4a_branch2a"
  scale_param {
    bias_term: true
  }
}
layer {
  name: "res4a_branch2a_relu"
  type: "ReLU"
  bottom: "res4a_branch2a"
  top: "res4a_branch2a"
}
layer {
  name: "res4a_branch2b"
  type: "Convolution"
  bottom: "res4a_branch2a"
  top: "res4a_branch2b"
  convolution_param {
    num_output: 256
    bias_term: false
    pad: 1
    kernel_size: 3
    stride: 1
    weight_filler {
      type: "msra"
    }
  }
}
layer {
  name: "bn4a_branch2b"
  type: "BatchNorm"
  bottom: "res4a_branch2b"
  top: "res4a_branch2b"
  batch_norm_param {
    use_global_stats: false
  }
}
layer {
  name: "scale4a_branch2b"
  type: "Scale"
  bottom: "res4a_branch2b"
  top: "res4a_branch2b"
  scale_param {
    bias_term: true
  }
}
layer {
  name: "res4a_branch2b_relu"
  type: "ReLU"
  bottom: "res4a_branch2b"
  top: "res4a_branch2b"
}
layer {
  name: "res4a_branch2c"
  type: "Convolution"
  bottom: "res4a_branch2b"
  top: "res4a_branch2c"
  convolution_param {
    num_output: 1024
    bias_term: false
    pad: 0
    kernel_size: 1
    stride: 1
    weight_filler {
      type: "msra"
    }
  }
}
layer {
  name: "bn4a_branch2c"
  type: "BatchNorm"
  bottom: "res4a_branch2c"
  top: "res4a_branch2c"
  batch_norm_param {
    use_global_stats: false
  }
}
layer {
  name: "scale4a_branch2c"
  type: "Scale"
  bottom: "res4a_branch2c"
  top: "res4a_branch2c"
  scale_param {
    bias_term: true
  }
}
layer {
  name: "res4a"
  type: "Eltwise"
  bottom: "res4a_branch1"
  bottom: "res4a_branch2c"
  top: "res4a"
  eltwise_param {
    operation: SUM
  }
}
layer {
  name: "res4a_relu"
  type: "ReLU"
  bottom: "res4a"
  top: "res4a"
}
layer {
  name: "res4b_branch2a"
  type: "Convolution"
  bottom: "res4a"
  top: "res4b_branch2a"
  convolution_param {
    num_output: 256
    bias_term: false
    pad: 0
    kernel_size: 1
    stride: 1
    weight_filler {
      type: "msra"
    }
  }
}
layer {
  name: "bn4b_branch2a"
  type: "BatchNorm"
  bottom: "res4b_branch2a"
  top: "res4b_branch2a"
  batch_norm_param {
    use_global_stats: false
  }
}
layer {
  name: "scale4b_branch2a"
  type: "Scale"
  bottom: "res4b_branch2a"
  top: "res4b_branch2a"
  scale_param {
    bias_term: true
  }
}
layer {
  name: "res4b_branch2a_relu"
  type: "ReLU"
  bottom: "res4b_branch2a"
  top: "res4b_branch2a"
}
layer {
  name: "res4b_branch2b"
  type: "Convolution"
  bottom: "res4b_branch2a"
  top: "res4b_branch2b"
  convolution_param {
    num_output: 256
    bias_term: false
    pad: 1
    kernel_size: 3
    stride: 1
    weight_filler {
      type: "msra"
    }
  }
}
layer {
  name: "bn4b_branch2b"
  type: "BatchNorm"
  bottom: "res4b_branch2b"
  top: "res4b_branch2b"
  batch_norm_param {
    use_global_stats: false
  }
}
layer {
  name: "scale4b_branch2b"
  type: "Scale"
  bottom: "res4b_branch2b"
  top: "res4b_branch2b"
  scale_param {
    bias_term: true
  }
}
layer {
  name: "res4b_branch2b_relu"
  type: "ReLU"
  bottom: "res4b_branch2b"
  top: "res4b_branch2b"
}
layer {
  name: "res4b_branch2c"
  type: "Convolution"
  bottom: "res4b_branch2b"
  top: "res4b_branch2c"
  convolution_param {
    num_output: 1024
    bias_term: false
    pad: 0
    kernel_size: 1
    stride: 1
    weight_filler {
      type: "msra"
    }
  }
}
layer {
  name: "bn4b_branch2c"
  type: "BatchNorm"
  bottom: "res4b_branch2c"
  top: "res4b_branch2c"
  batch_norm_param {
    use_global_stats: false
  }
}
layer {
  name: "scale4b_branch2c"
  type: "Scale"
  bottom: "res4b_branch2c"
  top: "res4b_branch2c"
  scale_param {
    bias_term: true
  }
}
layer {
  name: "res4b"
  type: "Eltwise"
  bottom: "res4a"
  bottom: "res4b_branch2c"
  top: "res4b"
  eltwise_param {
    operation: SUM
  }
}
layer {
  name: "res4b_relu"
  type: "ReLU"
  bottom: "res4b"
  top: "res4b"
}
layer {
  name: "res4c_branch2a"
  type: "Convolution"
  bottom: "res4b"
  top: "res4c_branch2a"
  convolution_param {
    num_output: 256
    bias_term: false
    pad: 0
    kernel_size: 1
    stride: 1
    weight_filler {
      type: "msra"
    }
  }
}
layer {
  name: "bn4c_branch2a"
  type: "BatchNorm"
  bottom: "res4c_branch2a"
  top: "res4c_branch2a"
  batch_norm_param {
    use_global_stats: false
  }
}
layer {
  name: "scale4c_branch2a"
  type: "Scale"
  bottom: "res4c_branch2a"
  top: "res4c_branch2a"
  scale_param {
    bias_term: true
  }
}
layer {
  name: "res4c_branch2a_relu"
  type: "ReLU"
  bottom: "res4c_branch2a"
  top: "res4c_branch2a"
}
layer {
  name: "res4c_branch2b"
  type: "Convolution"
  bottom: "res4c_branch2a"
  top: "res4c_branch2b"
  convolution_param {
    num_output: 256
    bias_term: false
    pad: 1
    kernel_size: 3
    stride: 1
    weight_filler {
      type: "msra"
    }
  }
}
layer {
  name: "bn4c_branch2b"
  type: "BatchNorm"
  bottom: "res4c_branch2b"
  top: "res4c_branch2b"
  batch_norm_param {
    use_global_stats: false
  }
}
layer {
  name: "scale4c_branch2b"
  type: "Scale"
  bottom: "res4c_branch2b"
  top: "res4c_branch2b"
  scale_param {
    bias_term: true
  }
}
layer {
  name: "res4c_branch2b_relu"
  type: "ReLU"
  bottom: "res4c_branch2b"
  top: "res4c_branch2b"
}
layer {
  name: "res4c_branch2c"
  type: "Convolution"
  bottom: "res4c_branch2b"
  top: "res4c_branch2c"
  convolution_param {
    num_output: 1024
    bias_term: false
    pad: 0
    kernel_size: 1
    stride: 1
    weight_filler {
      type: "msra"
    }
  }
}
layer {
  name: "bn4c_branch2c"
  type: "BatchNorm"
  bottom: "res4c_branch2c"
  top: "res4c_branch2c"
  batch_norm_param {
    use_global_stats: false
  }
}
layer {
  name: "scale4c_branch2c"
  type: "Scale"
  bottom: "res4c_branch2c"
  top: "res4c_branch2c"
  scale_param {
    bias_term: true
  }
}
layer {
  name: "res4c"
  type: "Eltwise"
  bottom: "res4b"
  bottom: "res4c_branch2c"
  top: "res4c"
  eltwise_param {
    operation: SUM
  }
}
layer {
  name: "res4c_relu"
  type: "ReLU"
  bottom: "res4c"
  top: "res4c"
}
layer {
  name: "res4d_branch2a"
  type: "Convolution"
  bottom: "res4c"
  top: "res4d_branch2a"
  convolution_param {
    num_output: 256
    bias_term: false
    pad: 0
    kernel_size: 1
    stride: 1
    weight_filler {
      type: "msra"
    }
  }
}
layer {
  name: "bn4d_branch2a"
  type: "BatchNorm"
  bottom: "res4d_branch2a"
  top: "res4d_branch2a"
  batch_norm_param {
    use_global_stats: false
  }
}
layer {
  name: "scale4d_branch2a"
  type: "Scale"
  bottom: "res4d_branch2a"
  top: "res4d_branch2a"
  scale_param {
    bias_term: true
  }
}
layer {
  name: "res4d_branch2a_relu"
  type: "ReLU"
  bottom: "res4d_branch2a"
  top: "res4d_branch2a"
}
layer {
  name: "res4d_branch2b"
  type: "Convolution"
  bottom: "res4d_branch2a"
  top: "res4d_branch2b"
  convolution_param {
    num_output: 256
    bias_term: false
    pad: 1
    kernel_size: 3
    stride: 1
    weight_filler {
      type: "msra"
    }
  }
}
layer {
  name: "bn4d_branch2b"
  type: "BatchNorm"
  bottom: "res4d_branch2b"
  top: "res4d_branch2b"
  batch_norm_param {
    use_global_stats: false
  }
}
layer {
  name: "scale4d_branch2b"
  type: "Scale"
  bottom: "res4d_branch2b"
  top: "res4d_branch2b"
  scale_param {
    bias_term: true
  }
}
layer {
  name: "res4d_branch2b_relu"
  type: "ReLU"
  bottom: "res4d_branch2b"
  top: "res4d_branch2b"
}
layer {
  name: "res4d_branch2c"
  type: "Convolution"
  bottom: "res4d_branch2b"
  top: "res4d_branch2c"
  convolution_param {
    num_output: 1024
    bias_term: false
    pad: 0
    kernel_size: 1
    stride: 1
    weight_filler {
      type: "msra"
    }
  }
}
layer {
  name: "bn4d_branch2c"
  type: "BatchNorm"
  bottom: "res4d_branch2c"
  top: "res4d_branch2c"
  batch_norm_param {
    use_global_stats: false
  }
}
layer {
  name: "scale4d_branch2c"
  type: "Scale"
  bottom: "res4d_branch2c"
  top: "res4d_branch2c"
  scale_param {
    bias_term: true
  }
}
layer {
  name: "res4d"
  type: "Eltwise"
  bottom: "res4c"
  bottom: "res4d_branch2c"
  top: "res4d"
  eltwise_param {
    operation: SUM
  }
}
layer {
  name: "res4d_relu"
  type: "ReLU"
  bottom: "res4d"
  top: "res4d"
}
layer {
  name: "res4e_branch2a"
  type: "Convolution"
  bottom: "res4d"
  top: "res4e_branch2a"
  convolution_param {
    num_output: 256
    bias_term: false
    pad: 0
    kernel_size: 1
    stride: 1
    weight_filler {
      type: "msra"
    }
  }
}
layer {
  name: "bn4e_branch2a"
  type: "BatchNorm"
  bottom: "res4e_branch2a"
  top: "res4e_branch2a"
  batch_norm_param {
    use_global_stats: false
  }
}
layer {
  name: "scale4e_branch2a"
  type: "Scale"
  bottom: "res4e_branch2a"
  top: "res4e_branch2a"
  scale_param {
    bias_term: true
  }
}
layer {
  name: "res4e_branch2a_relu"
  type: "ReLU"
  bottom: "res4e_branch2a"
  top: "res4e_branch2a"
}
layer {
  name: "res4e_branch2b"
  type: "Convolution"
  bottom: "res4e_branch2a"
  top: "res4e_branch2b"
  convolution_param {
    num_output: 256
    bias_term: false
    pad: 1
    kernel_size: 3
    stride: 1
    weight_filler {
      type: "msra"
    }
  }
}
layer {
  name: "bn4e_branch2b"
  type: "BatchNorm"
  bottom: "res4e_branch2b"
  top: "res4e_branch2b"
  batch_norm_param {
    use_global_stats: false
  }
}
layer {
  name: "scale4e_branch2b"
  type: "Scale"
  bottom: "res4e_branch2b"
  top: "res4e_branch2b"
  scale_param {
    bias_term: true
  }
}
layer {
  name: "res4e_branch2b_relu"
  type: "ReLU"
  bottom: "res4e_branch2b"
  top: "res4e_branch2b"
}
layer {
  name: "res4e_branch2c"
  type: "Convolution"
  bottom: "res4e_branch2b"
  top: "res4e_branch2c"
  convolution_param {
    num_output: 1024
    bias_term: false
    pad: 0
    kernel_size: 1
    stride: 1
    weight_filler {
      type: "msra"
    }
  }
}
layer {
  name: "bn4e_branch2c"
  type: "BatchNorm"
  bottom: "res4e_branch2c"
  top: "res4e_branch2c"
  batch_norm_param {
    use_global_stats: false
  }
}
layer {
  name: "scale4e_branch2c"
  type: "Scale"
  bottom: "res4e_branch2c"
  top: "res4e_branch2c"
  scale_param {
    bias_term: true
  }
}
layer {
  name: "res4e"
  type: "Eltwise"
  bottom: "res4d"
  bottom: "res4e_branch2c"
  top: "res4e"
  eltwise_param {
    operation: SUM
  }
}
layer {
  name: "res4e_relu"
  type: "ReLU"
  bottom: "res4e"
  top: "res4e"
}
layer {
  name: "res4f_branch2a"
  type: "Convolution"
  bottom: "res4e"
  top: "res4f_branch2a"
  convolution_param {
    num_output: 256
    bias_term: false
    pad: 0
    kernel_size: 1
    stride: 1
    weight_filler {
      type: "msra"
    }
  }
}
layer {
  name: "bn4f_branch2a"
  type: "BatchNorm"
  bottom: "res4f_branch2a"
  top: "res4f_branch2a"
  batch_norm_param {
    use_global_stats: false
  }
}
layer {
  name: "scale4f_branch2a"
  type: "Scale"
  bottom: "res4f_branch2a"
  top: "res4f_branch2a"
  scale_param {
    bias_term: true
  }
}
layer {
  name: "res4f_branch2a_relu"
  type: "ReLU"
  bottom: "res4f_branch2a"
  top: "res4f_branch2a"
}
layer {
  name: "res4f_branch2b"
  type: "Convolution"
  bottom: "res4f_branch2a"
  top: "res4f_branch2b"
  convolution_param {
    num_output: 256
    bias_term: false
    pad: 1
    kernel_size: 3
    stride: 1
    weight_filler {
      type: "msra"
    }
  }
}
layer {
  name: "bn4f_branch2b"
  type: "BatchNorm"
  bottom: "res4f_branch2b"
  top: "res4f_branch2b"
  batch_norm_param {
    use_global_stats: false
  }
}
layer {
  name: "scale4f_branch2b"
  type: "Scale"
  bottom: "res4f_branch2b"
  top: "res4f_branch2b"
  scale_param {
    bias_term: true
  }
}
layer {
  name: "res4f_branch2b_relu"
  type: "ReLU"
  bottom: "res4f_branch2b"
  top: "res4f_branch2b"
}
layer {
  name: "res4f_branch2c"
  type: "Convolution"
  bottom: "res4f_branch2b"
  top: "res4f_branch2c"
  convolution_param {
    num_output: 1024
    bias_term: false
    pad: 0
    kernel_size: 1
    stride: 1
    weight_filler {
      type: "msra"
    }
  }
}
layer {
  name: "bn4f_branch2c"
  type: "BatchNorm"
  bottom: "res4f_branch2c"
  top: "res4f_branch2c"
  batch_norm_param {
    use_
I0405 00:40:33.504688 16042 layer_factory.hpp:77] Creating layer L4G_IDS_4
I0405 00:40:33.504704 16042 net.cpp:84] Creating Layer L4G_IDS_4
I0405 00:40:33.504709 16042 net.cpp:380] L4G_IDS_4 -> data
I0405 00:40:33.504724 16042 net.cpp:380] L4G_IDS_4 -> label
I0405 00:40:33.504776 16042 image_data_layer.cpp:38] Opening file Train.txt
I0405 00:40:33.525318 16042 image_data_layer.cpp:63] A total of 125973 images.
I0405 00:40:33.525516 16042 image_data_layer.cpp:90] output data size: 256,3,7,7
I0405 00:40:33.526015 16042 net.cpp:122] Setting up L4G_IDS_4
I0405 00:40:33.526031 16042 net.cpp:129] Top shape: 256 3 7 7 (37632)
I0405 00:40:33.526036 16042 net.cpp:129] Top shape: 256 (256)
I0405 00:40:33.526039 16042 net.cpp:137] Memory required for data: 151552
I0405 00:40:33.526047 16042 layer_factory.hpp:77] Creating layer conv1
I0405 00:40:33.526075 16042 net.cpp:84] Creating Layer conv1
I0405 00:40:33.526082 16042 net.cpp:406] conv1 <- data
I0405 00:40:33.526091 16042 net.cpp:380] conv1 -> conv1
I0405 00:40:33.526262 16042 net.cpp:122] Setting up conv1
I0405 00:40:33.526270 16042 net.cpp:129] Top shape: 256 64 4 4 (262144)
I0405 00:40:33.526273 16042 net.cpp:137] Memory required for data: 1200128
I0405 00:40:33.526295 16042 layer_factory.hpp:77] Creating layer bn_conv1
I0405 00:40:33.526311 16042 net.cpp:84] Creating Layer bn_conv1
I0405 00:40:33.526319 16042 net.cpp:406] bn_conv1 <- conv1
I0405 00:40:33.526324 16042 net.cpp:367] bn_conv1 -> conv1 (in-place)
I0405 00:40:33.526347 16042 net.cpp:122] Setting up bn_conv1
I0405 00:40:33.526353 16042 net.cpp:129] Top shape: 256 64 4 4 (262144)
I0405 00:40:33.526357 16042 net.cpp:137] Memory required for data: 2248704
I0405 00:40:33.526376 16042 layer_factory.hpp:77] Creating layer scale_conv1
I0405 00:40:33.526392 16042 net.cpp:84] Creating Layer scale_conv1
I0405 00:40:33.526397 16042 net.cpp:406] scale_conv1 <- conv1
I0405 00:40:33.526443 16042 net.cpp:367] scale_conv1 -> conv1 (in-place)
I0405 00:40:33.526461 16042 layer_factory.hpp:77] Creating layer scale_conv1
I0405 00:40:33.526480 16042 net.cpp:122] Setting up scale_conv1
I0405 00:40:33.526486 16042 net.cpp:129] Top shape: 256 64 4 4 (262144)
I0405 00:40:33.526490 16042 net.cpp:137] Memory required for data: 3297280
I0405 00:40:33.526506 16042 layer_factory.hpp:77] Creating layer conv1_relu
I0405 00:40:33.526513 16042 net.cpp:84] Creating Layer conv1_relu
I0405 00:40:33.526516 16042 net.cpp:406] conv1_relu <- conv1
I0405 00:40:33.526520 16042 net.cpp:367] conv1_relu -> conv1 (in-place)
I0405 00:40:33.526531 16042 net.cpp:122] Setting up conv1_relu
I0405 00:40:33.526537 16042 net.cpp:129] Top shape: 256 64 4 4 (262144)
I0405 00:40:33.526540 16042 net.cpp:137] Memory required for data: 4345856
I0405 00:40:33.526543 16042 layer_factory.hpp:77] Creating layer pool1
I0405 00:40:33.526551 16042 net.cpp:84] Creating Layer pool1
I0405 00:40:33.526553 16042 net.cpp:406] pool1 <- conv1
I0405 00:40:33.526561 16042 net.cpp:380] pool1 -> pool1
I0405 00:40:33.526571 16042 net.cpp:122] Setting up pool1
I0405 00:40:33.526576 16042 net.cpp:129] Top shape: 256 64 2 2 (65536)
I0405 00:40:33.526579 16042 net.cpp:137] Memory required for data: 4608000
I0405 00:40:33.526583 16042 layer_factory.hpp:77] Creating layer pool1_pool1_0_split
I0405 00:40:33.526587 16042 net.cpp:84] Creating Layer pool1_pool1_0_split
I0405 00:40:33.526592 16042 net.cpp:406] pool1_pool1_0_split <- pool1
I0405 00:40:33.526597 16042 net.cpp:380] pool1_pool1_0_split -> pool1_pool1_0_split_0
I0405 00:40:33.526603 16042 net.cpp:380] pool1_pool1_0_split -> pool1_pool1_0_split_1
I0405 00:40:33.526609 16042 net.cpp:122] Setting up pool1_pool1_0_split
I0405 00:40:33.526614 16042 net.cpp:129] Top shape: 256 64 2 2 (65536)
I0405 00:40:33.526618 16042 net.cpp:129] Top shape: 256 64 2 2 (65536)
I0405 00:40:33.526621 16042 net.cpp:137] Memory required for data: 5132288
I0405 00:40:33.526624 16042 layer_factory.hpp:77] Creating layer res2a_branch1
I0405 00:40:33.526633 16042 net.cpp:84] Creating Layer res2a_branch1
I0405 00:40:33.526635 16042 net.cpp:406] res2a_branch1 <- pool1_pool1_0_split_0
I0405 00:40:33.526640 16042 net.cpp:380] res2a_branch1 -> res2a_branch1
I0405 00:40:33.526844 16042 net.cpp:122] Setting up res2a_branch1
I0405 00:40:33.526849 16042 net.cpp:129] Top shape: 256 256 2 2 (262144)
I0405 00:40:33.526852 16042 net.cpp:137] Memory required for data: 6180864
I0405 00:40:33.526870 16042 layer_factory.hpp:77] Creating layer bn2a_branch1
I0405 00:40:33.526880 16042 net.cpp:84] Creating Layer bn2a_branch1
I0405 00:40:33.526885 16042 net.cpp:406] bn2a_branch1 <- res2a_branch1
I0405 00:40:33.526890 16042 net.cpp:367] bn2a_branch1 -> res2a_branch1 (in-place)
I0405 00:40:33.526904 16042 net.cpp:122] Setting up bn2a_branch1
I0405 00:40:33.526909 16042 net.cpp:129] Top shape: 256 256 2 2 (262144)
I0405 00:40:33.526912 16042 net.cpp:137] Memory required for data: 7229440
I0405 00:40:33.526919 16042 layer_factory.hpp:77] Creating layer scale2a_branch1
I0405 00:40:33.526926 16042 net.cpp:84] Creating Layer scale2a_branch1
I0405 00:40:33.526928 16042 net.cpp:406] scale2a_branch1 <- res2a_branch1
I0405 00:40:33.526932 16042 net.cpp:367] scale2a_branch1 -> res2a_branch1 (in-place)
I0405 00:40:33.526940 16042 layer_factory.hpp:77] Creating layer scale2a_branch1
I0405 00:40:33.526954 16042 net.cpp:122] Setting up scale2a_branch1
I0405 00:40:33.526960 16042 net.cpp:129] Top shape: 256 256 2 2 (262144)
I0405 00:40:33.526963 16042 net.cpp:137] Memory required for data: 8278016
I0405 00:40:33.526968 16042 layer_factory.hpp:77] Creating layer res2a_branch2a
I0405 00:40:33.526978 16042 net.cpp:84] Creating Layer res2a_branch2a
I0405 00:40:33.526980 16042 net.cpp:406] res2a_branch2a <- pool1_pool1_0_split_1
I0405 00:40:33.526988 16042 net.cpp:380] res2a_branch2a -> res2a_branch2a
I0405 00:40:33.527051 16042 net.cpp:122] Setting up res2a_branch2a
I0405 00:40:33.527058 16042 net.cpp:129] Top shape: 256 64 2 2 (65536)
I0405 00:40:33.527061 16042 net.cpp:137] Memory required for data: 8540160
I0405 00:40:33.527079 16042 layer_factory.hpp:77] Creating layer bn2a_branch2a
I0405 00:40:33.527086 16042 net.cpp:84] Creating Layer bn2a_branch2a
I0405 00:40:33.527088 16042 net.cpp:406] bn2a_branch2a <- res2a_branch2a
I0405 00:40:33.527092 16042 net.cpp:367] bn2a_branch2a -> res2a_branch2a (in-place)
I0405 00:40:33.527103 16042 net.cpp:122] Setting up bn2a_branch2a
I0405 00:40:33.527108 16042 net.cpp:129] Top shape: 256 64 2 2 (65536)
I0405 00:40:33.527112 16042 net.cpp:137] Memory required for data: 8802304
I0405 00:40:33.527118 16042 layer_factory.hpp:77] Creating layer scale2a_branch2a
I0405 00:40:33.527124 16042 net.cpp:84] Creating Layer scale2a_branch2a
I0405 00:40:33.527128 16042 net.cpp:406] scale2a_branch2a <- res2a_branch2a
I0405 00:40:33.527132 16042 net.cpp:367] scale2a_branch2a -> res2a_branch2a (in-place)
I0405 00:40:33.527138 16042 layer_factory.hpp:77] Creating layer scale2a_branch2a
I0405 00:40:33.527149 16042 net.cpp:122] Setting up scale2a_branch2a
I0405 00:40:33.527156 16042 net.cpp:129] Top shape: 256 64 2 2 (65536)
I0405 00:40:33.527159 16042 net.cpp:137] Memory required for data: 9064448
I0405 00:40:33.527163 16042 layer_factory.hpp:77] Creating layer res2a_branch2a_relu
I0405 00:40:33.527169 16042 net.cpp:84] Creating Layer res2a_branch2a_relu
I0405 00:40:33.527173 16042 net.cpp:406] res2a_branch2a_relu <- res2a_branch2a
I0405 00:40:33.527178 16042 net.cpp:367] res2a_branch2a_relu -> res2a_branch2a (in-place)
I0405 00:40:33.527182 16042 net.cpp:122] Setting up res2a_branch2a_relu
I0405 00:40:33.527186 16042 net.cpp:129] Top shape: 256 64 2 2 (65536)
I0405 00:40:33.527189 16042 net.cpp:137] Memory required for data: 9326592
I0405 00:40:33.527192 16042 layer_factory.hpp:77] Creating layer res2a_branch2b
I0405 00:40:33.527197 16042 net.cpp:84] Creating Layer res2a_branch2b
I0405 00:40:33.527202 16042 net.cpp:406] res2a_branch2b <- res2a_branch2a
I0405 00:40:33.527207 16042 net.cpp:380] res2a_branch2b -> res2a_branch2b
I0405 00:40:33.527608 16042 net.cpp:122] Setting up res2a_branch2b
I0405 00:40:33.527616 16042 net.cpp:129] Top shape: 256 64 2 2 (65536)
I0405 00:40:33.527619 16042 net.cpp:137] Memory required for data: 9588736
I0405 00:40:33.527623 16042 layer_factory.hpp:77] Creating layer bn2a_branch2b
I0405 00:40:33.527631 16042 net.cpp:84] Creating Layer bn2a_branch2b
I0405 00:40:33.527634 16042 net.cpp:406] bn2a_branch2b <- res2a_branch2b
I0405 00:40:33.527639 16042 net.cpp:367] bn2a_branch2b -> res2a_branch2b (in-place)
I0405 00:40:33.527659 16042 net.cpp:122] Setting up bn2a_branch2b
I0405 00:40:33.527665 16042 net.cpp:129] Top shape: 256 64 2 2 (65536)
I0405 00:40:33.527668 16042 net.cpp:137] Memory required for data: 9850880
I0405 00:40:33.527673 16042 layer_factory.hpp:77] Creating layer scale2a_branch2b
I0405 00:40:33.527680 16042 net.cpp:84] Creating Layer scale2a_branch2b
I0405 00:40:33.527684 16042 net.cpp:406] scale2a_branch2b <- res2a_branch2b
I0405 00:40:33.527688 16042 net.cpp:367] scale2a_branch2b -> res2a_branch2b (in-place)
I0405 00:40:33.527695 16042 layer_factory.hpp:77] Creating layer scale2a_branch2b
I0405 00:40:33.527707 16042 net.cpp:122] Setting up scale2a_branch2b
I0405 00:40:33.527712 16042 net.cpp:129] Top shape: 256 64 2 2 (65536)
I0405 00:40:33.527715 16042 net.cpp:137] Memory required for data: 10113024
I0405 00:40:33.527736 16042 layer_factory.hpp:77] Creating layer res2a_branch2b_relu
I0405 00:40:33.527740 16042 net.cpp:84] Creating Layer res2a_branch2b_relu
I0405 00:40:33.527745 16042 net.cpp:406] res2a_branch2b_relu <- res2a_branch2b
I0405 00:40:33.527748 16042 net.cpp:367] res2a_branch2b_relu -> res2a_branch2b (in-place)
I0405 00:40:33.527752 16042 net.cpp:122] Setting up res2a_branch2b_relu
I0405 00:40:33.527756 16042 net.cpp:129] Top shape: 256 64 2 2 (65536)
I0405 00:40:33.527760 16042 net.cpp:137] Memory required for data: 10375168
I0405 00:40:33.527763 16042 layer_factory.hpp:77] Creating layer res2a_branch2c
I0405 00:40:33.527770 16042 net.cpp:84] Creating Layer res2a_branch2c
I0405 00:40:33.527776 16042 net.cpp:406] res2a_branch2c <- res2a_branch2b
I0405 00:40:33.527788 16042 net.cpp:380] res2a_branch2c -> res2a_branch2c
I0405 00:40:33.527973 16042 net.cpp:122] Setting up res2a_branch2c
I0405 00:40:33.527979 16042 net.cpp:129] Top shape: 256 256 2 2 (262144)
I0405 00:40:33.527983 16042 net.cpp:137] Memory required for data: 11423744
I0405 00:40:33.527988 16042 layer_factory.hpp:77] Creating layer bn2a_branch2c
I0405 00:40:33.527994 16042 net.cpp:84] Creating Layer bn2a_branch2c
I0405 00:40:33.527997 16042 net.cpp:406] bn2a_branch2c <- res2a_branch2c
I0405 00:40:33.528002 16042 net.cpp:367] bn2a_branch2c -> res2a_branch2c (in-place)
I0405 00:40:33.528017 16042 net.cpp:122] Setting up bn2a_branch2c
I0405 00:40:33.528023 16042 net.cpp:129] Top shape: 256 256 2 2 (262144)
I0405 00:40:33.528025 16042 net.cpp:137] Memory required for data: 12472320
I0405 00:40:33.528029 16042 layer_factory.hpp:77] Creating layer scale2a_branch2c
I0405 00:40:33.528035 16042 net.cpp:84] Creating Layer scale2a_branch2c
I0405 00:40:33.528038 16042 net.cpp:406] scale2a_branch2c <- res2a_branch2c
I0405 00:40:33.528043 16042 net.cpp:367] scale2a_branch2c -> res2a_branch2c (in-place)
I0405 00:40:33.528051 16042 layer_factory.hpp:77] Creating layer scale2a_branch2c
I0405 00:40:33.528065 16042 net.cpp:122] Setting up scale2a_branch2c
I0405 00:40:33.528070 16042 net.cpp:129] Top shape: 256 256 2 2 (262144)
I0405 00:40:33.528074 16042 net.cpp:137] Memory required for data: 13520896
I0405 00:40:33.528079 16042 layer_factory.hpp:77] Creating layer res2a
I0405 00:40:33.528085 16042 net.cpp:84] Creating Layer res2a
I0405 00:40:33.528089 16042 net.cpp:406] res2a <- res2a_branch1
I0405 00:40:33.528093 16042 net.cpp:406] res2a <- res2a_branch2c
I0405 00:40:33.528100 16042 net.cpp:380] res2a -> res2a
I0405 00:40:33.528106 16042 net.cpp:122] Setting up res2a
I0405 00:40:33.528110 16042 net.cpp:129] Top shape: 256 256 2 2 (262144)
I0405 00:40:33.528113 16042 net.cpp:137] Memory required for data: 14569472
I0405 00:40:33.528116 16042 layer_factory.hpp:77] Creating layer res2a_relu
I0405 00:40:33.528121 16042 net.cpp:84] Creating Layer res2a_relu
I0405 00:40:33.528126 16042 net.cpp:406] res2a_relu <- res2a
I0405 00:40:33.528129 16042 net.cpp:367] res2a_relu -> res2a (in-place)
I0405 00:40:33.528133 16042 net.cpp:122] Setting up res2a_relu
I0405 00:40:33.528137 16042 net.cpp:129] Top shape: 256 256 2 2 (262144)
I0405 00:40:33.528141 16042 net.cpp:137] Memory required for data: 15618048
I0405 00:40:33.528144 16042 layer_factory.hpp:77] Creating layer res2a_res2a_relu_0_split
I0405 00:40:33.528151 16042 net.cpp:84] Creating Layer res2a_res2a_relu_0_split
I0405 00:40:33.528153 16042 net.cpp:406] res2a_res2a_relu_0_split <- res2a
I0405 00:40:33.528161 16042 net.cpp:380] res2a_res2a_relu_0_split -> res2a_res2a_relu_0_split_0
I0405 00:40:33.528165 16042 net.cpp:380] res2a_res2a_relu_0_split -> res2a_res2a_relu_0_split_1
I0405 00:40:33.528170 16042 net.cpp:122] Setting up res2a_res2a_relu_0_split
I0405 00:40:33.528174 16042 net.cpp:129] Top shape: 256 256 2 2 (262144)
I0405 00:40:33.528178 16042 net.cpp:129] Top shape: 256 256 2 2 (262144)
I0405 00:40:33.528182 16042 net.cpp:137] Memory required for data: 17715200
I0405 00:40:33.528184 16042 layer_factory.hpp:77] Creating layer res2b_branch2a
I0405 00:40:33.528198 16042 net.cpp:84] Creating Layer res2b_branch2a
I0405 00:40:33.528203 16042 net.cpp:406] res2b_branch2a <- res2a_res2a_relu_0_split_0
I0405 00:40:33.528208 16042 net.cpp:380] res2b_branch2a -> res2b_branch2a
I0405 00:40:33.528383 16042 net.cpp:122] Setting up res2b_branch2a
I0405 00:40:33.528388 16042 net.cpp:129] Top shape: 256 64 2 2 (65536)
I0405 00:40:33.528391 16042 net.cpp:137] Memory required for data: 17977344
I0405 00:40:33.528396 16042 layer_factory.hpp:77] Creating layer bn2b_branch2a
I0405 00:40:33.528403 16042 net.cpp:84] Creating Layer bn2b_branch2a
I0405 00:40:33.528406 16042 net.cpp:406] bn2b_branch2a <- res2b_branch2a
I0405 00:40:33.528409 16042 net.cpp:367] bn2b_branch2a -> res2b_branch2a (in-place)
I0405 00:40:33.528422 16042 net.cpp:122] Setting up bn2b_branch2a
I0405 00:40:33.528436 16042 net.cpp:129] Top shape: 256 64 2 2 (65536)
I0405 00:40:33.528439 16042 net.cpp:137] Memory required for data: 18239488
I0405 00:40:33.528447 16042 layer_factory.hpp:77] Creating layer scale2b_branch2a
I0405 00:40:33.528455 16042 net.cpp:84] Creating Layer scale2b_branch2a
I0405 00:40:33.528457 16042 net.cpp:406] scale2b_branch2a <- res2b_branch2a
I0405 00:40:33.528461 16042 net.cpp:367] scale2b_branch2a -> res2b_branch2a (in-place)
I0405 00:40:33.528470 16042 layer_factory.hpp:77] Creating layer scale2b_branch2a
I0405 00:40:33.528486 16042 net.cpp:122] Setting up scale2b_branch2a
I0405 00:40:33.528491 16042 net.cpp:129] Top shape: 256 64 2 2 (65536)
I0405 00:40:33.528494 16042 net.cpp:137] Memory required for data: 18501632
I0405 00:40:33.528499 16042 layer_factory.hpp:77] Creating layer res2b_branch2a_relu
I0405 00:40:33.528506 16042 net.cpp:84] Creating Layer res2b_branch2a_relu
I0405 00:40:33.528508 16042 net.cpp:406] res2b_branch2a_relu <- res2b_branch2a
I0405 00:40:33.528512 16042 net.cpp:367] res2b_branch2a_relu -> res2b_branch2a (in-place)
I0405 00:40:33.528517 16042 net.cpp:122] Setting up res2b_branch2a_relu
I0405 00:40:33.528519 16042 net.cpp:129] Top shape: 256 64 2 2 (65536)
I0405 00:40:33.528522 16042 net.cpp:137] Memory required for data: 18763776
I0405 00:40:33.528525 16042 layer_factory.hpp:77] Creating layer res2b_branch2b
I0405 00:40:33.528532 16042 net.cpp:84] Creating Layer res2b_branch2b
I0405 00:40:33.528535 16042 net.cpp:406] res2b_branch2b <- res2b_branch2a
I0405 00:40:33.528542 16042 net.cpp:380] res2b_branch2b -> res2b_branch2b
I0405 00:40:33.528931 16042 net.cpp:122] Setting up res2b_branch2b
I0405 00:40:33.528937 16042 net.cpp:129] Top shape: 256 64 2 2 (65536)
I0405 00:40:33.528941 16042 net.cpp:137] Memory required for data: 19025920
I0405 00:40:33.528945 16042 layer_factory.hpp:77] Creating layer bn2b_branch2b
I0405 00:40:33.528952 16042 net.cpp:84] Creating Layer bn2b_branch2b
I0405 00:40:33.528955 16042 net.cpp:406] bn2b_branch2b <- res2b_branch2b
I0405 00:40:33.528959 16042 net.cpp:367] bn2b_branch2b -> res2b_branch2b (in-place)
I0405 00:40:33.528971 16042 net.cpp:122] Setting up bn2b_branch2b
I0405 00:40:33.528976 16042 net.cpp:129] Top shape: 256 64 2 2 (65536)
I0405 00:40:33.528980 16042 net.cpp:137] Memory required for data: 19288064
I0405 00:40:33.528985 16042 layer_factory.hpp:77] Creating layer scale2b_branch2b
I0405 00:40:33.528990 16042 net.cpp:84] Creating Layer scale2b_branch2b
I0405 00:40:33.529000 16042 net.cpp:406] scale2b_branch2b <- res2b_branch2b
I0405 00:40:33.529006 16042 net.cpp:367] scale2b_branch2b -> res2b_branch2b (in-place)
I0405 00:40:33.529012 16042 layer_factory.hpp:77] Creating layer scale2b_branch2b
I0405 00:40:33.529024 16042 net.cpp:122] Setting up scale2b_branch2b
I0405 00:40:33.529029 16042 net.cpp:129] Top shape: 256 64 2 2 (65536)
I0405 00:40:33.529032 16042 net.cpp:137] Memory required for data: 19550208
I0405 00:40:33.529037 16042 layer_factory.hpp:77] Creating layer res2b_branch2b_relu
I0405 00:40:33.529042 16042 net.cpp:84] Creating Layer res2b_branch2b_relu
I0405 00:40:33.529044 16042 net.cpp:406] res2b_branch2b_relu <- res2b_branch2b
I0405 00:40:33.529050 16042 net.cpp:367] res2b_branch2b_relu -> res2b_branch2b (in-place)
I0405 00:40:33.529054 16042 net.cpp:122] Setting up res2b_branch2b_relu
I0405 00:40:33.529058 16042 net.cpp:129] Top shape: 256 64 2 2 (65536)
I0405 00:40:33.529062 16042 net.cpp:137] Memory required for data: 19812352
I0405 00:40:33.529064 16042 layer_factory.hpp:77] Creating layer res2b_branch2c
I0405 00:40:33.529079 16042 net.cpp:84] Creating Layer res2b_branch2c
I0405 00:40:33.529084 16042 net.cpp:406] res2b_branch2c <- res2b_branch2b
I0405 00:40:33.529089 16042 net.cpp:380] res2b_branch2c -> res2b_branch2c
I0405 00:40:33.529268 16042 net.cpp:122] Setting up res2b_branch2c
I0405 00:40:33.529274 16042 net.cpp:129] Top shape: 256 256 2 2 (262144)
I0405 00:40:33.529278 16042 net.cpp:137] Memory required for data: 20860928
I0405 00:40:33.529281 16042 layer_factory.hpp:77] Creating layer bn2b_branch2c
I0405 00:40:33.529296 16042 net.cpp:84] Creating Layer bn2b_branch2c
I0405 00:40:33.529300 16042 net.cpp:406] bn2b_branch2c <- res2b_branch2c
I0405 00:40:33.529304 16042 net.cpp:367] bn2b_branch2c -> res2b_branch2c (in-place)
I0405 00:40:33.529316 16042 net.cpp:122] Setting up bn2b_branch2c
I0405 00:40:33.529321 16042 net.cpp:129] Top shape: 256 256 2 2 (262144)
I0405 00:40:33.529325 16042 net.cpp:137] Memory required for data: 21909504
I0405 00:40:33.529330 16042 layer_factory.hpp:77] Creating layer scale2b_branch2c
I0405 00:40:33.529335 16042 net.cpp:84] Creating Layer scale2b_branch2c
I0405 00:40:33.529338 16042 net.cpp:406] scale2b_branch2c <- res2b_branch2c
I0405 00:40:33.529342 16042 net.cpp:367] scale2b_branch2c -> res2b_branch2c (in-place)
I0405 00:40:33.529351 16042 layer_factory.hpp:77] Creating layer scale2b_branch2c
I0405 00:40:33.529363 16042 net.cpp:122] Setting up scale2b_branch2c
I0405 00:40:33.529368 16042 net.cpp:129] Top shape: 256 256 2 2 (262144)
I0405 00:40:33.529371 16042 net.cpp:137] Memory required for data: 22958080
I0405 00:40:33.529376 16042 layer_factory.hpp:77] Creating layer res2b
I0405 00:40:33.529381 16042 net.cpp:84] Creating Layer res2b
I0405 00:40:33.529384 16042 net.cpp:406] res2b <- res2a_res2a_relu_0_split_1
I0405 00:40:33.529388 16042 net.cpp:406] res2b <- res2b_branch2c
I0405 00:40:33.529392 16042 net.cpp:380] res2b -> res2b
I0405 00:40:33.529399 16042 net.cpp:122] Setting up res2b
I0405 00:40:33.529404 16042 net.cpp:129] Top shape: 256 256 2 2 (262144)
I0405 00:40:33.529407 16042 net.cpp:137] Memory required for data: 24006656
I0405 00:40:33.529410 16042 layer_factory.hpp:77] Creating layer res2b_relu
I0405 00:40:33.529414 16042 net.cpp:84] Creating Layer res2b_relu
I0405 00:40:33.529417 16042 net.cpp:406] res2b_relu <- res2b
I0405 00:40:33.529423 16042 net.cpp:367] res2b_relu -> res2b (in-place)
I0405 00:40:33.529428 16042 net.cpp:122] Setting up res2b_relu
I0405 00:40:33.529431 16042 net.cpp:129] Top shape: 256 256 2 2 (262144)
I0405 00:40:33.529434 16042 net.cpp:137] Memory required for data: 25055232
I0405 00:40:33.529438 16042 layer_factory.hpp:77] Creating layer res2b_res2b_relu_0_split
I0405 00:40:33.529441 16042 net.cpp:84] Creating Layer res2b_res2b_relu_0_split
I0405 00:40:33.529444 16042 net.cpp:406] res2b_res2b_relu_0_split <- res2b
I0405 00:40:33.529450 16042 net.cpp:380] res2b_res2b_relu_0_split -> res2b_res2b_relu_0_split_0
I0405 00:40:33.529455 16042 net.cpp:380] res2b_res2b_relu_0_split -> res2b_res2b_relu_0_split_1
I0405 00:40:33.529460 16042 net.cpp:122] Setting up res2b_res2b_relu_0_split
I0405 00:40:33.529464 16042 net.cpp:129] Top shape: 256 256 2 2 (262144)
I0405 00:40:33.529469 16042 net.cpp:129] Top shape: 256 256 2 2 (262144)
I0405 00:40:33.529471 16042 net.cpp:137] Memory required for data: 27152384
I0405 00:40:33.529486 16042 layer_factory.hpp:77] Creating layer res2c_branch2a
I0405 00:40:33.529495 16042 net.cpp:84] Creating Layer res2c_branch2a
I0405 00:40:33.529498 16042 net.cpp:406] res2c_branch2a <- res2b_res2b_relu_0_split_0
I0405 00:40:33.529503 16042 net.cpp:380] res2c_branch2a -> res2c_branch2a
I0405 00:40:33.529677 16042 net.cpp:122] Setting up res2c_branch2a
I0405 00:40:33.529685 16042 net.cpp:129] Top shape: 256 64 2 2 (65536)
I0405 00:40:33.529687 16042 net.cpp:137] Memory required for data: 27414528
I0405 00:40:33.529691 16042 layer_factory.hpp:77] Creating layer bn2c_branch2a
I0405 00:40:33.529695 16042 net.cpp:84] Creating Layer bn2c_branch2a
I0405 00:40:33.529698 16042 net.cpp:406] bn2c_branch2a <- res2c_branch2a
I0405 00:40:33.529705 16042 net.cpp:367] bn2c_branch2a -> res2c_branch2a (in-place)
I0405 00:40:33.529716 16042 net.cpp:122] Setting up bn2c_branch2a
I0405 00:40:33.529721 16042 net.cpp:129] Top shape: 256 64 2 2 (65536)
I0405 00:40:33.529723 16042 net.cpp:137] Memory required for data: 27676672
I0405 00:40:33.529728 16042 layer_factory.hpp:77] Creating layer scale2c_branch2a
I0405 00:40:33.529736 16042 net.cpp:84] Creating Layer scale2c_branch2a
I0405 00:40:33.529739 16042 net.cpp:406] scale2c_branch2a <- res2c_branch2a
I0405 00:40:33.529752 16042 net.cpp:367] scale2c_branch2a -> res2c_branch2a (in-place)
I0405 00:40:33.529762 16042 layer_factory.hpp:77] Creating layer scale2c_branch2a
I0405 00:40:33.529772 16042 net.cpp:122] Setting up scale2c_branch2a
I0405 00:40:33.529779 16042 net.cpp:129] Top shape: 256 64 2 2 (65536)
I0405 00:40:33.529783 16042 net.cpp:137] Memory required for data: 27938816
I0405 00:40:33.529786 16042 layer_factory.hpp:77] Creating layer res2c_branch2a_relu
I0405 00:40:33.529790 16042 net.cpp:84] Creating Layer res2c_branch2a_relu
I0405 00:40:33.529794 16042 net.cpp:406] res2c_branch2a_relu <- res2c_branch2a
I0405 00:40:33.529798 16042 net.cpp:367] res2c_branch2a_relu -> res2c_branch2a (in-place)
I0405 00:40:33.529803 16042 net.cpp:122] Setting up res2c_branch2a_relu
I0405 00:40:33.529806 16042 net.cpp:129] Top shape: 256 64 2 2 (65536)
I0405 00:40:33.529810 16042 net.cpp:137] Memory required for data: 28200960
I0405 00:40:33.529814 16042 layer_factory.hpp:77] Creating layer res2c_branch2b
I0405 00:40:33.529819 16042 net.cpp:84] Creating Layer res2c_branch2b
I0405 00:40:33.529822 16042 net.cpp:406] res2c_branch2b <- res2c_branch2a
I0405 00:40:33.529826 16042 net.cpp:380] res2c_branch2b -> res2c_branch2b
I0405 00:40:33.530328 16042 net.cpp:122] Setting up res2c_branch2b
I0405 00:40:33.530351 16042 net.cpp:129] Top shape: 256 64 2 2 (65536)
I0405 00:40:33.530357 16042 net.cpp:137] Memory required for data: 28463104
I0405 00:40:33.530372 16042 layer_factory.hpp:77] Creating layer bn2c_branch2b
I0405 00:40:33.530388 16042 net.cpp:84] Creating Layer bn2c_branch2b
I0405 00:40:33.530392 16042 net.cpp:406] bn2c_branch2b <- res2c_branch2b
I0405 00:40:33.530400 16042 net.cpp:367] bn2c_branch2b -> res2c_branch2b (in-place)
I0405 00:40:33.530418 16042 net.cpp:122] Setting up bn2c_branch2b
I0405 00:40:33.530426 16042 net.cpp:129] Top shape: 256 64 2 2 (65536)
I0405 00:40:33.530431 16042 net.cpp:137] Memory required for data: 28725248
I0405 00:40:33.530439 16042 layer_factory.hpp:77] Creating layer scale2c_branch2b
I0405 00:40:33.530452 16042 net.cpp:84] Creating Layer scale2c_branch2b
I0405 00:40:33.530458 16042 net.cpp:406] scale2c_branch2b <- res2c_branch2b
I0405 00:40:33.530465 16042 net.cpp:367] scale2c_branch2b -> res2c_branch2b (in-place)
I0405 00:40:33.530478 16042 layer_factory.hpp:77] Creating layer scale2c_branch2b
I0405 00:40:33.530496 16042 net.cpp:122] Setting up scale2c_branch2b
I0405 00:40:33.530505 16042 net.cpp:129] Top shape: 256 64 2 2 (65536)
I0405 00:40:33.530510 16042 net.cpp:137] Memory required for data: 28987392
I0405 00:40:33.530516 16042 layer_factory.hpp:77] Creating layer res2c_branch2b_relu
I0405 00:40:33.530522 16042 net.cpp:84] Creating Layer res2c_branch2b_relu
I0405 00:40:33.530529 16042 net.cpp:406] res2c_branch2b_relu <- res2c_branch2b
I0405 00:40:33.530535 16042 net.cpp:367] res2c_branch2b_relu -> res2c_branch2b (in-place)
I0405 00:40:33.530542 16042 net.cpp:122] Setting up res2c_branch2b_relu
I0405 00:40:33.530550 16042 net.cpp:129] Top shape: 256 64 2 2 (65536)
I0405 00:40:33.530553 16042 net.cpp:137] Memory required for data: 29249536
I0405 00:40:33.530560 16042 layer_factory.hpp:77] Creating layer res2c_branch2c
I0405 00:40:33.530571 16042 net.cpp:84] Creating Layer res2c_branch2c
I0405 00:40:33.530580 16042 net.cpp:406] res2c_branch2c <- res2c_branch2b
I0405 00:40:33.530587 16042 net.cpp:380] res2c_branch2c -> res2c_branch2c
I0405 00:40:33.530866 16042 net.cpp:122] Setting up res2c_branch2c
I0405 00:40:33.530880 16042 net.cpp:129] Top shape: 256 256 2 2 (262144)
I0405 00:40:33.530886 16042 net.cpp:137] Memory required for data: 30298112
I0405 00:40:33.530894 16042 layer_factory.hpp:77] Creating layer bn2c_branch2c
I0405 00:40:33.530905 16042 net.cpp:84] Creating Layer bn2c_branch2c
I0405 00:40:33.530912 16042 net.cpp:406] bn2c_branch2c <- res2c_branch2c
I0405 00:40:33.530920 16042 net.cpp:367] bn2c_branch2c -> res2c_branch2c (in-place)
I0405 00:40:33.530942 16042 net.cpp:122] Setting up bn2c_branch2c
I0405 00:40:33.530951 16042 net.cpp:129] Top shape: 256 256 2 2 (262144)
I0405 00:40:33.530973 16042 net.cpp:137] Memory required for data: 31346688
I0405 00:40:33.530992 16042 layer_factory.hpp:77] Creating layer scale2c_branch2c
I0405 00:40:33.531002 16042 net.cpp:84] Creating Layer scale2c_branch2c
I0405 00:40:33.531010 16042 net.cpp:406] scale2c_branch2c <- res2c_branch2c
I0405 00:40:33.531034 16042 net.cpp:367] scale2c_branch2c -> res2c_branch2c (in-place)
I0405 00:40:33.531051 16042 layer_factory.hpp:77] Creating layer scale2c_branch2c
I0405 00:40:33.531072 16042 net.cpp:122] Setting up scale2c_branch2c
I0405 00:40:33.531082 16042 net.cpp:129] Top shape: 256 256 2 2 (262144)
I0405 00:40:33.531090 16042 net.cpp:137] Memory required for data: 32395264
I0405 00:40:33.531096 16042 layer_factory.hpp:77] Creating layer res2c
I0405 00:40:33.531111 16042 net.cpp:84] Creating Layer res2c
I0405 00:40:33.531117 16042 net.cpp:406] res2c <- res2b_res2b_relu_0_split_1
I0405 00:40:33.531124 16042 net.cpp:406] res2c <- res2c_branch2c
I0405 00:40:33.531134 16042 net.cpp:380] res2c -> res2c
I0405 00:40:33.531144 16042 net.cpp:122] Setting up res2c
I0405 00:40:33.531154 16042 net.cpp:129] Top shape: 256 256 2 2 (262144)
I0405 00:40:33.531160 16042 net.cpp:137] Memory required for data: 33443840
I0405 00:40:33.531165 16042 layer_factory.hpp:77] Creating layer res2c_relu
I0405 00:40:33.531174 16042 net.cpp:84] Creating Layer res2c_relu
I0405 00:40:33.531181 16042 net.cpp:406] res2c_relu <- res2c
I0405 00:40:33.531188 16042 net.cpp:367] res2c_relu -> res2c (in-place)
I0405 00:40:33.531194 16042 net.cpp:122] Setting up res2c_relu
I0405 00:40:33.531203 16042 net.cpp:129] Top shape: 256 256 2 2 (262144)
I0405 00:40:33.531206 16042 net.cpp:137] Memory required for data: 34492416
I0405 00:40:33.531211 16042 layer_factory.hpp:77] Creating layer res2c_res2c_relu_0_split
I0405 00:40:33.531221 16042 net.cpp:84] Creating Layer res2c_res2c_relu_0_split
I0405 00:40:33.531229 16042 net.cpp:406] res2c_res2c_relu_0_split <- res2c
I0405 00:40:33.531239 16042 net.cpp:380] res2c_res2c_relu_0_split -> res2c_res2c_relu_0_split_0
I0405 00:40:33.531247 16042 net.cpp:380] res2c_res2c_relu_0_split -> res2c_res2c_relu_0_split_1
I0405 00:40:33.531257 16042 net.cpp:122] Setting up res2c_res2c_relu_0_split
I0405 00:40:33.531265 16042 net.cpp:129] Top shape: 256 256 2 2 (262144)
I0405 00:40:33.531270 16042 net.cpp:129] Top shape: 256 256 2 2 (262144)
I0405 00:40:33.531276 16042 net.cpp:137] Memory required for data: 36589568
I0405 00:40:33.531281 16042 layer_factory.hpp:77] Creating layer res3a_branch1
I0405 00:40:33.531291 16042 net.cpp:84] Creating Layer res3a_branch1
I0405 00:40:33.531296 16042 net.cpp:406] res3a_branch1 <- res2c_res2c_relu_0_split_0
I0405 00:40:33.531304 16042 net.cpp:380] res3a_branch1 -> res3a_branch1
I0405 00:40:33.533455 16042 net.cpp:122] Setting up res3a_branch1
I0405 00:40:33.533480 16042 net.cpp:129] Top shape: 256 512 1 1 (131072)
I0405 00:40:33.533486 16042 net.cpp:137] Memory required for data: 37113856
I0405 00:40:33.533493 16042 layer_factory.hpp:77] Creating layer bn3a_branch1
I0405 00:40:33.533502 16042 net.cpp:84] Creating Layer bn3a_branch1
I0405 00:40:33.533509 16042 net.cpp:406] bn3a_branch1 <- res3a_branch1
I0405 00:40:33.533519 16042 net.cpp:367] bn3a_branch1 -> res3a_branch1 (in-place)
I0405 00:40:33.533540 16042 net.cpp:122] Setting up bn3a_branch1
I0405 00:40:33.533550 16042 net.cpp:129] Top shape: 256 512 1 1 (131072)
I0405 00:40:33.533555 16042 net.cpp:137] Memory required for data: 37638144
I0405 00:40:33.533563 16042 layer_factory.hpp:77] Creating layer scale3a_branch1
I0405 00:40:33.533573 16042 net.cpp:84] Creating Layer scale3a_branch1
I0405 00:40:33.533581 16042 net.cpp:406] scale3a_branch1 <- res3a_branch1
I0405 00:40:33.533586 16042 net.cpp:367] scale3a_branch1 -> res3a_branch1 (in-place)
I0405 00:40:33.533601 16042 layer_factory.hpp:77] Creating layer scale3a_branch1
I0405 00:40:33.533622 16042 net.cpp:122] Setting up scale3a_branch1
I0405 00:40:33.533630 16042 net.cpp:129] Top shape: 256 512 1 1 (131072)
I0405 00:40:33.533634 16042 net.cpp:137] Memory required for data: 38162432
I0405 00:40:33.533641 16042 layer_factory.hpp:77] Creating layer res3a_branch2a
I0405 00:40:33.533674 16042 net.cpp:84] Creating Layer res3a_branch2a
I0405 00:40:33.533681 16042 net.cpp:406] res3a_branch2a <- res2c_res2c_relu_0_split_1
I0405 00:40:33.533689 16042 net.cpp:380] res3a_branch2a -> res3a_branch2a
I0405 00:40:33.534085 16042 net.cpp:122] Setting up res3a_branch2a
I0405 00:40:33.534099 16042 net.cpp:129] Top shape: 256 128 1 1 (32768)
I0405 00:40:33.534108 16042 net.cpp:137] Memory required for data: 38293504
I0405 00:40:33.534116 16042 layer_factory.hpp:77] Creating layer bn3a_branch2a
I0405 00:40:33.534129 16042 net.cpp:84] Creating Layer bn3a_branch2a
I0405 00:40:33.534137 16042 net.cpp:406] bn3a_branch2a <- res3a_branch2a
I0405 00:40:33.534144 16042 net.cpp:367] bn3a_branch2a -> res3a_branch2a (in-place)
I0405 00:40:33.534165 16042 net.cpp:122] Setting up bn3a_branch2a
I0405 00:40:33.534173 16042 net.cpp:129] Top shape: 256 128 1 1 (32768)
I0405 00:40:33.534178 16042 net.cpp:137] Memory required for data: 38424576
I0405 00:40:33.534186 16042 layer_factory.hpp:77] Creating layer scale3a_branch2a
I0405 00:40:33.534195 16042 net.cpp:84] Creating Layer scale3a_branch2a
I0405 00:40:33.534201 16042 net.cpp:406] scale3a_branch2a <- res3a_branch2a
I0405 00:40:33.534210 16042 net.cpp:367] scale3a_branch2a -> res3a_branch2a (in-place)
I0405 00:40:33.534222 16042 layer_factory.hpp:77] Creating layer scale3a_branch2a
I0405 00:40:33.534242 16042 net.cpp:122] Setting up scale3a_branch2a
I0405 00:40:33.534250 16042 net.cpp:129] Top shape: 256 128 1 1 (32768)
I0405 00:40:33.534255 16042 net.cpp:137] Memory required for data: 38555648
I0405 00:40:33.534262 16042 layer_factory.hpp:77] Creating layer res3a_branch2a_relu
I0405 00:40:33.534272 16042 net.cpp:84] Creating Layer res3a_branch2a_relu
I0405 00:40:33.534278 16042 net.cpp:406] res3a_branch2a_relu <- res3a_branch2a
I0405 00:40:33.534286 16042 net.cpp:367] res3a_branch2a_relu -> res3a_branch2a (in-place)
I0405 00:40:33.534292 16042 net.cpp:122] Setting up res3a_branch2a_relu
I0405 00:40:33.534298 16042 net.cpp:129] Top shape: 256 128 1 1 (32768)
I0405 00:40:33.534303 16042 net.cpp:137] Memory required for data: 38686720
I0405 00:40:33.534308 16042 layer_factory.hpp:77] Creating layer res3a_branch2b
I0405 00:40:33.534317 16042 net.cpp:84] Creating Layer res3a_branch2b
I0405 00:40:33.534323 16042 net.cpp:406] res3a_branch2b <- res3a_branch2a
I0405 00:40:33.534330 16042 net.cpp:380] res3a_branch2b -> res3a_branch2b
I0405 00:40:33.535858 16042 net.cpp:122] Setting up res3a_branch2b
I0405 00:40:33.535871 16042 net.cpp:129] Top shape: 256 128 1 1 (32768)
I0405 00:40:33.535876 16042 net.cpp:137] Memory required for data: 38817792
I0405 00:40:33.535882 16042 layer_factory.hpp:77] Creating layer bn3a_branch2b
I0405 00:40:33.535889 16042 net.cpp:84] Creating Layer bn3a_branch2b
I0405 00:40:33.535898 16042 net.cpp:406] bn3a_branch2b <- res3a_branch2b
I0405 00:40:33.535905 16042 net.cpp:367] bn3a_branch2b -> res3a_branch2b (in-place)
I0405 00:40:33.535923 16042 net.cpp:122] Setting up bn3a_branch2b
I0405 00:40:33.535929 16042 net.cpp:129] Top shape: 256 128 1 1 (32768)
I0405 00:40:33.535938 16042 net.cpp:137] Memory required for data: 38948864
I0405 00:40:33.535949 16042 layer_factory.hpp:77] Creating layer scale3a_branch2b
I0405 00:40:33.535960 16042 net.cpp:84] Creating Layer scale3a_branch2b
I0405 00:40:33.535967 16042 net.cpp:406] scale3a_branch2b <- res3a_branch2b
I0405 00:40:33.535974 16042 net.cpp:367] scale3a_branch2b -> res3a_branch2b (in-place)
I0405 00:40:33.535987 16042 layer_factory.hpp:77] Creating layer scale3a_branch2b
I0405 00:40:33.536005 16042 net.cpp:122] Setting up scale3a_branch2b
I0405 00:40:33.536012 16042 net.cpp:129] Top shape: 256 128 1 1 (32768)
I0405 00:40:33.536017 16042 net.cpp:137] Memory required for data: 39079936
I0405 00:40:33.536025 16042 layer_factory.hpp:77] Creating layer res3a_branch2b_relu
I0405 00:40:33.536031 16042 net.cpp:84] Creating Layer res3a_branch2b_relu
I0405 00:40:33.536036 16042 net.cpp:406] res3a_branch2b_relu <- res3a_branch2b
I0405 00:40:33.536048 16042 net.cpp:367] res3a_branch2b_relu -> res3a_branch2b (in-place)
I0405 00:40:33.536068 16042 net.cpp:122] Setting up res3a_branch2b_relu
I0405 00:40:33.536075 16042 net.cpp:129] Top shape: 256 128 1 1 (32768)
I0405 00:40:33.536080 16042 net.cpp:137] Memory required for data: 39211008
I0405 00:40:33.536084 16042 layer_factory.hpp:77] Creating layer res3a_branch2c
I0405 00:40:33.536092 16042 net.cpp:84] Creating Layer res3a_branch2c
I0405 00:40:33.536098 16042 net.cpp:406] res3a_branch2c <- res3a_branch2b
I0405 00:40:33.536106 16042 net.cpp:380] res3a_branch2c -> res3a_branch2c
I0405 00:40:33.536790 16042 net.cpp:122] Setting up res3a_branch2c
I0405 00:40:33.536799 16042 net.cpp:129] Top shape: 256 512 1 1 (131072)
I0405 00:40:33.536804 16042 net.cpp:137] Memory required for data: 39735296
I0405 00:40:33.536810 16042 layer_factory.hpp:77] Creating layer bn3a_branch2c
I0405 00:40:33.536825 16042 net.cpp:84] Creating Layer bn3a_branch2c
I0405 00:40:33.536831 16042 net.cpp:406] bn3a_branch2c <- res3a_branch2c
I0405 00:40:33.536839 16042 net.cpp:367] bn3a_branch2c -> res3a_branch2c (in-place)
I0405 00:40:33.536856 16042 net.cpp:122] Setting up bn3a_branch2c
I0405 00:40:33.536864 16042 net.cpp:129] Top shape: 256 512 1 1 (131072)
I0405 00:40:33.536869 16042 net.cpp:137] Memory required for data: 40259584
I0405 00:40:33.536876 16042 layer_factory.hpp:77] Creating layer scale3a_branch2c
I0405 00:40:33.536885 16042 net.cpp:84] Creating Layer scale3a_branch2c
I0405 00:40:33.536891 16042 net.cpp:406] scale3a_branch2c <- res3a_branch2c
I0405 00:40:33.536898 16042 net.cpp:367] scale3a_branch2c -> res3a_branch2c (in-place)
I0405 00:40:33.536914 16042 layer_factory.hpp:77] Creating layer scale3a_branch2c
I0405 00:40:33.536932 16042 net.cpp:122] Setting up scale3a_branch2c
I0405 00:40:33.536939 16042 net.cpp:129] Top shape: 256 512 1 1 (131072)
I0405 00:40:33.536944 16042 net.cpp:137] Memory required for data: 40783872
I0405 00:40:33.536953 16042 layer_factory.hpp:77] Creating layer res3a
I0405 00:40:33.536960 16042 net.cpp:84] Creating Layer res3a
I0405 00:40:33.536967 16042 net.cpp:406] res3a <- res3a_branch1
I0405 00:40:33.536972 16042 net.cpp:406] res3a <- res3a_branch2c
I0405 00:40:33.536979 16042 net.cpp:380] res3a -> res3a
I0405 00:40:33.536988 16042 net.cpp:122] Setting up res3a
I0405 00:40:33.536996 16042 net.cpp:129] Top shape: 256 512 1 1 (131072)
I0405 00:40:33.537001 16042 net.cpp:137] Memory required for data: 41308160
I0405 00:40:33.537006 16042 layer_factory.hpp:77] Creating layer res3a_relu
I0405 00:40:33.537012 16042 net.cpp:84] Creating Layer res3a_relu
I0405 00:40:33.537017 16042 net.cpp:406] res3a_relu <- res3a
I0405 00:40:33.537024 16042 net.cpp:367] res3a_relu -> res3a (in-place)
I0405 00:40:33.537030 16042 net.cpp:122] Setting up res3a_relu
I0405 00:40:33.537039 16042 net.cpp:129] Top shape: 256 512 1 1 (131072)
I0405 00:40:33.537044 16042 net.cpp:137] Memory required for data: 41832448
I0405 00:40:33.537048 16042 layer_factory.hpp:77] Creating layer res3a_res3a_relu_0_split
I0405 00:40:33.537057 16042 net.cpp:84] Creating Layer res3a_res3a_relu_0_split
I0405 00:40:33.537065 16042 net.cpp:406] res3a_res3a_relu_0_split <- res3a
I0405 00:40:33.537071 16042 net.cpp:380] res3a_res3a_relu_0_split -> res3a_res3a_relu_0_split_0
I0405 00:40:33.537080 16042 net.cpp:380] res3a_res3a_relu_0_split -> res3a_res3a_relu_0_split_1
I0405 00:40:33.537091 16042 net.cpp:122] Setting up res3a_res3a_relu_0_split
I0405 00:40:33.537099 16042 net.cpp:129] Top shape: 256 512 1 1 (131072)
I0405 00:40:33.537106 16042 net.cpp:129] Top shape: 256 512 1 1 (131072)
I0405 00:40:33.537111 16042 net.cpp:137] Memory required for data: 42881024
I0405 00:40:33.537117 16042 layer_factory.hpp:77] Creating layer res3b_branch2a
I0405 00:40:33.537124 16042 net.cpp:84] Creating Layer res3b_branch2a
I0405 00:40:33.537132 16042 net.cpp:406] res3b_branch2a <- res3a_res3a_relu_0_split_0
I0405 00:40:33.537142 16042 net.cpp:380] res3b_branch2a -> res3b_branch2a
I0405 00:40:33.537806 16042 net.cpp:122] Setting up res3b_branch2a
I0405 00:40:33.537816 16042 net.cpp:129] Top shape: 256 128 1 1 (32768)
I0405 00:40:33.537830 16042 net.cpp:137] Memory required for data: 43012096
I0405 00:40:33.537842 16042 layer_factory.hpp:77] Creating layer bn3b_branch2a
I0405 00:40:33.537852 16042 net.cpp:84] Creating Layer bn3b_branch2a
I0405 00:40:33.537858 16042 net.cpp:406] bn3b_branch2a <- res3b_branch2a
I0405 00:40:33.537864 16042 net.cpp:367] bn3b_branch2a -> res3b_branch2a (in-place)
I0405 00:40:33.537883 16042 net.cpp:122] Setting up bn3b_branch2a
I0405 00:40:33.537890 16042 net.cpp:129] Top shape: 256 128 1 1 (32768)
I0405 00:40:33.537909 16042 net.cpp:137] Memory required for data: 43143168
I0405 00:40:33.537916 16042 layer_factory.hpp:77] Creating layer scale3b_branch2a
I0405 00:40:33.537925 16042 net.cpp:84] Creating Layer scale3b_branch2a
I0405 00:40:33.537930 16042 net.cpp:406] scale3b_branch2a <- res3b_branch2a
I0405 00:40:33.537937 16042 net.cpp:367] scale3b_branch2a -> res3b_branch2a (in-place)
I0405 00:40:33.537946 16042 layer_factory.hpp:77] Creating layer scale3b_branch2a
I0405 00:40:33.537963 16042 net.cpp:122] Setting up scale3b_branch2a
I0405 00:40:33.537971 16042 net.cpp:129] Top shape: 256 128 1 1 (32768)
I0405 00:40:33.537976 16042 net.cpp:137] Memory required for data: 43274240
I0405 00:40:33.537982 16042 layer_factory.hpp:77] Creating layer res3b_branch2a_relu
I0405 00:40:33.537991 16042 net.cpp:84] Creating Layer res3b_branch2a_relu
I0405 00:40:33.537997 16042 net.cpp:406] res3b_branch2a_relu <- res3b_branch2a
I0405 00:40:33.538003 16042 net.cpp:367] res3b_branch2a_relu -> res3b_branch2a (in-place)
I0405 00:40:33.538010 16042 net.cpp:122] Setting up res3b_branch2a_relu
I0405 00:40:33.538017 16042 net.cpp:129] Top shape: 256 128 1 1 (32768)
I0405 00:40:33.538022 16042 net.cpp:137] Memory required for data: 43405312
I0405 00:40:33.538028 16042 layer_factory.hpp:77] Creating layer res3b_branch2b
I0405 00:40:33.538036 16042 net.cpp:84] Creating Layer res3b_branch2b
I0405 00:40:33.538043 16042 net.cpp:406] res3b_branch2b <- res3b_branch2a
I0405 00:40:33.538049 16042 net.cpp:380] res3b_branch2b -> res3b_branch2b
I0405 00:40:33.539505 16042 net.cpp:122] Setting up res3b_branch2b
I0405 00:40:33.539515 16042 net.cpp:129] Top shape: 256 128 1 1 (32768)
I0405 00:40:33.539520 16042 net.cpp:137] Memory required for data: 43536384
I0405 00:40:33.539526 16042 layer_factory.hpp:77] Creating layer bn3b_branch2b
I0405 00:40:33.539535 16042 net.cpp:84] Creating Layer bn3b_branch2b
I0405 00:40:33.539541 16042 net.cpp:406] bn3b_branch2b <- res3b_branch2b
I0405 00:40:33.539549 16042 net.cpp:367] bn3b_branch2b -> res3b_branch2b (in-place)
I0405 00:40:33.539567 16042 net.cpp:122] Setting up bn3b_branch2b
I0405 00:40:33.539574 16042 net.cpp:129] Top shape: 256 128 1 1 (32768)
I0405 00:40:33.539579 16042 net.cpp:137] Memory required for data: 43667456
I0405 00:40:33.539588 16042 layer_factory.hpp:77] Creating layer scale3b_branch2b
I0405 00:40:33.539597 16042 net.cpp:84] Creating Layer scale3b_branch2b
I0405 00:40:33.539602 16042 net.cpp:406] scale3b_branch2b <- res3b_branch2b
I0405 00:40:33.539608 16042 net.cpp:367] scale3b_branch2b -> res3b_branch2b (in-place)
I0405 00:40:33.539621 16042 layer_factory.hpp:77] Creating layer scale3b_branch2b
I0405 00:40:33.539640 16042 net.cpp:122] Setting up scale3b_branch2b
I0405 00:40:33.539647 16042 net.cpp:129] Top shape: 256 128 1 1 (32768)
I0405 00:40:33.539652 16042 net.cpp:137] Memory required for data: 43798528
I0405 00:40:33.539659 16042 layer_factory.hpp:77] Creating layer res3b_branch2b_relu
I0405 00:40:33.539669 16042 net.cpp:84] Creating Layer res3b_branch2b_relu
I0405 00:40:33.539674 16042 net.cpp:406] res3b_branch2b_relu <- res3b_branch2b
I0405 00:40:33.539680 16042 net.cpp:367] res3b_branch2b_relu -> res3b_branch2b (in-place)
I0405 00:40:33.539687 16042 net.cpp:122] Setting up res3b_branch2b_relu
I0405 00:40:33.539696 16042 net.cpp:129] Top shape: 256 128 1 1 (32768)
I0405 00:40:33.539701 16042 net.cpp:137] Memory required for data: 43929600
I0405 00:40:33.539705 16042 layer_factory.hpp:77] Creating layer res3b_branch2c
I0405 00:40:33.539733 16042 net.cpp:84] Creating Layer res3b_branch2c
I0405 00:40:33.539743 16042 net.cpp:406] res3b_branch2c <- res3b_branch2b
I0405 00:40:33.539752 16042 net.cpp:380] res3b_branch2c -> res3b_branch2c
I0405 00:40:33.540546 16042 net.cpp:122] Setting up res3b_branch2c
I0405 00:40:33.540563 16042 net.cpp:129] Top shape: 256 512 1 1 (131072)
I0405 00:40:33.540568 16042 net.cpp:137] Memory required for data: 44453888
I0405 00:40:33.540578 16042 layer_factory.hpp:77] Creating layer bn3b_branch2c
I0405 00:40:33.540607 16042 net.cpp:84] Creating Layer bn3b_branch2c
I0405 00:40:33.540614 16042 net.cpp:406] bn3b_branch2c <- res3b_branch2c
I0405 00:40:33.540628 16042 net.cpp:367] bn3b_branch2c -> res3b_branch2c (in-place)
I0405 00:40:33.540653 16042 net.cpp:122] Setting up bn3b_branch2c
I0405 00:40:33.540662 16042 net.cpp:129] Top shape: 256 512 1 1 (131072)
I0405 00:40:33.540665 16042 net.cpp:137] Memory required for data: 44978176
I0405 00:40:33.540675 16042 layer_factory.hpp:77] Creating layer scale3b_branch2c
I0405 00:40:33.540685 16042 net.cpp:84] Creating Layer scale3b_branch2c
I0405 00:40:33.540693 16042 net.cpp:406] scale3b_branch2c <- res3b_branch2c
I0405 00:40:33.540704 16042 net.cpp:367] scale3b_branch2c -> res3b_branch2c (in-place)
I0405 00:40:33.540724 16042 layer_factory.hpp:77] Creating layer scale3b_branch2c
I0405 00:40:33.540747 16042 net.cpp:122] Setting up scale3b_branch2c
I0405 00:40:33.540755 16042 net.cpp:129] Top shape: 256 512 1 1 (131072)
I0405 00:40:33.540760 16042 net.cpp:137] Memory required for data: 45502464
I0405 00:40:33.540767 16042 layer_factory.hpp:77] Creating layer res3b
I0405 00:40:33.540784 16042 net.cpp:84] Creating Layer res3b
I0405 00:40:33.540791 16042 net.cpp:406] res3b <- res3a_res3a_relu_0_split_1
I0405 00:40:33.540798 16042 net.cpp:406] res3b <- res3b_branch2c
I0405 00:40:33.540805 16042 net.cpp:380] res3b -> res3b
I0405 00:40:33.540819 16042 net.cpp:122] Setting up res3b
I0405 00:40:33.540827 16042 net.cpp:129] Top shape: 256 512 1 1 (131072)
I0405 00:40:33.540833 16042 net.cpp:137] Memory required for data: 46026752
I0405 00:40:33.540840 16042 layer_factory.hpp:77] Creating layer res3b_relu
I0405 00:40:33.540870 16042 net.cpp:84] Creating Layer res3b_relu
I0405 00:40:33.540877 16042 net.cpp:406] res3b_relu <- res3b
I0405 00:40:33.540884 16042 net.cpp:367] res3b_relu -> res3b (in-place)
I0405 00:40:33.540892 16042 net.cpp:122] Setting up res3b_relu
I0405 00:40:33.540900 16042 net.cpp:129] Top shape: 256 512 1 1 (131072)
I0405 00:40:33.540905 16042 net.cpp:137] Memory required for data: 46551040
I0405 00:40:33.540911 16042 layer_factory.hpp:77] Creating layer res3b_res3b_relu_0_split
I0405 00:40:33.540922 16042 net.cpp:84] Creating Layer res3b_res3b_relu_0_split
I0405 00:40:33.540927 16042 net.cpp:406] res3b_res3b_relu_0_split <- res3b
I0405 00:40:33.540935 16042 net.cpp:380] res3b_res3b_relu_0_split -> res3b_res3b_relu_0_split_0
I0405 00:40:33.540944 16042 net.cpp:380] res3b_res3b_relu_0_split -> res3b_res3b_relu_0_split_1
I0405 00:40:33.540956 16042 net.cpp:122] Setting up res3b_res3b_relu_0_split
I0405 00:40:33.540964 16042 net.cpp:129] Top shape: 256 512 1 1 (131072)
I0405 00:40:33.540971 16042 net.cpp:129] Top shape: 256 512 1 1 (131072)
I0405 00:40:33.540977 16042 net.cpp:137] Memory required for data: 47599616
I0405 00:40:33.540982 16042 layer_factory.hpp:77] Creating layer res3c_branch2a
I0405 00:40:33.540995 16042 net.cpp:84] Creating Layer res3c_branch2a
I0405 00:40:33.541002 16042 net.cpp:406] res3c_branch2a <- res3b_res3b_relu_0_split_0
I0405 00:40:33.541009 16042 net.cpp:380] res3c_branch2a -> res3c_branch2a
I0405 00:40:33.541712 16042 net.cpp:122] Setting up res3c_branch2a
I0405 00:40:33.541733 16042 net.cpp:129] Top shape: 256 128 1 1 (32768)
I0405 00:40:33.541739 16042 net.cpp:137] Memory required for data: 47730688
I0405 00:40:33.541745 16042 layer_factory.hpp:77] Creating layer bn3c_branch2a
I0405 00:40:33.541755 16042 net.cpp:84] Creating Layer bn3c_branch2a
I0405 00:40:33.541761 16042 net.cpp:406] bn3c_branch2a <- res3c_branch2a
I0405 00:40:33.541769 16042 net.cpp:367] bn3c_branch2a -> res3c_branch2a (in-place)
I0405 00:40:33.541805 16042 net.cpp:122] Setting up bn3c_branch2a
I0405 00:40:33.541812 16042 net.cpp:129] Top shape: 256 128 1 1 (32768)
I0405 00:40:33.541817 16042 net.cpp:137] Memory required for data: 47861760
I0405 00:40:33.541826 16042 layer_factory.hpp:77] Creating layer scale3c_branch2a
I0405 00:40:33.541834 16042 net.cpp:84] Creating Layer scale3c_branch2a
I0405 00:40:33.541843 16042 net.cpp:406] scale3c_branch2a <- res3c_branch2a
I0405 00:40:33.541851 16042 net.cpp:367] scale3c_branch2a -> res3c_branch2a (in-place)
I0405 00:40:33.541862 16042 layer_factory.hpp:77] Creating layer scale3c_branch2a
I0405 00:40:33.541880 16042 net.cpp:122] Setting up scale3c_branch2a
I0405 00:40:33.541887 16042 net.cpp:129] Top shape: 256 128 1 1 (32768)
I0405 00:40:33.541893 16042 net.cpp:137] Memory required for data: 47992832
I0405 00:40:33.541900 16042 layer_factory.hpp:77] Creating layer res3c_branch2a_relu
I0405 00:40:33.541908 16042 net.cpp:84] Creating Layer res3c_branch2a_relu
I0405 00:40:33.541913 16042 net.cpp:406] res3c_branch2a_relu <- res3c_branch2a
I0405 00:40:33.541923 16042 net.cpp:367] res3c_branch2a_relu -> res3c_branch2a (in-place)
I0405 00:40:33.541930 16042 net.cpp:122] Setting up res3c_branch2a_relu
I0405 00:40:33.541937 16042 net.cpp:129] Top shape: 256 128 1 1 (32768)
I0405 00:40:33.541941 16042 net.cpp:137] Memory required for data: 48123904
I0405 00:40:33.541946 16042 layer_factory.hpp:77] Creating layer res3c_branch2b
I0405 00:40:33.541957 16042 net.cpp:84] Creating Layer res3c_branch2b
I0405 00:40:33.541963 16042 net.cpp:406] res3c_branch2b <- res3c_branch2a
I0405 00:40:33.541971 16042 net.cpp:380] res3c_branch2b -> res3c_branch2b
I0405 00:40:33.543467 16042 net.cpp:122] Setting up res3c_branch2b
I0405 00:40:33.543483 16042 net.cpp:129] Top shape: 256 128 1 1 (32768)
I0405 00:40:33.543486 16042 net.cpp:137] Memory required for data: 48254976
I0405 00:40:33.543493 16042 layer_factory.hpp:77] Creating layer bn3c_branch2b
I0405 00:40:33.543501 16042 net.cpp:84] Creating Layer bn3c_branch2b
I0405 00:40:33.543506 16042 net.cpp:406] bn3c_branch2b <- res3c_branch2b
I0405 00:40:33.543514 16042 net.cpp:367] bn3c_branch2b -> res3c_branch2b (in-place)
I0405 00:40:33.543531 16042 net.cpp:122] Setting up bn3c_branch2b
I0405 00:40:33.543539 16042 net.cpp:129] Top shape: 256 128 1 1 (32768)
I0405 00:40:33.543547 16042 net.cpp:137] Memory required for data: 48386048
I0405 00:40:33.543555 16042 layer_factory.hpp:77] Creating layer scale3c_branch2b
I0405 00:40:33.543565 16042 net.cpp:84] Creating Layer scale3c_branch2b
I0405 00:40:33.543571 16042 net.cpp:406] scale3c_branch2b <- res3c_branch2b
I0405 00:40:33.543577 16042 net.cpp:367] scale3c_branch2b -> res3c_branch2b (in-place)
I0405 00:40:33.543587 16042 layer_factory.hpp:77] Creating layer scale3c_branch2b
I0405 00:40:33.543606 16042 net.cpp:122] Setting up scale3c_branch2b
I0405 00:40:33.543612 16042 net.cpp:129] Top shape: 256 128 1 1 (32768)
I0405 00:40:33.543620 16042 net.cpp:137] Memory required for data: 48517120
I0405 00:40:33.543627 16042 layer_factory.hpp:77] Creating layer res3c_branch2b_relu
I0405 00:40:33.543635 16042 net.cpp:84] Creating Layer res3c_branch2b_relu
I0405 00:40:33.543642 16042 net.cpp:406] res3c_branch2b_relu <- res3c_branch2b
I0405 00:40:33.543648 16042 net.cpp:367] res3c_branch2b_relu -> res3c_branch2b (in-place)
I0405 00:40:33.543654 16042 net.cpp:122] Setting up res3c_branch2b_relu
I0405 00:40:33.543660 16042 net.cpp:129] Top shape: 256 128 1 1 (32768)
I0405 00:40:33.543666 16042 net.cpp:137] Memory required for data: 48648192
I0405 00:40:33.543671 16042 layer_factory.hpp:77] Creating layer res3c_branch2c
I0405 00:40:33.543680 16042 net.cpp:84] Creating Layer res3c_branch2c
I0405 00:40:33.543686 16042 net.cpp:406] res3c_branch2c <- res3c_branch2b
I0405 00:40:33.543694 16042 net.cpp:380] res3c_branch2c -> res3c_branch2c
I0405 00:40:33.544342 16042 net.cpp:122] Setting up res3c_branch2c
I0405 00:40:33.544349 16042 net.cpp:129] Top shape: 256 512 1 1 (131072)
I0405 00:40:33.544354 16042 net.cpp:137] Memory required for data: 49172480
I0405 00:40:33.544373 16042 layer_factory.hpp:77] Creating layer bn3c_branch2c
I0405 00:40:33.544384 16042 net.cpp:84] Creating Layer bn3c_branch2c
I0405 00:40:33.544389 16042 net.cpp:406] bn3c_branch2c <- res3c_branch2c
I0405 00:40:33.544395 16042 net.cpp:367] bn3c_branch2c -> res3c_branch2c (in-place)
I0405 00:40:33.544412 16042 net.cpp:122] Setting up bn3c_branch2c
I0405 00:40:33.544420 16042 net.cpp:129] Top shape: 256 512 1 1 (131072)
I0405 00:40:33.544423 16042 net.cpp:137] Memory required for data: 49696768
I0405 00:40:33.544431 16042 layer_factory.hpp:77] Creating layer scale3c_branch2c
I0405 00:40:33.544440 16042 net.cpp:84] Creating Layer scale3c_branch2c
I0405 00:40:33.544445 16042 net.cpp:406] scale3c_branch2c <- res3c_branch2c
I0405 00:40:33.544451 16042 net.cpp:367] scale3c_branch2c -> res3c_branch2c (in-place)
I0405 00:40:33.544463 16042 layer_factory.hpp:77] Creating layer scale3c_branch2c
I0405 00:40:33.544482 16042 net.cpp:122] Setting up scale3c_branch2c
I0405 00:40:33.544488 16042 net.cpp:129] Top shape: 256 512 1 1 (131072)
I0405 00:40:33.544493 16042 net.cpp:137] Memory required for data: 50221056
I0405 00:40:33.544500 16042 layer_factory.hpp:77] Creating layer res3c
I0405 00:40:33.544508 16042 net.cpp:84] Creating Layer res3c
I0405 00:40:33.544514 16042 net.cpp:406] res3c <- res3b_res3b_relu_0_split_1
I0405 00:40:33.544520 16042 net.cpp:406] res3c <- res3c_branch2c
I0405 00:40:33.544526 16042 net.cpp:380] res3c -> res3c
I0405 00:40:33.544535 16042 net.cpp:122] Setting up res3c
I0405 00:40:33.544543 16042 net.cpp:129] Top shape: 256 512 1 1 (131072)
I0405 00:40:33.544548 16042 net.cpp:137] Memory required for data: 50745344
I0405 00:40:33.544551 16042 layer_factory.hpp:77] Creating layer res3c_relu
I0405 00:40:33.544559 16042 net.cpp:84] Creating Layer res3c_relu
I0405 00:40:33.544564 16042 net.cpp:406] res3c_relu <- res3c
I0405 00:40:33.544570 16042 net.cpp:367] res3c_relu -> res3c (in-place)
I0405 00:40:33.544577 16042 net.cpp:122] Setting up res3c_relu
I0405 00:40:33.544584 16042 net.cpp:129] Top shape: 256 512 1 1 (131072)
I0405 00:40:33.544589 16042 net.cpp:137] Memory required for data: 51269632
I0405 00:40:33.544594 16042 layer_factory.hpp:77] Creating layer res3c_res3c_relu_0_split
I0405 00:40:33.544600 16042 net.cpp:84] Creating Layer res3c_res3c_relu_0_split
I0405 00:40:33.544605 16042 net.cpp:406] res3c_res3c_relu_0_split <- res3c
I0405 00:40:33.544613 16042 net.cpp:380] res3c_res3c_relu_0_split -> res3c_res3c_relu_0_split_0
I0405 00:40:33.544620 16042 net.cpp:380] res3c_res3c_relu_0_split -> res3c_res3c_relu_0_split_1
I0405 00:40:33.544631 16042 net.cpp:122] Setting up res3c_res3c_relu_0_split
I0405 00:40:33.544637 16042 net.cpp:129] Top shape: 256 512 1 1 (131072)
I0405 00:40:33.544643 16042 net.cpp:129] Top shape: 256 512 1 1 (131072)
I0405 00:40:33.544649 16042 net.cpp:137] Memory required for data: 52318208
I0405 00:40:33.544653 16042 layer_factory.hpp:77] Creating layer res3d_branch2a
I0405 00:40:33.544661 16042 net.cpp:84] Creating Layer res3d_branch2a
I0405 00:40:33.544667 16042 net.cpp:406] res3d_branch2a <- res3c_res3c_relu_0_split_0
I0405 00:40:33.544674 16042 net.cpp:380] res3d_branch2a -> res3d_branch2a
I0405 00:40:33.545311 16042 net.cpp:122] Setting up res3d_branch2a
I0405 00:40:33.545320 16042 net.cpp:129] Top shape: 256 128 1 1 (32768)
I0405 00:40:33.545325 16042 net.cpp:137] Memory required for data: 52449280
I0405 00:40:33.545331 16042 layer_factory.hpp:77] Creating layer bn3d_branch2a
I0405 00:40:33.545336 16042 net.cpp:84] Creating Layer bn3d_branch2a
I0405 00:40:33.545341 16042 net.cpp:406] bn3d_branch2a <- res3d_branch2a
I0405 00:40:33.545349 16042 net.cpp:367] bn3d_branch2a -> res3d_branch2a (in-place)
I0405 00:40:33.545367 16042 net.cpp:122] Setting up bn3d_branch2a
I0405 00:40:33.545373 16042 net.cpp:129] Top shape: 256 128 1 1 (32768)
I0405 00:40:33.545378 16042 net.cpp:137] Memory required for data: 52580352
I0405 00:40:33.545397 16042 layer_factory.hpp:77] Creating layer scale3d_branch2a
I0405 00:40:33.545404 16042 net.cpp:84] Creating Layer scale3d_branch2a
I0405 00:40:33.545418 16042 net.cpp:406] scale3d_branch2a <- res3d_branch2a
I0405 00:40:33.545425 16042 net.cpp:367] scale3d_branch2a -> res3d_branch2a (in-place)
I0405 00:40:33.545437 16042 layer_factory.hpp:77] Creating layer scale3d_branch2a
I0405 00:40:33.545454 16042 net.cpp:122] Setting up scale3d_branch2a
I0405 00:40:33.545460 16042 net.cpp:129] Top shape: 256 128 1 1 (32768)
I0405 00:40:33.545465 16042 net.cpp:137] Memory required for data: 52711424
I0405 00:40:33.545471 16042 layer_factory.hpp:77] Creating layer res3d_branch2a_relu
I0405 00:40:33.545477 16042 net.cpp:84] Creating Layer res3d_branch2a_relu
I0405 00:40:33.545482 16042 net.cpp:406] res3d_branch2a_relu <- res3d_branch2a
I0405 00:40:33.545488 16042 net.cpp:367] res3d_branch2a_relu -> res3d_branch2a (in-place)
I0405 00:40:33.545495 16042 net.cpp:122] Setting up res3d_branch2a_relu
I0405 00:40:33.545500 16042 net.cpp:129] Top shape: 256 128 1 1 (32768)
I0405 00:40:33.545506 16042 net.cpp:137] Memory required for data: 52842496
I0405 00:40:33.545509 16042 layer_factory.hpp:77] Creating layer res3d_branch2b
I0405 00:40:33.545516 16042 net.cpp:84] Creating Layer res3d_branch2b
I0405 00:40:33.545521 16042 net.cpp:406] res3d_branch2b <- res3d_branch2a
I0405 00:40:33.545529 16042 net.cpp:380] res3d_branch2b -> res3d_branch2b
I0405 00:40:33.546926 16042 net.cpp:122] Setting up res3d_branch2b
I0405 00:40:33.546936 16042 net.cpp:129] Top shape: 256 128 1 1 (32768)
I0405 00:40:33.546941 16042 net.cpp:137] Memory required for data: 52973568
I0405 00:40:33.546947 16042 layer_factory.hpp:77] Creating layer bn3d_branch2b
I0405 00:40:33.546957 16042 net.cpp:84] Creating Layer bn3d_branch2b
I0405 00:40:33.546963 16042 net.cpp:406] bn3d_branch2b <- res3d_branch2b
I0405 00:40:33.546970 16042 net.cpp:367] bn3d_branch2b -> res3d_branch2b (in-place)
I0405 00:40:33.546988 16042 net.cpp:122] Setting up bn3d_branch2b
I0405 00:40:33.546994 16042 net.cpp:129] Top shape: 256 128 1 1 (32768)
I0405 00:40:33.546998 16042 net.cpp:137] Memory required for data: 53104640
I0405 00:40:33.547006 16042 layer_factory.hpp:77] Creating layer scale3d_branch2b
I0405 00:40:33.547013 16042 net.cpp:84] Creating Layer scale3d_branch2b
I0405 00:40:33.547024 16042 net.cpp:406] scale3d_branch2b <- res3d_branch2b
I0405 00:40:33.547032 16042 net.cpp:367] scale3d_branch2b -> res3d_branch2b (in-place)
I0405 00:40:33.547042 16042 layer_factory.hpp:77] Creating layer scale3d_branch2b
I0405 00:40:33.547060 16042 net.cpp:122] Setting up scale3d_branch2b
I0405 00:40:33.547067 16042 net.cpp:129] Top shape: 256 128 1 1 (32768)
I0405 00:40:33.547072 16042 net.cpp:137] Memory required for data: 53235712
I0405 00:40:33.547080 16042 layer_factory.hpp:77] Creating layer res3d_branch2b_relu
I0405 00:40:33.547088 16042 net.cpp:84] Creating Layer res3d_branch2b_relu
I0405 00:40:33.547096 16042 net.cpp:406] res3d_branch2b_relu <- res3d_branch2b
I0405 00:40:33.547101 16042 net.cpp:367] res3d_branch2b_relu -> res3d_branch2b (in-place)
I0405 00:40:33.547108 16042 net.cpp:122] Setting up res3d_branch2b_relu
I0405 00:40:33.547116 16042 net.cpp:129] Top shape: 256 128 1 1 (32768)
I0405 00:40:33.547119 16042 net.cpp:137] Memory required for data: 53366784
I0405 00:40:33.547124 16042 layer_factory.hpp:77] Creating layer res3d_branch2c
I0405 00:40:33.547133 16042 net.cpp:84] Creating Layer res3d_branch2c
I0405 00:40:33.547138 16042 net.cpp:406] res3d_branch2c <- res3d_branch2b
I0405 00:40:33.547144 16042 net.cpp:380] res3d_branch2c -> res3d_branch2c
I0405 00:40:33.547785 16042 net.cpp:122] Setting up res3d_branch2c
I0405 00:40:33.547796 16042 net.cpp:129] Top shape: 256 512 1 1 (131072)
I0405 00:40:33.547801 16042 net.cpp:137] Memory required for data: 53891072
I0405 00:40:33.547811 16042 layer_factory.hpp:77] Creating layer bn3d_branch2c
I0405 00:40:33.547824 16042 net.cpp:84] Creating Layer bn3d_branch2c
I0405 00:40:33.547832 16042 net.cpp:406] bn3d_branch2c <- res3d_branch2c
I0405 00:40:33.547838 16042 net.cpp:367] bn3d_branch2c -> res3d_branch2c (in-place)
I0405 00:40:33.547857 16042 net.cpp:122] Setting up bn3d_branch2c
I0405 00:40:33.547873 16042 net.cpp:129] Top shape: 256 512 1 1 (131072)
I0405 00:40:33.547878 16042 net.cpp:137] Memory required for data: 54415360
I0405 00:40:33.547885 16042 layer_factory.hpp:77] Creating layer scale3d_branch2c
I0405 00:40:33.547894 16042 net.cpp:84] Creating Layer scale3d_branch2c
I0405 00:40:33.547899 16042 net.cpp:406] scale3d_branch2c <- res3d_branch2c
I0405 00:40:33.547920 16042 net.cpp:367] scale3d_branch2c -> res3d_branch2c (in-place)
I0405 00:40:33.547935 16042 layer_factory.hpp:77] Creating layer scale3d_branch2c
I0405 00:40:33.547952 16042 net.cpp:122] Setting up scale3d_branch2c
I0405 00:40:33.547960 16042 net.cpp:129] Top shape: 256 512 1 1 (131072)
I0405 00:40:33.547963 16042 net.cpp:137] Memory required for data: 54939648
I0405 00:40:33.547971 16042 layer_factory.hpp:77] Creating layer res3d
I0405 00:40:33.547979 16042 net.cpp:84] Creating Layer res3d
I0405 00:40:33.547986 16042 net.cpp:406] res3d <- res3c_res3c_relu_0_split_1
I0405 00:40:33.547992 16042 net.cpp:406] res3d <- res3d_branch2c
I0405 00:40:33.547998 16042 net.cpp:380] res3d -> res3d
I0405 00:40:33.548007 16042 net.cpp:122] Setting up res3d
I0405 00:40:33.548015 16042 net.cpp:129] Top shape: 256 512 1 1 (131072)
I0405 00:40:33.548020 16042 net.cpp:137] Memory required for data: 55463936
I0405 00:40:33.548024 16042 layer_factory.hpp:77] Creating layer res3d_relu
I0405 00:40:33.548032 16042 net.cpp:84] Creating Layer res3d_relu
I0405 00:40:33.548036 16042 net.cpp:406] res3d_relu <- res3d
I0405 00:40:33.548044 16042 net.cpp:367] res3d_relu -> res3d (in-place)
I0405 00:40:33.548050 16042 net.cpp:122] Setting up res3d_relu
I0405 00:40:33.548058 16042 net.cpp:129] Top shape: 256 512 1 1 (131072)
I0405 00:40:33.548063 16042 net.cpp:137] Memory required for data: 55988224
I0405 00:40:33.548068 16042 layer_factory.hpp:77] Creating layer res3d_res3d_relu_0_split
I0405 00:40:33.548074 16042 net.cpp:84] Creating Layer res3d_res3d_relu_0_split
I0405 00:40:33.548079 16042 net.cpp:406] res3d_res3d_relu_0_split <- res3d
I0405 00:40:33.548085 16042 net.cpp:380] res3d_res3d_relu_0_split -> res3d_res3d_relu_0_split_0
I0405 00:40:33.548094 16042 net.cpp:380] res3d_res3d_relu_0_split -> res3d_res3d_relu_0_split_1
I0405 00:40:33.548102 16042 net.cpp:122] Setting up res3d_res3d_relu_0_split
I0405 00:40:33.548110 16042 net.cpp:129] Top shape: 256 512 1 1 (131072)
I0405 00:40:33.548115 16042 net.cpp:129] Top shape: 256 512 1 1 (131072)
I0405 00:40:33.548120 16042 net.cpp:137] Memory required for data: 57036800
I0405 00:40:33.548125 16042 layer_factory.hpp:77] Creating layer res4a_branch1
I0405 00:40:33.548135 16042 net.cpp:84] Creating Layer res4a_branch1
I0405 00:40:33.548142 16042 net.cpp:406] res4a_branch1 <- res3d_res3d_relu_0_split_0
I0405 00:40:33.548149 16042 net.cpp:380] res4a_branch1 -> res4a_branch1
I0405 00:40:33.553321 16042 net.cpp:122] Setting up res4a_branch1
I0405 00:40:33.553336 16042 net.cpp:129] Top shape: 256 1024 1 1 (262144)
I0405 00:40:33.553340 16042 net.cpp:137] Memory required for data: 58085376
I0405 00:40:33.553347 16042 layer_factory.hpp:77] Creating layer bn4a_branch1
I0405 00:40:33.553355 16042 net.cpp:84] Creating Layer bn4a_branch1
I0405 00:40:33.553365 16042 net.cpp:406] bn4a_branch1 <- res4a_branch1
I0405 00:40:33.553373 16042 net.cpp:367] bn4a_branch1 -> res4a_branch1 (in-place)
I0405 00:40:33.553395 16042 net.cpp:122] Setting up bn4a_branch1
I0405 00:40:33.553401 16042 net.cpp:129] Top shape: 256 1024 1 1 (262144)
I0405 00:40:33.553406 16042 net.cpp:137] Memory required for data: 59133952
I0405 00:40:33.553413 16042 layer_factory.hpp:77] Creating layer scale4a_branch1
I0405 00:40:33.553422 16042 net.cpp:84] Creating Layer scale4a_branch1
I0405 00:40:33.553427 16042 net.cpp:406] scale4a_branch1 <- res4a_branch1
I0405 00:40:33.553434 16042 net.cpp:367] scale4a_branch1 -> res4a_branch1 (in-place)
I0405 00:40:33.553448 16042 layer_factory.hpp:77] Creating layer scale4a_branch1
I0405 00:40:33.553467 16042 net.cpp:122] Setting up scale4a_branch1
I0405 00:40:33.553472 16042 net.cpp:129] Top shape: 256 1024 1 1 (262144)
I0405 00:40:33.553488 16042 net.cpp:137] Memory required for data: 60182528
I0405 00:40:33.553496 16042 layer_factory.hpp:77] Creating layer res4a_branch2a
I0405 00:40:33.553504 16042 net.cpp:84] Creating Layer res4a_branch2a
I0405 00:40:33.553510 16042 net.cpp:406] res4a_branch2a <- res3d_res3d_relu_0_split_1
I0405 00:40:33.553517 16042 net.cpp:380] res4a_branch2a -> res4a_branch2a
I0405 00:40:33.554829 16042 net.cpp:122] Setting up res4a_branch2a
I0405 00:40:33.554841 16042 net.cpp:129] Top shape: 256 256 1 1 (65536)
I0405 00:40:33.554844 16042 net.cpp:137] Memory required for data: 60444672
I0405 00:40:33.554852 16042 layer_factory.hpp:77] Creating layer bn4a_branch2a
I0405 00:40:33.554858 16042 net.cpp:84] Creating Layer bn4a_branch2a
I0405 00:40:33.554863 16042 net.cpp:406] bn4a_branch2a <- res4a_branch2a
I0405 00:40:33.554872 16042 net.cpp:367] bn4a_branch2a -> res4a_branch2a (in-place)
I0405 00:40:33.554893 16042 net.cpp:122] Setting up bn4a_branch2a
I0405 00:40:33.554900 16042 net.cpp:129] Top shape: 256 256 1 1 (65536)
I0405 00:40:33.554904 16042 net.cpp:137] Memory required for data: 60706816
I0405 00:40:33.554913 16042 layer_factory.hpp:77] Creating layer scale4a_branch2a
I0405 00:40:33.554920 16042 net.cpp:84] Creating Layer scale4a_branch2a
I0405 00:40:33.554926 16042 net.cpp:406] scale4a_branch2a <- res4a_branch2a
I0405 00:40:33.554934 16042 net.cpp:367] scale4a_branch2a -> res4a_branch2a (in-place)
I0405 00:40:33.554945 16042 layer_factory.hpp:77] Creating layer scale4a_branch2a
I0405 00:40:33.554963 16042 net.cpp:122] Setting up scale4a_branch2a
I0405 00:40:33.554970 16042 net.cpp:129] Top shape: 256 256 1 1 (65536)
I0405 00:40:33.554975 16042 net.cpp:137] Memory required for data: 60968960
I0405 00:40:33.554981 16042 layer_factory.hpp:77] Creating layer res4a_branch2a_relu
I0405 00:40:33.554992 16042 net.cpp:84] Creating Layer res4a_branch2a_relu
I0405 00:40:33.554998 16042 net.cpp:406] res4a_branch2a_relu <- res4a_branch2a
I0405 00:40:33.555004 16042 net.cpp:367] res4a_branch2a_relu -> res4a_branch2a (in-place)
I0405 00:40:33.555011 16042 net.cpp:122] Setting up res4a_branch2a_relu
I0405 00:40:33.555023 16042 net.cpp:129] Top shape: 256 256 1 1 (65536)
I0405 00:40:33.555028 16042 net.cpp:137] Memory required for data: 61231104
I0405 00:40:33.555033 16042 layer_factory.hpp:77] Creating layer res4a_branch2b
I0405 00:40:33.555042 16042 net.cpp:84] Creating Layer res4a_branch2b
I0405 00:40:33.555047 16042 net.cpp:406] res4a_branch2b <- res4a_branch2a
I0405 00:40:33.555054 16042 net.cpp:380] res4a_branch2b -> res4a_branch2b
I0405 00:40:33.560741 16042 net.cpp:122] Setting up res4a_branch2b
I0405 00:40:33.560760 16042 net.cpp:129] Top shape: 256 256 1 1 (65536)
I0405 00:40:33.560765 16042 net.cpp:137] Memory required for data: 61493248
I0405 00:40:33.560772 16042 layer_factory.hpp:77] Creating layer bn4a_branch2b
I0405 00:40:33.560782 16042 net.cpp:84] Creating Layer bn4a_branch2b
I0405 00:40:33.560789 16042 net.cpp:406] bn4a_branch2b <- res4a_branch2b
I0405 00:40:33.560796 16042 net.cpp:367] bn4a_branch2b -> res4a_branch2b (in-place)
I0405 00:40:33.560817 16042 net.cpp:122] Setting up bn4a_branch2b
I0405 00:40:33.560822 16042 net.cpp:129] Top shape: 256 256 1 1 (65536)
I0405 00:40:33.560827 16042 net.cpp:137] Memory required for data: 61755392
I0405 00:40:33.560835 16042 layer_factory.hpp:77] Creating layer scale4a_branch2b
I0405 00:40:33.560842 16042 net.cpp:84] Creating Layer scale4a_branch2b
I0405 00:40:33.560847 16042 net.cpp:406] scale4a_branch2b <- res4a_branch2b
I0405 00:40:33.560855 16042 net.cpp:367] scale4a_branch2b -> res4a_branch2b (in-place)
I0405 00:40:33.560866 16042 layer_factory.hpp:77] Creating layer scale4a_branch2b
I0405 00:40:33.560886 16042 net.cpp:122] Setting up scale4a_branch2b
I0405 00:40:33.560892 16042 net.cpp:129] Top shape: 256 256 1 1 (65536)
I0405 00:40:33.560897 16042 net.cpp:137] Memory required for data: 62017536
I0405 00:40:33.560904 16042 layer_factory.hpp:77] Creating layer res4a_branch2b_relu
I0405 00:40:33.560910 16042 net.cpp:84] Creating Layer res4a_branch2b_relu
I0405 00:40:33.560942 16042 net.cpp:406] res4a_branch2b_relu <- res4a_branch2b
I0405 00:40:33.560948 16042 net.cpp:367] res4a_branch2b_relu -> res4a_branch2b (in-place)
I0405 00:40:33.560955 16042 net.cpp:122] Setting up res4a_branch2b_relu
I0405 00:40:33.560958 16042 net.cpp:129] Top shape: 256 256 1 1 (65536)
I0405 00:40:33.560961 16042 net.cpp:137] Memory required for data: 62279680
I0405 00:40:33.560964 16042 layer_factory.hpp:77] Creating layer res4a_branch2c
I0405 00:40:33.560969 16042 net.cpp:84] Creating Layer res4a_branch2c
I0405 00:40:33.560974 16042 net.cpp:406] res4a_branch2c <- res4a_branch2b
I0405 00:40:33.560979 16042 net.cpp:380] res4a_branch2c -> res4a_branch2c
I0405 00:40:33.563675 16042 net.cpp:122] Setting up res4a_branch2c
I0405 00:40:33.563719 16042 net.cpp:129] Top shape: 256 1024 1 1 (262144)
I0405 00:40:33.563724 16042 net.cpp:137] Memory required for data: 63328256
I0405 00:40:33.563733 16042 layer_factory.hpp:77] Creating layer bn4a_branch2c
I0405 00:40:33.563746 16042 net.cpp:84] Creating Layer bn4a_branch2c
I0405 00:40:33.563753 16042 net.cpp:406] bn4a_branch2c <- res4a_branch2c
I0405 00:40:33.563760 16042 net.cpp:367] bn4a_branch2c -> res4a_branch2c (in-place)
I0405 00:40:33.563791 16042 net.cpp:122] Setting up bn4a_branch2c
I0405 00:40:33.563802 16042 net.cpp:129] Top shape: 256 1024 1 1 (262144)
I0405 00:40:33.563807 16042 net.cpp:137] Memory required for data: 64376832
I0405 00:40:33.563814 16042 layer_factory.hpp:77] Creating layer scale4a_branch2c
I0405 00:40:33.563829 16042 net.cpp:84] Creating Layer scale4a_branch2c
I0405 00:40:33.563835 16042 net.cpp:406] scale4a_branch2c <- res4a_branch2c
I0405 00:40:33.563841 16042 net.cpp:367] scale4a_branch2c -> res4a_branch2c (in-place)
I0405 00:40:33.563861 16042 layer_factory.hpp:77] Creating layer scale4a_branch2c
I0405 00:40:33.563884 16042 net.cpp:122] Setting up scale4a_branch2c
I0405 00:40:33.563890 16042 net.cpp:129] Top shape: 256 1024 1 1 (262144)
I0405 00:40:33.563894 16042 net.cpp:137] Memory required for data: 65425408
I0405 00:40:33.563900 16042 layer_factory.hpp:77] Creating layer res4a
I0405 00:40:33.563921 16042 net.cpp:84] Creating Layer res4a
I0405 00:40:33.563928 16042 net.cpp:406] res4a <- res4a_branch1
I0405 00:40:33.563933 16042 net.cpp:406] res4a <- res4a_branch2c
I0405 00:40:33.563940 16042 net.cpp:380] res4a -> res4a
I0405 00:40:33.563951 16042 net.cpp:122] Setting up res4a
I0405 00:40:33.563958 16042 net.cpp:129] Top shape: 256 1024 1 1 (262144)
I0405 00:40:33.563962 16042 net.cpp:137] Memory required for data: 66473984
I0405 00:40:33.563967 16042 layer_factory.hpp:77] Creating layer res4a_relu
I0405 00:40:33.563977 16042 net.cpp:84] Creating Layer res4a_relu
I0405 00:40:33.563982 16042 net.cpp:406] res4a_relu <- res4a
I0405 00:40:33.563987 16042 net.cpp:367] res4a_relu -> res4a (in-place)
I0405 00:40:33.563993 16042 net.cpp:122] Setting up res4a_relu
I0405 00:40:33.563999 16042 net.cpp:129] Top shape: 256 1024 1 1 (262144)
I0405 00:40:33.564004 16042 net.cpp:137] Memory required for data: 67522560
I0405 00:40:33.564008 16042 layer_factory.hpp:77] Creating layer res4a_res4a_relu_0_split
I0405 00:40:33.564018 16042 net.cpp:84] Creating Layer res4a_res4a_relu_0_split
I0405 00:40:33.564023 16042 net.cpp:406] res4a_res4a_relu_0_split <- res4a
I0405 00:40:33.564028 16042 net.cpp:380] res4a_res4a_relu_0_split -> res4a_res4a_relu_0_split_0
I0405 00:40:33.564035 16042 net.cpp:380] res4a_res4a_relu_0_split -> res4a_res4a_relu_0_split_1
I0405 00:40:33.564045 16042 net.cpp:122] Setting up res4a_res4a_relu_0_split
I0405 00:40:33.564051 16042 net.cpp:129] Top shape: 256 1024 1 1 (262144)
I0405 00:40:33.564056 16042 net.cpp:129] Top shape: 256 1024 1 1 (262144)
I0405 00:40:33.564060 16042 net.cpp:137] Memory required for data: 69619712
I0405 00:40:33.564064 16042 layer_factory.hpp:77] Creating layer res4b_branch2a
I0405 00:40:33.564087 16042 net.cpp:84] Creating Layer res4b_branch2a
I0405 00:40:33.564092 16042 net.cpp:406] res4b_branch2a <- res4a_res4a_relu_0_split_0
I0405 00:40:33.564098 16042 net.cpp:380] res4b_branch2a -> res4b_branch2a
I0405 00:40:33.568295 16042 net.cpp:122] Setting up res4b_branch2a
I0405 00:40:33.568332 16042 net.cpp:129] Top shape: 256 256 1 1 (65536)
I0405 00:40:33.568338 16042 net.cpp:137] Memory required for data: 69881856
I0405 00:40:33.568349 16042 layer_factory.hpp:77] Creating layer bn4b_branch2a
I0405 00:40:33.568363 16042 net.cpp:84] Creating Layer bn4b_branch2a
I0405 00:40:33.568372 16042 net.cpp:406] bn4b_branch2a <- res4b_branch2a
I0405 00:40:33.568379 16042 net.cpp:367] bn4b_branch2a -> res4b_branch2a (in-place)
I0405 00:40:33.568403 16042 net.cpp:122] Setting up bn4b_branch2a
I0405 00:40:33.568408 16042 net.cpp:129] Top shape: 256 256 1 1 (65536)
I0405 00:40:33.568411 16042 net.cpp:137] Memory required for data: 70144000
I0405 00:40:33.568418 16042 layer_factory.hpp:77] Creating layer scale4b_branch2a
I0405 00:40:33.568425 16042 net.cpp:84] Creating Layer scale4b_branch2a
I0405 00:40:33.568428 16042 net.cpp:406] scale4b_branch2a <- res4b_branch2a
I0405 00:40:33.568434 16042 net.cpp:367] scale4b_branch2a -> res4b_branch2a (in-place)
I0405 00:40:33.568446 16042 layer_factory.hpp:77] Creating layer scale4b_branch2a
I0405 00:40:33.568465 16042 net.cpp:122] Setting up scale4b_branch2a
I0405 00:40:33.568470 16042 net.cpp:129] Top shape: 256 256 1 1 (65536)
I0405 00:40:33.568473 16042 net.cpp:137] Memory required for data: 70406144
I0405 00:40:33.568477 16042 layer_factory.hpp:77] Creating layer res4b_branch2a_relu
I0405 00:40:33.568485 16042 net.cpp:84] Creating Layer res4b_branch2a_relu
I0405 00:40:33.568488 16042 net.cpp:406] res4b_branch2a_relu <- res4b_branch2a
I0405 00:40:33.568492 16042 net.cpp:367] res4b_branch2a_relu -> res4b_branch2a (in-place)
I0405 00:40:33.568497 16042 net.cpp:122] Setting up res4b_branch2a_relu
I0405 00:40:33.568500 16042 net.cpp:129] Top shape: 256 256 1 1 (65536)
I0405 00:40:33.568505 16042 net.cpp:137] Memory required for data: 70668288
I0405 00:40:33.568506 16042 layer_factory.hpp:77] Creating layer res4b_branch2b
I0405 00:40:33.568516 16042 net.cpp:84] Creating Layer res4b_branch2b
I0405 00:40:33.568519 16042 net.cpp:406] res4b_branch2b <- res4b_branch2a
I0405 00:40:33.568526 16042 net.cpp:380] res4b_branch2b -> res4b_branch2b
I0405 00:40:33.574681 16042 net.cpp:122] Setting up res4b_branch2b
I0405 00:40:33.574697 16042 net.cpp:129] Top shape: 256 256 1 1 (65536)
I0405 00:40:33.574700 16042 net.cpp:137] Memory required for data: 70930432
I0405 00:40:33.574707 16042 layer_factory.hpp:77] Creating layer bn4b_branch2b
I0405 00:40:33.574712 16042 net.cpp:84] Creating Layer bn4b_branch2b
I0405 00:40:33.574717 16042 net.cpp:406] bn4b_branch2b <- res4b_branch2b
I0405 00:40:33.574723 16042 net.cpp:367] bn4b_branch2b -> res4b_branch2b (in-place)
I0405 00:40:33.574740 16042 net.cpp:122] Setting up bn4b_branch2b
I0405 00:40:33.574745 16042 net.cpp:129] Top shape: 256 256 1 1 (65536)
I0405 00:40:33.574749 16042 net.cpp:137] Memory required for data: 71192576
I0405 00:40:33.574759 16042 layer_factory.hpp:77] Creating layer scale4b_branch2b
I0405 00:40:33.574769 16042 net.cpp:84] Creating Layer scale4b_branch2b
I0405 00:40:33.574774 16042 net.cpp:406] scale4b_branch2b <- res4b_branch2b
I0405 00:40:33.574779 16042 net.cpp:367] scale4b_branch2b -> res4b_branch2b (in-place)
I0405 00:40:33.574792 16042 layer_factory.hpp:77] Creating layer scale4b_branch2b
I0405 00:40:33.574806 16042 net.cpp:122] Setting up scale4b_branch2b
I0405 00:40:33.574812 16042 net.cpp:129] Top shape: 256 256 1 1 (65536)
I0405 00:40:33.574815 16042 net.cpp:137] Memory required for data: 71454720
I0405 00:40:33.574820 16042 layer_factory.hpp:77] Creating layer res4b_branch2b_relu
I0405 00:40:33.574826 16042 net.cpp:84] Creating Layer res4b_branch2b_relu
I0405 00:40:33.574828 16042 net.cpp:406] res4b_branch2b_relu <- res4b_branch2b
I0405 00:40:33.574832 16042 net.cpp:367] res4b_branch2b_relu -> res4b_branch2b (in-place)
I0405 00:40:33.574836 16042 net.cpp:122] Setting up res4b_branch2b_relu
I0405 00:40:33.574841 16042 net.cpp:129] Top shape: 256 256 1 1 (65536)
I0405 00:40:33.574843 16042 net.cpp:137] Memory required for data: 71716864
I0405 00:40:33.574862 16042 layer_factory.hpp:77] Creating layer res4b_branch2c
I0405 00:40:33.574870 16042 net.cpp:84] Creating Layer res4b_branch2c
I0405 00:40:33.574874 16042 net.cpp:406] res4b_branch2c <- res4b_branch2b
I0405 00:40:33.574878 16042 net.cpp:380] res4b_branch2c -> res4b_branch2c
I0405 00:40:33.577503 16042 net.cpp:122] Setting up res4b_branch2c
I0405 00:40:33.577513 16042 net.cpp:129] Top shape: 256 1024 1 1 (262144)
I0405 00:40:33.577517 16042 net.cpp:137] Memory required for data: 72765440
I0405 00:40:33.577522 16042 layer_factory.hpp:77] Creating layer bn4b_branch2c
I0405 00:40:33.577527 16042 net.cpp:84] Creating Layer bn4b_branch2c
I0405 00:40:33.577531 16042 net.cpp:406] bn4b_branch2c <- res4b_branch2c
I0405 00:40:33.577535 16042 net.cpp:367] bn4b_branch2c -> res4b_branch2c (in-place)
I0405 00:40:33.577554 16042 net.cpp:122] Setting up bn4b_branch2c
I0405 00:40:33.577559 16042 net.cpp:129] Top shape: 256 1024 1 1 (262144)
I0405 00:40:33.577563 16042 net.cpp:137] Memory required for data: 73814016
I0405 00:40:33.577567 16042 layer_factory.hpp:77] Creating layer scale4b_branch2c
I0405 00:40:33.577572 16042 net.cpp:84] Creating Layer scale4b_branch2c
I0405 00:40:33.577577 16042 net.cpp:406] scale4b_branch2c <- res4b_branch2c
I0405 00:40:33.577586 16042 net.cpp:367] scale4b_branch2c -> res4b_branch2c (in-place)
I0405 00:40:33.577600 16042 layer_factory.hpp:77] Creating layer scale4b_branch2c
I0405 00:40:33.577617 16042 net.cpp:122] Setting up scale4b_branch2c
I0405 00:40:33.577623 16042 net.cpp:129] Top shape: 256 1024 1 1 (262144)
I0405 00:40:33.577626 16042 net.cpp:137] Memory required for data: 74862592
I0405 00:40:33.577635 16042 layer_factory.hpp:77] Creating layer res4b
I0405 00:40:33.577646 16042 net.cpp:84] Creating Layer res4b
I0405 00:40:33.577652 16042 net.cpp:406] res4b <- res4a_res4a_relu_0_split_1
I0405 00:40:33.577657 16042 net.cpp:406] res4b <- res4b_branch2c
I0405 00:40:33.577666 16042 net.cpp:380] res4b -> res4b
I0405 00:40:33.577675 16042 net.cpp:122] Setting up res4b
I0405 00:40:33.577682 16042 net.cpp:129] Top shape: 256 1024 1 1 (262144)
I0405 00:40:33.577687 16042 net.cpp:137] Memory required for data: 75911168
I0405 00:40:33.577692 16042 layer_factory.hpp:77] Creating layer res4b_relu
I0405 00:40:33.577697 16042 net.cpp:84] Creating Layer res4b_relu
I0405 00:40:33.577703 16042 net.cpp:406] res4b_relu <- res4b
I0405 00:40:33.577708 16042 net.cpp:367] res4b_relu -> res4b (in-place)
I0405 00:40:33.577714 16042 net.cpp:122] Setting up res4b_relu
I0405 00:40:33.577719 16042 net.cpp:129] Top shape: 256 1024 1 1 (262144)
I0405 00:40:33.577723 16042 net.cpp:137] Memory required for data: 76959744
I0405 00:40:33.577725 16042 layer_factory.hpp:77] Creating layer res4b_res4b_relu_0_split
I0405 00:40:33.577730 16042 net.cpp:84] Creating Layer res4b_res4b_relu_0_split
I0405 00:40:33.577733 16042 net.cpp:406] res4b_res4b_relu_0_split <- res4b
I0405 00:40:33.577738 16042 net.cpp:380] res4b_res4b_relu_0_split -> res4b_res4b_relu_0_split_0
I0405 00:40:33.577742 16042 net.cpp:380] res4b_res4b_relu_0_split -> res4b_res4b_relu_0_split_1
I0405 00:40:33.577750 16042 net.cpp:122] Setting up res4b_res4b_relu_0_split
I0405 00:40:33.577755 16042 net.cpp:129] Top shape: 256 1024 1 1 (262144)
I0405 00:40:33.577759 16042 net.cpp:129] Top shape: 256 1024 1 1 (262144)
I0405 00:40:33.577762 16042 net.cpp:137] Memory required for data: 79056896
I0405 00:40:33.577765 16042 layer_factory.hpp:77] Creating layer res4c_branch2a
I0405 00:40:33.577772 16042 net.cpp:84] Creating Layer res4c_branch2a
I0405 00:40:33.577776 16042 net.cpp:406] res4c_branch2a <- res4b_res4b_relu_0_split_0
I0405 00:40:33.577781 16042 net.cpp:380] res4c_branch2a -> res4c_branch2a
I0405 00:40:33.580900 16042 net.cpp:122] Setting up res4c_branch2a
I0405 00:40:33.580936 16042 net.cpp:129] Top shape: 256 256 1 1 (65536)
I0405 00:40:33.580941 16042 net.cpp:137] Memory required for data: 79319040
I0405 00:40:33.580952 16042 layer_factory.hpp:77] Creating layer bn4c_branch2a
I0405 00:40:33.580970 16042 net.cpp:84] Creating Layer bn4c_branch2a
I0405 00:40:33.581004 16042 net.cpp:406] bn4c_branch2a <- res4c_branch2a
I0405 00:40:33.581014 16042 net.cpp:367] bn4c_branch2a -> res4c_branch2a (in-place)
I0405 00:40:33.581038 16042 net.cpp:122] Setting up bn4c_branch2a
I0405 00:40:33.581046 16042 net.cpp:129] Top shape: 256 256 1 1 (65536)
I0405 00:40:33.581050 16042 net.cpp:137] Memory required for data: 79581184
I0405 00:40:33.581058 16042 layer_factory.hpp:77] Creating layer scale4c_branch2a
I0405 00:40:33.581069 16042 net.cpp:84] Creating Layer scale4c_branch2a
I0405 00:40:33.581073 16042 net.cpp:406] scale4c_branch2a <- res4c_branch2a
I0405 00:40:33.581081 16042 net.cpp:367] scale4c_branch2a -> res4c_branch2a (in-place)
I0405 00:40:33.581095 16042 layer_factory.hpp:77] Creating layer scale4c_branch2a
I0405 00:40:33.581130 16042 net.cpp:122] Setting up scale4c_branch2a
I0405 00:40:33.581140 16042 net.cpp:129] Top shape: 256 256 1 1 (65536)
I0405 00:40:33.581143 16042 net.cpp:137] Memory required for data: 79843328
I0405 00:40:33.581152 16042 layer_factory.hpp:77] Creating layer res4c_branch2a_relu
I0405 00:40:33.581173 16042 net.cpp:84] Creating Layer res4c_branch2a_relu
I0405 00:40:33.581179 16042 net.cpp:406] res4c_branch2a_relu <- res4c_branch2a
I0405 00:40:33.581184 16042 net.cpp:367] res4c_branch2a_relu -> res4c_branch2a (in-place)
I0405 00:40:33.581190 16042 net.cpp:122] Setting up res4c_branch2a_relu
I0405 00:40:33.581197 16042 net.cpp:129] Top shape: 256 256 1 1 (65536)
I0405 00:40:33.581200 16042 net.cpp:137] Memory required for data: 80105472
I0405 00:40:33.581204 16042 layer_factory.hpp:77] Creating layer res4c_branch2b
I0405 00:40:33.581219 16042 net.cpp:84] Creating Layer res4c_branch2b
I0405 00:40:33.581225 16042 net.cpp:406] res4c_branch2b <- res4c_branch2a
I0405 00:40:33.581233 16042 net.cpp:380] res4c_branch2b -> res4c_branch2b
I0405 00:40:33.589541 16042 net.cpp:122] Setting up res4c_branch2b
I0405 00:40:33.589565 16042 net.cpp:129] Top shape: 256 256 1 1 (65536)
I0405 00:40:33.589570 16042 net.cpp:137] Memory required for data: 80367616
I0405 00:40:33.589576 16042 layer_factory.hpp:77] Creating layer bn4c_branch2b
I0405 00:40:33.589586 16042 net.cpp:84] Creating Layer bn4c_branch2b
I0405 00:40:33.589591 16042 net.cpp:406] bn4c_branch2b <- res4c_branch2b
I0405 00:40:33.589596 16042 net.cpp:367] bn4c_branch2b -> res4c_branch2b (in-place)
I0405 00:40:33.589610 16042 net.cpp:122] Setting up bn4c_branch2b
I0405 00:40:33.589615 16042 net.cpp:129] Top shape: 256 256 1 1 (65536)
I0405 00:40:33.589617 16042 net.cpp:137] Memory required for data: 80629760
I0405 00:40:33.589623 16042 layer_factory.hpp:77] Creating layer scale4c_branch2b
I0405 00:40:33.589630 16042 net.cpp:84] Creating Layer scale4c_branch2b
I0405 00:40:33.589634 16042 net.cpp:406] scale4c_branch2b <- res4c_branch2b
I0405 00:40:33.589639 16042 net.cpp:367] scale4c_branch2b -> res4c_branch2b (in-place)
I0405 00:40:33.589649 16042 layer_factory.hpp:77] Creating layer scale4c_branch2b
I0405 00:40:33.589664 16042 net.cpp:122] Setting up scale4c_branch2b
I0405 00:40:33.589669 16042 net.cpp:129] Top shape: 256 256 1 1 (65536)
I0405 00:40:33.589673 16042 net.cpp:137] Memory required for data: 80891904
I0405 00:40:33.589676 16042 layer_factory.hpp:77] Creating layer res4c_branch2b_relu
I0405 00:40:33.589681 16042 net.cpp:84] Creating Layer res4c_branch2b_relu
I0405 00:40:33.589685 16042 net.cpp:406] res4c_branch2b_relu <- res4c_branch2b
I0405 00:40:33.589689 16042 net.cpp:367] res4c_branch2b_relu -> res4c_branch2b (in-place)
I0405 00:40:33.589694 16042 net.cpp:122] Setting up res4c_branch2b_relu
I0405 00:40:33.589699 16042 net.cpp:129] Top shape: 256 256 1 1 (65536)
I0405 00:40:33.589702 16042 net.cpp:137] Memory required for data: 81154048
I0405 00:40:33.589705 16042 layer_factory.hpp:77] Creating layer res4c_branch2c
I0405 00:40:33.589712 16042 net.cpp:84] Creating Layer res4c_branch2c
I0405 00:40:33.589716 16042 net.cpp:406] res4c_branch2c <- res4c_branch2b
I0405 00:40:33.589720 16042 net.cpp:380] res4c_branch2c -> res4c_branch2c
I0405 00:40:33.592332 16042 net.cpp:122] Setting up res4c_branch2c
I0405 00:40:33.592355 16042 net.cpp:129] Top shape: 256 1024 1 1 (262144)
I0405 00:40:33.592358 16042 net.cpp:137] Memory required for data: 82202624
I0405 00:40:33.592362 16042 layer_factory.hpp:77] Creating layer bn4c_branch2c
I0405 00:40:33.592370 16042 net.cpp:84] Creating Layer bn4c_branch2c
I0405 00:40:33.592373 16042 net.cpp:406] bn4c_branch2c <- res4c_branch2c
I0405 00:40:33.592377 16042 net.cpp:367] bn4c_branch2c -> res4c_branch2c (in-place)
I0405 00:40:33.592393 16042 net.cpp:122] Setting up bn4c_branch2c
I0405 00:40:33.592397 16042 net.cpp:129] Top shape: 256 1024 1 1 (262144)
I0405 00:40:33.592401 16042 net.cpp:137] Memory required for data: 83251200
I0405 00:40:33.592406 16042 layer_factory.hpp:77] Creating layer scale4c_branch2c
I0405 00:40:33.592413 16042 net.cpp:84] Creating Layer scale4c_branch2c
I0405 00:40:33.592417 16042 net.cpp:406] scale4c_branch2c <- res4c_branch2c
I0405 00:40:33.592420 16042 net.cpp:367] scale4c_branch2c -> res4c_branch2c (in-place)
I0405 00:40:33.592432 16042 layer_factory.hpp:77] Creating layer scale4c_branch2c
I0405 00:40:33.592444 16042 net.cpp:122] Setting up scale4c_branch2c
I0405 00:40:33.592449 16042 net.cpp:129] Top shape: 256 1024 1 1 (262144)
I0405 00:40:33.592453 16042 net.cpp:137] Memory required for data: 84299776
I0405 00:40:33.592458 16042 layer_factory.hpp:77] Creating layer res4c
I0405 00:40:33.592463 16042 net.cpp:84] Creating Layer res4c
I0405 00:40:33.592465 16042 net.cpp:406] res4c <- res4b_res4b_relu_0_split_1
I0405 00:40:33.592469 16042 net.cpp:406] res4c <- res4c_branch2c
I0405 00:40:33.592474 16042 net.cpp:380] res4c -> res4c
I0405 00:40:33.592480 16042 net.cpp:122] Setting up res4c
I0405 00:40:33.592484 16042 net.cpp:129] Top shape: 256 1024 1 1 (262144)
I0405 00:40:33.592487 16042 net.cpp:137] Memory required for data: 85348352
I0405 00:40:33.592490 16042 layer_factory.hpp:77] Creating layer res4c_relu
I0405 00:40:33.592495 16042 net.cpp:84] Creating Layer res4c_relu
I0405 00:40:33.592499 16042 net.cpp:406] res4c_relu <- res4c
I0405 00:40:33.592504 16042 net.cpp:367] res4c_relu -> res4c (in-place)
I0405 00:40:33.592507 16042 net.cpp:122] Setting up res4c_relu
I0405 00:40:33.592511 16042 net.cpp:129] Top shape: 256 1024 1 1 (262144)
I0405 00:40:33.592514 16042 net.cpp:137] Memory required for data: 86396928
I0405 00:40:33.592517 16042 layer_factory.hpp:77] Creating layer res4c_res4c_relu_0_split
I0405 00:40:33.592521 16042 net.cpp:84] Creating Layer res4c_res4c_relu_0_split
I0405 00:40:33.592525 16042 net.cpp:406] res4c_res4c_relu_0_split <- res4c
I0405 00:40:33.592530 16042 net.cpp:380] res4c_res4c_relu_0_split -> res4c_res4c_relu_0_split_0
I0405 00:40:33.592535 16042 net.cpp:380] res4c_res4c_relu_0_split -> res4c_res4c_relu_0_split_1
I0405 00:40:33.592542 16042 net.cpp:122] Setting up res4c_res4c_relu_0_split
I0405 00:40:33.592548 16042 net.cpp:129] Top shape: 256 1024 1 1 (262144)
I0405 00:40:33.592552 16042 net.cpp:129] Top shape: 256 1024 1 1 (262144)
I0405 00:40:33.592555 16042 net.cpp:137] Memory required for data: 88494080
I0405 00:40:33.592558 16042 layer_factory.hpp:77] Creating layer res4d_branch2a
I0405 00:40:33.592567 16042 net.cpp:84] Creating Layer res4d_branch2a
I0405 00:40:33.592571 16042 net.cpp:406] res4d_branch2a <- res4c_res4c_relu_0_split_0
I0405 00:40:33.592577 16042 net.cpp:380] res4d_branch2a -> res4d_branch2a
I0405 00:40:33.595213 16042 net.cpp:122] Setting up res4d_branch2a
I0405 00:40:33.595224 16042 net.cpp:129] Top shape: 256 256 1 1 (65536)
I0405 00:40:33.595227 16042 net.cpp:137] Memory required for data: 88756224
I0405 00:40:33.595232 16042 layer_factory.hpp:77] Creating layer bn4d_branch2a
I0405 00:40:33.595238 16042 net.cpp:84] Creating Layer bn4d_branch2a
I0405 00:40:33.595242 16042 net.cpp:406] bn4d_branch2a <- res4d_branch2a
I0405 00:40:33.595247 16042 net.cpp:367] bn4d_branch2a -> res4d_branch2a (in-place)
I0405 00:40:33.595260 16042 net.cpp:122] Setting up bn4d_branch2a
I0405 00:40:33.595265 16042 net.cpp:129] Top shape: 256 256 1 1 (65536)
I0405 00:40:33.595268 16042 net.cpp:137] Memory required for data: 89018368
I0405 00:40:33.595284 16042 layer_factory.hpp:77] Creating layer scale4d_branch2a
I0405 00:40:33.595291 16042 net.cpp:84] Creating Layer scale4d_branch2a
I0405 00:40:33.595294 16042 net.cpp:406] scale4d_branch2a <- res4d_branch2a
I0405 00:40:33.595299 16042 net.cpp:367] scale4d_branch2a -> res4d_branch2a (in-place)
I0405 00:40:33.595307 16042 layer_factory.hpp:77] Creating layer scale4d_branch2a
I0405 00:40:33.595320 16042 net.cpp:122] Setting up scale4d_branch2a
I0405 00:40:33.595325 16042 net.cpp:129] Top shape: 256 256 1 1 (65536)
I0405 00:40:33.595329 16042 net.cpp:137] Memory required for data: 89280512
I0405 00:40:33.595332 16042 layer_factory.hpp:77] Creating layer res4d_branch2a_relu
I0405 00:40:33.595338 16042 net.cpp:84] Creating Layer res4d_branch2a_relu
I0405 00:40:33.595341 16042 net.cpp:406] res4d_branch2a_relu <- res4d_branch2a
I0405 00:40:33.595345 16042 net.cpp:367] res4d_branch2a_relu -> res4d_branch2a (in-place)
I0405 00:40:33.595350 16042 net.cpp:122] Setting up res4d_branch2a_relu
I0405 00:40:33.595353 16042 net.cpp:129] Top shape: 256 256 1 1 (65536)
I0405 00:40:33.595356 16042 net.cpp:137] Memory required for data: 89542656
I0405 00:40:33.595358 16042 layer_factory.hpp:77] Creating layer res4d_branch2b
I0405 00:40:33.595366 16042 net.cpp:84] Creating Layer res4d_branch2b
I0405 00:40:33.595368 16042 net.cpp:406] res4d_branch2b <- res4d_branch2a
I0405 00:40:33.595372 16042 net.cpp:380] res4d_branch2b -> res4d_branch2b
I0405 00:40:33.603449 16042 net.cpp:122] Setting up res4d_branch2b
I0405 00:40:33.603493 16042 net.cpp:129] Top shape: 256 256 1 1 (65536)
I0405 00:40:33.603497 16042 net.cpp:137] Memory required for data: 89804800
I0405 00:40:33.603505 16042 layer_factory.hpp:77] Creating layer bn4d_branch2b
I0405 00:40:33.603523 16042 net.cpp:84] Creating Layer bn4d_branch2b
I0405 00:40:33.603529 16042 net.cpp:406] bn4d_branch2b <- res4d_branch2b
I0405 00:40:33.603538 16042 net.cpp:367] bn4d_branch2b -> res4d_branch2b (in-place)
I0405 00:40:33.603564 16042 net.cpp:122] Setting up bn4d_branch2b
I0405 00:40:33.603571 16042 net.cpp:129] Top shape: 256 256 1 1 (65536)
I0405 00:40:33.603575 16042 net.cpp:137] Memory required for data: 90066944
I0405 00:40:33.603592 16042 layer_factory.hpp:77] Creating layer scale4d_branch2b
I0405 00:40:33.603610 16042 net.cpp:84] Creating Layer scale4d_branch2b
I0405 00:40:33.603613 16042 net.cpp:406] scale4d_branch2b <- res4d_branch2b
I0405 00:40:33.603621 16042 net.cpp:367] scale4d_branch2b -> res4d_branch2b (in-place)
I0405 00:40:33.603637 16042 layer_factory.hpp:77] Creating layer scale4d_branch2b
I0405 00:40:33.603672 16042 net.cpp:122] Setting up scale4d_branch2b
I0405 00:40:33.603679 16042 net.cpp:129] Top shape: 256 256 1 1 (65536)
I0405 00:40:33.603682 16042 net.cpp:137] Memory required for data: 90329088
I0405 00:40:33.603688 16042 layer_factory.hpp:77] Creating layer res4d_branch2b_relu
I0405 00:40:33.603693 16042 net.cpp:84] Creating Layer res4d_branch2b_relu
I0405 00:40:33.603695 16042 net.cpp:406] res4d_branch2b_relu <- res4d_branch2b
I0405 00:40:33.603703 16042 net.cpp:367] res4d_branch2b_relu -> res4d_branch2b (in-place)
I0405 00:40:33.603706 16042 net.cpp:122] Setting up res4d_branch2b_relu
I0405 00:40:33.603710 16042 net.cpp:129] Top shape: 256 256 1 1 (65536)
I0405 00:40:33.603713 16042 net.cpp:137] Memory required for data: 90591232
I0405 00:40:33.603716 16042 layer_factory.hpp:77] Creating layer res4d_branch2c
I0405 00:40:33.603724 16042 net.cpp:84] Creating Layer res4d_branch2c
I0405 00:40:33.603727 16042 net.cpp:406] res4d_branch2c <- res4d_branch2b
I0405 00:40:33.603732 16042 net.cpp:380] res4d_branch2c -> res4d_branch2c
I0405 00:40:33.606379 16042 net.cpp:122] Setting up res4d_branch2c
I0405 00:40:33.606395 16042 net.cpp:129] Top shape: 256 1024 1 1 (262144)
I0405 00:40:33.606400 16042 net.cpp:137] Memory required for data: 91639808
I0405 00:40:33.606405 16042 layer_factory.hpp:77] Creating layer bn4d_branch2c
I0405 00:40:33.606415 16042 net.cpp:84] Creating Layer bn4d_branch2c
I0405 00:40:33.606420 16042 net.cpp:406] bn4d_branch2c <- res4d_branch2c
I0405 00:40:33.606451 16042 net.cpp:367] bn4d_branch2c -> res4d_branch2c (in-place)
I0405 00:40:33.606472 16042 net.cpp:122] Setting up bn4d_branch2c
I0405 00:40:33.606477 16042 net.cpp:129] Top shape: 256 1024 1 1 (262144)
I0405 00:40:33.606480 16042 net.cpp:137] Memory required for data: 92688384
I0405 00:40:33.606487 16042 layer_factory.hpp:77] Creating layer scale4d_branch2c
I0405 00:40:33.606493 16042 net.cpp:84] Creating Layer scale4d_branch2c
I0405 00:40:33.606498 16042 net.cpp:406] scale4d_branch2c <- res4d_branch2c
I0405 00:40:33.606501 16042 net.cpp:367] scale4d_branch2c -> res4d_branch2c (in-place)
I0405 00:40:33.606513 16042 layer_factory.hpp:77] Creating layer scale4d_branch2c
I0405 00:40:33.606528 16042 net.cpp:122] Setting up scale4d_branch2c
I0405 00:40:33.606534 16042 net.cpp:129] Top shape: 256 1024 1 1 (262144)
I0405 00:40:33.606536 16042 net.cpp:137] Memory required for data: 93736960
I0405 00:40:33.606541 16042 layer_factory.hpp:77] Creating layer res4d
I0405 00:40:33.606552 16042 net.cpp:84] Creating Layer res4d
I0405 00:40:33.606557 16042 net.cpp:406] res4d <- res4c_res4c_relu_0_split_1
I0405 00:40:33.606561 16042 net.cpp:406] res4d <- res4d_branch2c
I0405 00:40:33.606565 16042 net.cpp:380] res4d -> res4d
I0405 00:40:33.606573 16042 net.cpp:122] Setting up res4d
I0405 00:40:33.606578 16042 net.cpp:129] Top shape: 256 1024 1 1 (262144)
I0405 00:40:33.606581 16042 net.cpp:137] Memory required for data: 94785536
I0405 00:40:33.606585 16042 layer_factory.hpp:77] Creating layer res4d_relu
I0405 00:40:33.606588 16042 net.cpp:84] Creating Layer res4d_relu
I0405 00:40:33.606592 16042 net.cpp:406] res4d_relu <- res4d
I0405 00:40:33.606596 16042 net.cpp:367] res4d_relu -> res4d (in-place)
I0405 00:40:33.606600 16042 net.cpp:122] Setting up res4d_relu
I0405 00:40:33.606604 16042 net.cpp:129] Top shape: 256 1024 1 1 (262144)
I0405 00:40:33.606607 16042 net.cpp:137] Memory required for data: 95834112
I0405 00:40:33.606611 16042 layer_factory.hpp:77] Creating layer res4d_res4d_relu_0_split
I0405 00:40:33.606621 16042 net.cpp:84] Creating Layer res4d_res4d_relu_0_split
I0405 00:40:33.606626 16042 net.cpp:406] res4d_res4d_relu_0_split <- res4d
I0405 00:40:33.606629 16042 net.cpp:380] res4d_res4d_relu_0_split -> res4d_res4d_relu_0_split_0
I0405 00:40:33.606636 16042 net.cpp:380] res4d_res4d_relu_0_split -> res4d_res4d_relu_0_split_1
I0405 00:40:33.606642 16042 net.cpp:122] Setting up res4d_res4d_relu_0_split
I0405 00:40:33.606652 16042 net.cpp:129] Top shape: 256 1024 1 1 (262144)
I0405 00:40:33.606655 16042 net.cpp:129] Top shape: 256 1024 1 1 (262144)
I0405 00:40:33.606658 16042 net.cpp:137] Memory required for data: 97931264
I0405 00:40:33.606662 16042 layer_factory.hpp:77] Creating layer res4e_branch2a
I0405 00:40:33.606667 16042 net.cpp:84] Creating Layer res4e_branch2a
I0405 00:40:33.606670 16042 net.cpp:406] res4e_branch2a <- res4d_res4d_relu_0_split_0
I0405 00:40:33.606676 16042 net.cpp:380] res4e_branch2a -> res4e_branch2a
I0405 00:40:33.609443 16042 net.cpp:122] Setting up res4e_branch2a
I0405 00:40:33.609459 16042 net.cpp:129] Top shape: 256 256 1 1 (65536)
I0405 00:40:33.609462 16042 net.cpp:137] Memory required for data: 98193408
I0405 00:40:33.609467 16042 layer_factory.hpp:77] Creating layer bn4e_branch2a
I0405 00:40:33.609474 16042 net.cpp:84] Creating Layer bn4e_branch2a
I0405 00:40:33.609479 16042 net.cpp:406] bn4e_branch2a <- res4e_branch2a
I0405 00:40:33.609483 16042 net.cpp:367] bn4e_branch2a -> res4e_branch2a (in-place)
I0405 00:40:33.609499 16042 net.cpp:122] Setting up bn4e_branch2a
I0405 00:40:33.609504 16042 net.cpp:129] Top shape: 256 256 1 1 (65536)
I0405 00:40:33.609508 16042 net.cpp:137] Memory required for data: 98455552
I0405 00:40:33.609514 16042 layer_factory.hpp:77] Creating layer scale4e_branch2a
I0405 00:40:33.609522 16042 net.cpp:84] Creating Layer scale4e_branch2a
I0405 00:40:33.609526 16042 net.cpp:406] scale4e_branch2a <- res4e_branch2a
I0405 00:40:33.609530 16042 net.cpp:367] scale4e_branch2a -> res4e_branch2a (in-place)
I0405 00:40:33.609562 16042 layer_factory.hpp:77] Creating layer scale4e_branch2a
I0405 00:40:33.609578 16042 net.cpp:122] Setting up scale4e_branch2a
I0405 00:40:33.609583 16042 net.cpp:129] Top shape: 256 256 1 1 (65536)
I0405 00:40:33.609586 16042 net.cpp:137] Memory required for data: 98717696
I0405 00:40:33.609591 16042 layer_factory.hpp:77] Creating layer res4e_branch2a_relu
I0405 00:40:33.609598 16042 net.cpp:84] Creating Layer res4e_branch2a_relu
I0405 00:40:33.609601 16042 net.cpp:406] res4e_branch2a_relu <- res4e_branch2a
I0405 00:40:33.609606 16042 net.cpp:367] res4e_branch2a_relu -> res4e_branch2a (in-place)
I0405 00:40:33.609609 16042 net.cpp:122] Setting up res4e_branch2a_relu
I0405 00:40:33.609613 16042 net.cpp:129] Top shape: 256 256 1 1 (65536)
I0405 00:40:33.609616 16042 net.cpp:137] Memory required for data: 98979840
I0405 00:40:33.609619 16042 layer_factory.hpp:77] Creating layer res4e_branch2b
I0405 00:40:33.609627 16042 net.cpp:84] Creating Layer res4e_branch2b
I0405 00:40:33.609632 16042 net.cpp:406] res4e_branch2b <- res4e_branch2a
I0405 00:40:33.609637 16042 net.cpp:380] res4e_branch2b -> res4e_branch2b
I0405 00:40:33.616715 16042 net.cpp:122] Setting up res4e_branch2b
I0405 00:40:33.616801 16042 net.cpp:129] Top shape: 256 256 1 1 (65536)
I0405 00:40:33.616807 16042 net.cpp:137] Memory required for data: 99241984
I0405 00:40:33.616827 16042 layer_factory.hpp:77] Creating layer bn4e_branch2b
I0405 00:40:33.616852 16042 net.cpp:84] Creating Layer bn4e_branch2b
I0405 00:40:33.616866 16042 net.cpp:406] bn4e_branch2b <- res4e_branch2b
I0405 00:40:33.616891 16042 net.cpp:367] bn4e_branch2b -> res4e_branch2b (in-place)
I0405 00:40:33.616940 16042 net.cpp:122] Setting up bn4e_branch2b
I0405 00:40:33.616955 16042 net.cpp:129] Top shape: 256 256 1 1 (65536)
I0405 00:40:33.616966 16042 net.cpp:137] Memory required for data: 99504128
I0405 00:40:33.616977 16042 layer_factory.hpp:77] Creating layer scale4e_branch2b
I0405 00:40:33.616993 16042 net.cpp:84] Creating Layer scale4e_branch2b
I0405 00:40:33.616999 16042 net.cpp:406] scale4e_branch2b <- res4e_branch2b
I0405 00:40:33.617007 16042 net.cpp:367] scale4e_branch2b -> res4e_branch2b (in-place)
I0405 00:40:33.617030 16042 layer_factory.hpp:77] Creating layer scale4e_branch2b
I0405 00:40:33.617055 16042 net.cpp:122] Setting up scale4e_branch2b
I0405 00:40:33.617063 16042 net.cpp:129] Top shape: 256 256 1 1 (65536)
I0405 00:40:33.617066 16042 net.cpp:137] Memory required for data: 99766272
I0405 00:40:33.617074 16042 layer_factory.hpp:77] Creating layer res4e_branch2b_relu
I0405 00:40:33.617087 16042 net.cpp:84] Creating Layer res4e_branch2b_relu
I0405 00:40:33.617094 16042 net.cpp:406] res4e_branch2b_relu <- res4e_branch2b
I0405 00:40:33.617106 16042 net.cpp:367] res4e_branch2b_relu -> res4e_branch2b (in-place)
I0405 00:40:33.617123 16042 net.cpp:122] Setting up res4e_branch2b_relu
I0405 00:40:33.617130 16042 net.cpp:129] Top shape: 256 256 1 1 (65536)
I0405 00:40:33.617136 16042 net.cpp:137] Memory required for data: 100028416
I0405 00:40:33.617141 16042 layer_factory.hpp:77] Creating layer res4e_branch2c
I0405 00:40:33.617156 16042 net.cpp:84] Creating Layer res4e_branch2c
I0405 00:40:33.617161 16042 net.cpp:406] res4e_branch2c <- res4e_branch2b
I0405 00:40:33.617168 16042 net.cpp:380] res4e_branch2c -> res4e_branch2c
I0405 00:40:33.620296 16042 net.cpp:122] Setting up res4e_branch2c
I0405 00:40:33.620318 16042 net.cpp:129] Top shape: 256 1024 1 1 (262144)
I0405 00:40:33.620322 16042 net.cpp:137] Memory required for data: 101076992
I0405 00:40:33.620328 16042 layer_factory.hpp:77] Creating layer bn4e_branch2c
I0405 00:40:33.620338 16042 net.cpp:84] Creating Layer bn4e_branch2c
I0405 00:40:33.620343 16042 net.cpp:406] bn4e_branch2c <- res4e_branch2c
I0405 00:40:33.620349 16042 net.cpp:367] bn4e_branch2c -> res4e_branch2c (in-place)
I0405 00:40:33.620368 16042 net.cpp:122] Setting up bn4e_branch2c
I0405 00:40:33.620373 16042 net.cpp:129] Top shape: 256 1024 1 1 (262144)
I0405 00:40:33.620375 16042 net.cpp:137] Memory required for data: 102125568
I0405 00:40:33.620381 16042 layer_factory.hpp:77] Creating layer scale4e_branch2c
I0405 00:40:33.620410 16042 net.cpp:84] Creating Layer scale4e_branch2c
I0405 00:40:33.620414 16042 net.cpp:406] scale4e_branch2c <- res4e_branch2c
I0405 00:40:33.620420 16042 net.cpp:367] scale4e_branch2c -> res4e_branch2c (in-place)
I0405 00:40:33.620432 16042 layer_factory.hpp:77] Creating layer scale4e_branch2c
I0405 00:40:33.620447 16042 net.cpp:122] Setting up scale4e_branch2c
I0405 00:40:33.620452 16042 net.cpp:129] Top shape: 256 1024 1 1 (262144)
I0405 00:40:33.620455 16042 net.cpp:137] Memory required for data: 103174144
I0405 00:40:33.620460 16042 layer_factory.hpp:77] Creating layer res4e
I0405 00:40:33.620465 16042 net.cpp:84] Creating Layer res4e
I0405 00:40:33.620468 16042 net.cpp:406] res4e <- res4d_res4d_relu_0_split_1
I0405 00:40:33.620472 16042 net.cpp:406] res4e <- res4e_branch2c
I0405 00:40:33.620478 16042 net.cpp:380] res4e -> res4e
I0405 00:40:33.620486 16042 net.cpp:122] Setting up res4e
I0405 00:40:33.620489 16042 net.cpp:129] Top shape: 256 1024 1 1 (262144)
I0405 00:40:33.620492 16042 net.cpp:137] Memory required for data: 104222720
I0405 00:40:33.620496 16042 layer_factory.hpp:77] Creating layer res4e_relu
I0405 00:40:33.620501 16042 net.cpp:84] Creating Layer res4e_relu
I0405 00:40:33.620503 16042 net.cpp:406] res4e_relu <- res4e
I0405 00:40:33.620508 16042 net.cpp:367] res4e_relu -> res4e (in-place)
I0405 00:40:33.620513 16042 net.cpp:122] Setting up res4e_relu
I0405 00:40:33.620517 16042 net.cpp:129] Top shape: 256 1024 1 1 (262144)
I0405 00:40:33.620520 16042 net.cpp:137] Memory required for data: 105271296
I0405 00:40:33.620523 16042 layer_factory.hpp:77] Creating layer res4e_res4e_relu_0_split
I0405 00:40:33.620527 16042 net.cpp:84] Creating Layer res4e_res4e_relu_0_split
I0405 00:40:33.620530 16042 net.cpp:406] res4e_res4e_relu_0_split <- res4e
I0405 00:40:33.620534 16042 net.cpp:380] res4e_res4e_relu_0_split -> res4e_res4e_relu_0_split_0
I0405 00:40:33.620540 16042 net.cpp:380] res4e_res4e_relu_0_split -> res4e_res4e_relu_0_split_1
I0405 00:40:33.620548 16042 net.cpp:122] Setting up res4e_res4e_relu_0_split
I0405 00:40:33.620553 16042 net.cpp:129] Top shape: 256 1024 1 1 (262144)
I0405 00:40:33.620558 16042 net.cpp:129] Top shape: 256 1024 1 1 (262144)
I0405 00:40:33.620560 16042 net.cpp:137] Memory required for data: 107368448
I0405 00:40:33.620563 16042 layer_factory.hpp:77] Creating layer res4f_branch2a
I0405 00:40:33.620571 16042 net.cpp:84] Creating Layer res4f_branch2a
I0405 00:40:33.620574 16042 net.cpp:406] res4f_branch2a <- res4e_res4e_relu_0_split_0
I0405 00:40:33.620579 16042 net.cpp:380] res4f_branch2a -> res4f_branch2a
I0405 00:40:33.623142 16042 net.cpp:122] Setting up res4f_branch2a
I0405 00:40:33.623149 16042 net.cpp:129] Top shape: 256 256 1 1 (65536)
I0405 00:40:33.623152 16042 net.cpp:137] Memory required for data: 107630592
I0405 00:40:33.623157 16042 layer_factory.hpp:77] Creating layer bn4f_branch2a
I0405 00:40:33.623163 16042 net.cpp:84] Creating Layer bn4f_branch2a
I0405 00:40:33.623167 16042 net.cpp:406] bn4f_branch2a <- res4f_branch2a
I0405 00:40:33.623170 16042 net.cpp:367] bn4f_branch2a -> res4f_branch2a (in-place)
I0405 00:40:33.623183 16042 net.cpp:122] Setting up bn4f_branch2a
I0405 00:40:33.623189 16042 net.cpp:129] Top shape: 256 256 1 1 (65536)
I0405 00:40:33.623193 16042 net.cpp:137] Memory required for data: 107892736
I0405 00:40:33.623198 16042 layer_factory.hpp:77] Creating layer scale4f_branch2a
I0405 00:40:33.623201 16042 net.cpp:84] Creating Layer scale4f_branch2a
I0405 00:40:33.623205 16042 net.cpp:406] scale4f_branch2a <- res4f_branch2a
I0405 00:40:33.623210 16042 net.cpp:367] scale4f_branch2a -> res4f_branch2a (in-place)
I0405 00:40:33.623216 16042 layer_factory.hpp:77] Creating layer scale4f_branch2a
I0405 00:40:33.623229 16042 net.cpp:122] Setting up scale4f_branch2a
I0405 00:40:33.623235 16042 net.cpp:129] Top shape: 256 256 1 1 (65536)
I0405 00:40:33.623239 16042 net.cpp:137] Memory required for data: 108154880
I0405 00:40:33.623242 16042 layer_factory.hpp:77] Creating layer res4f_branch2a_relu
I0405 00:40:33.623261 16042 net.cpp:84] Creating Layer res4f_branch2a_relu
I0405 00:40:33.623265 16042 net.cpp:406] res4f_branch2a_relu <- res4f_branch2a
I0405 00:40:33.623268 16042 net.cpp:367] res4f_branch2a_relu -> res4f_branch2a (in-place)
I0405 00:40:33.623275 16042 net.cpp:122] Setting up res4f_branch2a_relu
I0405 00:40:33.623280 16042 net.cpp:129] Top shape: 256 256 1 1 (65536)
I0405 00:40:33.623282 16042 net.cpp:137] Memory required for data: 108417024
I0405 00:40:33.623286 16042 layer_factory.hpp:77] Creating layer res4f_branch2b
I0405 00:40:33.623291 16042 net.cpp:84] Creating Layer res4f_branch2b
I0405 00:40:33.623293 16042 net.cpp:406] res4f_branch2b <- res4f_branch2a
I0405 00:40:33.623299 16042 net.cpp:380] res4f_branch2b -> res4f_branch2b
I0405 00:40:33.629035 16042 net.cpp:122] Setting up res4f_branch2b
I0405 00:40:33.629045 16042 net.cpp:129] Top shape: 256 256 1 1 (65536)
I0405 00:40:33.629047 16042 net.cpp:137] Memory required for data: 108679168
I0405 00:40:33.629051 16042 layer_factory.hpp:77] Creating layer bn4f_branch2b
I0405 00:40:33.629058 16042 net.cpp:84] Creating Layer bn4f_branch2b
I0405 00:40:33.629061 16042 net.cpp:406] bn4f_branch2b <- res4f_branch2b
I0405 00:40:33.629065 16042 net.cpp:367] bn4f_branch2b -> res4f_branch2b (in-place)
I0405 00:40:33.629076 16042 net.cpp:122] Setting up bn4f_branch2b
I0405 00:40:33.629081 16042 net.cpp:129] Top shape: 256 256 1 1 (65536)
I0405 00:40:33.629084 16042 net.cpp:137] Memory required for data: 108941312
I0405 00:40:33.629089 16042 layer_factory.hpp:77] Creating layer scale4f_branch2b
I0405 00:40:33.629096 16042 net.cpp:84] Creating Layer scale4f_branch2b
I0405 00:40:33.629098 16042 net.cpp:406] scale4f_branch2b <- res4f_branch2b
I0405 00:40:33.629102 16042 net.cpp:367] scale4f_branch2b -> res4f_branch2b (in-place)
I0405 00:40:33.629112 16042 layer_factory.hpp:77] Creating layer scale4f_branch2b
I0405 00:40:33.629124 16042 net.cpp:122] Setting up scale4f_branch2b
I0405 00:40:33.629129 16042 net.cpp:129] Top shape: 256 256 1 1 (65536)
I0405 00:40:33.629132 16042 net.cpp:137] Memory required for data: 109203456
I0405 00:40:33.629137 16042 layer_factory.hpp:77] Creating layer res4f_branch2b_relu
I0405 00:40:33.629140 16042 net.cpp:84] Creating Layer res4f_branch2b_relu
I0405 00:40:33.629143 16042 net.cpp:406] res4f_branch2b_relu <- res4f_branch2b
I0405 00:40:33.629148 16042 net.cpp:367] res4f_branch2b_relu -> res4f_branch2b (in-place)
I0405 00:40:33.629151 16042 net.cpp:122] Setting up res4f_branch2b_relu
I0405 00:40:33.629155 16042 net.cpp:129] Top shape: 256 256 1 1 (65536)
I0405 00:40:33.629158 16042 net.cpp:137] Memory required for data: 109465600
I0405 00:40:33.629160 16042 layer_factory.hpp:77] Creating layer res4f_branch2c
I0405 00:40:33.629166 16042 net.cpp:84] Creating Layer res4f_branch2c
I0405 00:40:33.629169 16042 net.cpp:406] res4f_branch2c <- res4f_branch2b
I0405 00:40:33.629173 16042 net.cpp:380] res4f_branch2c -> res4f_branch2c
I0405 00:40:33.632926 16042 net.cpp:122] Setting up res4f_branch2c
I0405 00:40:33.632951 16042 net.cpp:129] Top shape: 256 1024 1 1 (262144)
I0405 00:40:33.632956 16042 net.cpp:137] Memory required for data: 110514176
I0405 00:40:33.632963 16042 layer_factory.hpp:77] Creating layer bn4f_branch2c
I0405 00:40:33.632975 16042 net.cpp:84] Creating Layer bn4f_branch2c
I0405 00:40:33.632982 16042 net.cpp:406] bn4f_branch2c <- res4f_branch2c
I0405 00:40:33.632990 16042 net.cpp:367] bn4f_branch2c -> res4f_branch2c (in-place)
I0405 00:40:33.633014 16042 net.cpp:122] Setting up bn4f_branch2c
I0405 00:40:33.633023 16042 net.cpp:129] Top shape: 256 1024 1 1 (262144)
I0405 00:40:33.633028 16042 net.cpp:137] Memory required for data: 111562752
I0405 00:40:33.633050 16042 layer_factory.hpp:77] Creating layer scale4f_branch2c
I0405 00:40:33.633061 16042 net.cpp:84] Creating Layer scale4f_branch2c
I0405 00:40:33.633066 16042 net.cpp:406] scale4f_branch2c <- res4f_branch2c
I0405 00:40:33.633074 16042 net.cpp:367] scale4f_branch2c -> res4f_branch2c (in-place)
I0405 00:40:33.633087 16042 layer_factory.hpp:77] Creating layer scale4f_branch2c
I0405 00:40:33.633131 16042 net.cpp:122] Setting up scale4f_branch2c
I0405 00:40:33.633141 16042 net.cpp:129] Top shape: 256 1024 1 1 (262144)
I0405 00:40:33.633144 16042 net.cpp:137] Memory required for data: 112611328
I0405 00:40:33.633152 16042 layer_factory.hpp:77] Creating layer res4f
I0405 00:40:33.633163 16042 net.cpp:84] Creating Layer res4f
I0405 00:40:33.633170 16042 net.cpp:406] res4f <- res4e_res4e_relu_0_split_1
I0405 00:40:33.633177 16042 net.cpp:406] res4f <- res4f_branch2c
I0405 00:40:33.633184 16042 net.cpp:380] res4f -> res4f
I0405 00:40:33.633194 16042 net.cpp:122] Setting up res4f
I0405 00:40:33.633201 16042 net.cpp:129] Top shape: 256 1024 1 1 (262144)
I0405 00:40:33.633206 16042 net.cpp:137] Memory required for data: 113659904
I0405 00:40:33.633210 16042 layer_factory.hpp:77] Creating layer res4f_relu
I0405 00:40:33.633220 16042 net.cpp:84] Creating Layer res4f_relu
I0405 00:40:33.633226 16042 net.cpp:406] res4f_relu <- res4f
I0405 00:40:33.633232 16042 net.cpp:367] res4f_relu -> res4f (in-place)
I0405 00:40:33.633240 16042 net.cpp:122] Setting up res4f_relu
I0405 00:40:33.633249 16042 net.cpp:129] Top shape: 256 1024 1 1 (262144)
I0405 00:40:33.633252 16042 net.cpp:137] Memory required for data: 114708480
I0405 00:40:33.633257 16042 layer_factory.hpp:77] Creating layer res4f_res4f_relu_0_split
I0405 00:40:33.633265 16042 net.cpp:84] Creating Layer res4f_res4f_relu_0_split
I0405 00:40:33.633270 16042 net.cpp:406] res4f_res4f_relu_0_split <- res4f
I0405 00:40:33.633278 16042 net.cpp:380] res4f_res4f_relu_0_split -> res4f_res4f_relu_0_split_0
I0405 00:40:33.633288 16042 net.cpp:380] res4f_res4f_relu_0_split -> res4f_res4f_relu_0_split_1
I0405 00:40:33.633299 16042 net.cpp:122] Setting up res4f_res4f_relu_0_split
I0405 00:40:33.633308 16042 net.cpp:129] Top shape: 256 1024 1 1 (262144)
I0405 00:40:33.633314 16042 net.cpp:129] Top shape: 256 1024 1 1 (262144)
I0405 00:40:33.633318 16042 net.cpp:137] Memory required for data: 116805632
I0405 00:40:33.633323 16042 layer_factory.hpp:77] Creating layer res5a_branch1
I0405 00:40:33.633334 16042 net.cpp:84] Creating Layer res5a_branch1
I0405 00:40:33.633340 16042 net.cpp:406] res5a_branch1 <- res4f_res4f_relu_0_split_0
I0405 00:40:33.633347 16042 net.cpp:380] res5a_branch1 -> res5a_branch1
I0405 00:40:33.656205 16042 net.cpp:122] Setting up res5a_branch1
I0405 00:40:33.656229 16042 net.cpp:129] Top shape: 256 2048 1 1 (524288)
I0405 00:40:33.656232 16042 net.cpp:137] Memory required for data: 118902784
I0405 00:40:33.656239 16042 layer_factory.hpp:77] Creating layer bn5a_branch1
I0405 00:40:33.656246 16042 net.cpp:84] Creating Layer bn5a_branch1
I0405 00:40:33.656251 16042 net.cpp:406] bn5a_branch1 <- res5a_branch1
I0405 00:40:33.656257 16042 net.cpp:367] bn5a_branch1 -> res5a_branch1 (in-place)
I0405 00:40:33.656275 16042 net.cpp:122] Setting up bn5a_branch1
I0405 00:40:33.656280 16042 net.cpp:129] Top shape: 256 2048 1 1 (524288)
I0405 00:40:33.656282 16042 net.cpp:137] Memory required for data: 120999936
I0405 00:40:33.656289 16042 layer_factory.hpp:77] Creating layer scale5a_branch1
I0405 00:40:33.656298 16042 net.cpp:84] Creating Layer scale5a_branch1
I0405 00:40:33.656304 16042 net.cpp:406] scale5a_branch1 <- res5a_branch1
I0405 00:40:33.656308 16042 net.cpp:367] scale5a_branch1 -> res5a_branch1 (in-place)
I0405 00:40:33.656322 16042 layer_factory.hpp:77] Creating layer scale5a_branch1
I0405 00:40:33.656348 16042 net.cpp:122] Setting up scale5a_branch1
I0405 00:40:33.656354 16042 net.cpp:129] Top shape: 256 2048 1 1 (524288)
I0405 00:40:33.656358 16042 net.cpp:137] Memory required for data: 123097088
I0405 00:40:33.656363 16042 layer_factory.hpp:77] Creating layer res5a_branch2a
I0405 00:40:33.656375 16042 net.cpp:84] Creating Layer res5a_branch2a
I0405 00:40:33.656381 16042 net.cpp:406] res5a_branch2a <- res4f_res4f_relu_0_split_1
I0405 00:40:33.656388 16042 net.cpp:380] res5a_branch2a -> res5a_branch2a
I0405 00:40:33.661645 16042 net.cpp:122] Setting up res5a_branch2a
I0405 00:40:33.661664 16042 net.cpp:129] Top shape: 256 512 1 1 (131072)
I0405 00:40:33.661690 16042 net.cpp:137] Memory required for data: 123621376
I0405 00:40:33.661697 16042 layer_factory.hpp:77] Creating layer bn5a_branch2a
I0405 00:40:33.661710 16042 net.cpp:84] Creating Layer bn5a_branch2a
I0405 00:40:33.661716 16042 net.cpp:406] bn5a_branch2a <- res5a_branch2a
I0405 00:40:33.661722 16042 net.cpp:367] bn5a_branch2a -> res5a_branch2a (in-place)
I0405 00:40:33.661744 16042 net.cpp:122] Setting up bn5a_branch2a
I0405 00:40:33.661751 16042 net.cpp:129] Top shape: 256 512 1 1 (131072)
I0405 00:40:33.661754 16042 net.cpp:137] Memory required for data: 124145664
I0405 00:40:33.661761 16042 layer_factory.hpp:77] Creating layer scale5a_branch2a
I0405 00:40:33.661769 16042 net.cpp:84] Creating Layer scale5a_branch2a
I0405 00:40:33.661774 16042 net.cpp:406] scale5a_branch2a <- res5a_branch2a
I0405 00:40:33.661779 16042 net.cpp:367] scale5a_branch2a -> res5a_branch2a (in-place)
I0405 00:40:33.661794 16042 layer_factory.hpp:77] Creating layer scale5a_branch2a
I0405 00:40:33.661814 16042 net.cpp:122] Setting up scale5a_branch2a
I0405 00:40:33.661820 16042 net.cpp:129] Top shape: 256 512 1 1 (131072)
I0405 00:40:33.661823 16042 net.cpp:137] Memory required for data: 124669952
I0405 00:40:33.661829 16042 layer_factory.hpp:77] Creating layer res5a_branch2a_relu
I0405 00:40:33.661842 16042 net.cpp:84] Creating Layer res5a_branch2a_relu
I0405 00:40:33.661846 16042 net.cpp:406] res5a_branch2a_relu <- res5a_branch2a
I0405 00:40:33.661852 16042 net.cpp:367] res5a_branch2a_relu -> res5a_branch2a (in-place)
I0405 00:40:33.661859 16042 net.cpp:122] Setting up res5a_branch2a_relu
I0405 00:40:33.661864 16042 net.cpp:129] Top shape: 256 512 1 1 (131072)
I0405 00:40:33.661870 16042 net.cpp:137] Memory required for data: 125194240
I0405 00:40:33.661873 16042 layer_factory.hpp:77] Creating layer res5a_branch2b
I0405 00:40:33.661885 16042 net.cpp:84] Creating Layer res5a_branch2b
I0405 00:40:33.661890 16042 net.cpp:406] res5a_branch2b <- res5a_branch2a
I0405 00:40:33.661896 16042 net.cpp:380] res5a_branch2b -> res5a_branch2b
I0405 00:40:33.688608 16042 net.cpp:122] Setting up res5a_branch2b
I0405 00:40:33.688634 16042 net.cpp:129] Top shape: 256 512 1 1 (131072)
I0405 00:40:33.688638 16042 net.cpp:137] Memory required for data: 125718528
I0405 00:40:33.688644 16042 layer_factory.hpp:77] Creating layer bn5a_branch2b
I0405 00:40:33.688652 16042 net.cpp:84] Creating Layer bn5a_branch2b
I0405 00:40:33.688657 16042 net.cpp:406] bn5a_branch2b <- res5a_branch2b
I0405 00:40:33.688663 16042 net.cpp:367] bn5a_branch2b -> res5a_branch2b (in-place)
I0405 00:40:33.688680 16042 net.cpp:122] Setting up bn5a_branch2b
I0405 00:40:33.688685 16042 net.cpp:129] Top shape: 256 512 1 1 (131072)
I0405 00:40:33.688688 16042 net.cpp:137] Memory required for data: 126242816
I0405 00:40:33.688694 16042 layer_factory.hpp:77] Creating layer scale5a_branch2b
I0405 00:40:33.688699 16042 net.cpp:84] Creating Layer scale5a_branch2b
I0405 00:40:33.688705 16042 net.cpp:406] scale5a_branch2b <- res5a_branch2b
I0405 00:40:33.688709 16042 net.cpp:367] scale5a_branch2b -> res5a_branch2b (in-place)
I0405 00:40:33.688720 16042 layer_factory.hpp:77] Creating layer scale5a_branch2b
I0405 00:40:33.688732 16042 net.cpp:122] Setting up scale5a_branch2b
I0405 00:40:33.688737 16042 net.cpp:129] Top shape: 256 512 1 1 (131072)
I0405 00:40:33.688740 16042 net.cpp:137] Memory required for data: 126767104
I0405 00:40:33.688745 16042 layer_factory.hpp:77] Creating layer res5a_branch2b_relu
I0405 00:40:33.688750 16042 net.cpp:84] Creating Layer res5a_branch2b_relu
I0405 00:40:33.688753 16042 net.cpp:406] res5a_branch2b_relu <- res5a_branch2b
I0405 00:40:33.688760 16042 net.cpp:367] res5a_branch2b_relu -> res5a_branch2b (in-place)
I0405 00:40:33.688765 16042 net.cpp:122] Setting up res5a_branch2b_relu
I0405 00:40:33.688768 16042 net.cpp:129] Top shape: 256 512 1 1 (131072)
I0405 00:40:33.688771 16042 net.cpp:137] Memory required for data: 127291392
I0405 00:40:33.688773 16042 layer_factory.hpp:77] Creating layer res5a_branch2c
I0405 00:40:33.688779 16042 net.cpp:84] Creating Layer res5a_branch2c
I0405 00:40:33.688799 16042 net.cpp:406] res5a_branch2c <- res5a_branch2b
I0405 00:40:33.688805 16042 net.cpp:380] res5a_branch2c -> res5a_branch2c
I0405 00:40:33.700292 16042 net.cpp:122] Setting up res5a_branch2c
I0405 00:40:33.700315 16042 net.cpp:129] Top shape: 256 2048 1 1 (524288)
I0405 00:40:33.700318 16042 net.cpp:137] Memory required for data: 129388544
I0405 00:40:33.700325 16042 layer_factory.hpp:77] Creating layer bn5a_branch2c
I0405 00:40:33.700345 16042 net.cpp:84] Creating Layer bn5a_branch2c
I0405 00:40:33.700359 16042 net.cpp:406] bn5a_branch2c <- res5a_branch2c
I0405 00:40:33.700366 16042 net.cpp:367] bn5a_branch2c -> res5a_branch2c (in-place)
I0405 00:40:33.700384 16042 net.cpp:122] Setting up bn5a_branch2c
I0405 00:40:33.700389 16042 net.cpp:129] Top shape: 256 2048 1 1 (524288)
I0405 00:40:33.700392 16042 net.cpp:137] Memory required for data: 131485696
I0405 00:40:33.700397 16042 layer_factory.hpp:77] Creating layer scale5a_branch2c
I0405 00:40:33.700404 16042 net.cpp:84] Creating Layer scale5a_branch2c
I0405 00:40:33.700409 16042 net.cpp:406] scale5a_branch2c <- res5a_branch2c
I0405 00:40:33.700414 16042 net.cpp:367] scale5a_branch2c -> res5a_branch2c (in-place)
I0405 00:40:33.700426 16042 layer_factory.hpp:77] Creating layer scale5a_branch2c
I0405 00:40:33.700450 16042 net.cpp:122] Setting up scale5a_branch2c
I0405 00:40:33.700455 16042 net.cpp:129] Top shape: 256 2048 1 1 (524288)
I0405 00:40:33.700459 16042 net.cpp:137] Memory required for data: 133582848
I0405 00:40:33.700462 16042 layer_factory.hpp:77] Creating layer res5a
I0405 00:40:33.700467 16042 net.cpp:84] Creating Layer res5a
I0405 00:40:33.700470 16042 net.cpp:406] res5a <- res5a_branch1
I0405 00:40:33.700474 16042 net.cpp:406] res5a <- res5a_branch2c
I0405 00:40:33.700479 16042 net.cpp:380] res5a -> res5a
I0405 00:40:33.700485 16042 net.cpp:122] Setting up res5a
I0405 00:40:33.700489 16042 net.cpp:129] Top shape: 256 2048 1 1 (524288)
I0405 00:40:33.700492 16042 net.cpp:137] Memory required for data: 135680000
I0405 00:40:33.700495 16042 layer_factory.hpp:77] Creating layer res5a_relu
I0405 00:40:33.700500 16042 net.cpp:84] Creating Layer res5a_relu
I0405 00:40:33.700502 16042 net.cpp:406] res5a_relu <- res5a
I0405 00:40:33.700505 16042 net.cpp:367] res5a_relu -> res5a (in-place)
I0405 00:40:33.700510 16042 net.cpp:122] Setting up res5a_relu
I0405 00:40:33.700515 16042 net.cpp:129] Top shape: 256 2048 1 1 (524288)
I0405 00:40:33.700516 16042 net.cpp:137] Memory required for data: 137777152
I0405 00:40:33.700520 16042 layer_factory.hpp:77] Creating layer res5a_res5a_relu_0_split
I0405 00:40:33.700523 16042 net.cpp:84] Creating Layer res5a_res5a_relu_0_split
I0405 00:40:33.700527 16042 net.cpp:406] res5a_res5a_relu_0_split <- res5a
I0405 00:40:33.700531 16042 net.cpp:380] res5a_res5a_relu_0_split -> res5a_res5a_relu_0_split_0
I0405 00:40:33.700539 16042 net.cpp:380] res5a_res5a_relu_0_split -> res5a_res5a_relu_0_split_1
I0405 00:40:33.700546 16042 net.cpp:122] Setting up res5a_res5a_relu_0_split
I0405 00:40:33.700548 16042 net.cpp:129] Top shape: 256 2048 1 1 (524288)
…
I0405 00:40:33.857663 16042 net.cpp:129] Top shape: 1 1024 1 1 (1024)
I0405 00:40:33.857667 16042 net.cpp:137] Memory required for data: 337496
I0405 00:40:33.857672 16042 layer_factory.hpp:77] Creating layer res4c_res4c_relu_0_split
I0405 00:40:33.857681 16042 net.cpp:84] Creating Layer res4c_res4c_relu_0_split
I0405 00:40:33.857686 16042 net.cpp:406] res4c_res4c_relu_0_split <- res4c
I0405 00:40:33.857692 16042 net.cpp:380] res4c_res4c_relu_0_split -> res4c_res4c_relu_0_split_0
I0405 00:40:33.857702 16042 net.cpp:380] res4c_res4c_relu_0_split -> res4c_res4c_relu_0_split_1
I0405 00:40:33.857712 16042 net.cpp:122] Setting up res4c_res4c_relu_0_split
I0405 00:40:33.857720 16042 net.cpp:129] Top shape: 1 1024 1 1 (1024)
I0405 00:40:33.857726 16042 net.cpp:129] Top shape: 1 1024 1 1 (1024)
I0405 00:40:33.857731 16042 net.cpp:137] Memory required for data: 345688
I0405 00:40:33.857735 16042 layer_factory.hpp:77] Creating layer res4d_branch2a
I0405 00:40:33.857745 16042 net.cpp:84] Creating Layer res4d_branch2a
I0405 00:40:33.857751 16042 net.cpp:406] res4d_branch2a <- res4c_res4c_relu_0_split_0
I0405 00:40:33.857758 16042 net.cpp:380] res4d_branch2a -> res4d_branch2a
I0405 00:40:33.860095 16042 net.cpp:122] Setting up res4d_branch2a
I0405 00:40:33.860103 16042 net.cpp:129] Top shape: 1 256 1 1 (256)
I0405 00:40:33.860108 16042 net.cpp:137] Memory required for data: 346712
I0405 00:40:33.860113 16042 layer_factory.hpp:77] Creating layer bn4d_branch2a
I0405 00:40:33.860121 16042 net.cpp:84] Creating Layer bn4d_branch2a
I0405 00:40:33.860127 16042 net.cpp:406] bn4d_branch2a <- res4d_branch2a
I0405 00:40:33.860133 16042 net.cpp:367] bn4d_branch2a -> res4d_branch2a (in-place)
I0405 00:40:33.860149 16042 net.cpp:122] Setting up bn4d_branch2a
I0405 00:40:33.860155 16042 net.cpp:129] Top shape: 1 256 1 1 (256)
I0405 00:40:33.860159 16042 net.cpp:137] Memory required for data: 347736
I0405 00:40:33.860167 16042 layer_factory.hpp:77] Creating layer scale4d_branch2a
I0405 00:40:33.860174 16042 net.cpp:84] Creating Layer scale4d_branch2a
I0405 00:40:33.860179 16042 net.cpp:406] scale4d_branch2a <- res4d_branch2a
I0405 00:40:33.860185 16042 net.cpp:367] scale4d_branch2a -> res4d_branch2a (in-place)
I0405 00:40:33.860196 16042 layer_factory.hpp:77] Creating layer scale4d_branch2a
I0405 00:40:33.860211 16042 net.cpp:122] Setting up scale4d_branch2a
I0405 00:40:33.860219 16042 net.cpp:129] Top shape: 1 256 1 1 (256)
I0405 00:40:33.860222 16042 net.cpp:137] Memory required for data: 348760
I0405 00:40:33.860229 16042 layer_factory.hpp:77] Creating layer res4d_branch2a_relu
I0405 00:40:33.860234 16042 net.cpp:84] Creating Layer res4d_branch2a_relu
I0405 00:40:33.860239 16042 net.cpp:406] res4d_branch2a_relu <- res4d_branch2a
I0405 00:40:33.860244 16042 net.cpp:367] res4d_branch2a_relu -> res4d_branch2a (in-place)
I0405 00:40:33.860250 16042 net.cpp:122] Setting up res4d_branch2a_relu
I0405 00:40:33.860255 16042 net.cpp:129] Top shape: 1 256 1 1 (256)
I0405 00:40:33.860260 16042 net.cpp:137] Memory required for data: 349784
I0405 00:40:33.860263 16042 layer_factory.hpp:77] Creating layer res4d_branch2b
I0405 00:40:33.860272 16042 net.cpp:84] Creating Layer res4d_branch2b
I0405 00:40:33.860286 16042 net.cpp:406] res4d_branch2b <- res4d_branch2a
I0405 00:40:33.860296 16042 net.cpp:380] res4d_branch2b -> res4d_branch2b
I0405 00:40:33.865588 16042 net.cpp:122] Setting up res4d_branch2b
I0405 00:40:33.865610 16042 net.cpp:129] Top shape: 1 256 1 1 (256)
I0405 00:40:33.865614 16042 net.cpp:137] Memory required for data: 350808
I0405 00:40:33.865622 16042 layer_factory.hpp:77] Creating layer bn4d_branch2b
I0405 00:40:33.865633 16042 net.cpp:84] Creating Layer bn4d_branch2b
I0405 00:40:33.865638 16042 net.cpp:406] bn4d_branch2b <- res4d_branch2b
I0405 00:40:33.865644 16042 net.cpp:367] bn4d_branch2b -> res4d_branch2b (in-place)
I0405 00:40:33.865665 16042 net.cpp:122] Setting up bn4d_branch2b
I0405 00:40:33.865671 16042 net.cpp:129] Top shape: 1 256 1 1 (256)
I0405 00:40:33.865675 16042 net.cpp:137] Memory required for data: 351832
I0405 00:40:33.865682 16042 layer_factory.hpp:77] Creating layer scale4d_branch2b
I0405 00:40:33.865692 16042 net.cpp:84] Creating Layer scale4d_branch2b
I0405 00:40:33.865697 16042 net.cpp:406] scale4d_branch2b <- res4d_branch2b
I0405 00:40:33.865703 16042 net.cpp:367] scale4d_branch2b -> res4d_branch2b (in-place)
I0405 00:40:33.865715 16042 layer_factory.hpp:77] Creating layer scale4d_branch2b
I0405 00:40:33.865732 16042 net.cpp:122] Setting up scale4d_branch2b
I0405 00:40:33.865738 16042 net.cpp:129] Top shape: 1 256 1 1 (256)
I0405 00:40:33.865742 16042 net.cpp:137] Memory required for data: 352856
I0405 00:40:33.865749 16042 layer_factory.hpp:77] Creating layer res4d_branch2b_relu
I0405 00:40:33.865757 16042 net.cpp:84] Creating Layer res4d_branch2b_relu
I0405 00:40:33.865763 16042 net.cpp:406] res4d_branch2b_relu <- res4d_branch2b
I0405 00:40:33.865769 16042 net.cpp:367] res4d_branch2b_relu -> res4d_branch2b (in-place)
I0405 00:40:33.865775 16042 net.cpp:122] Setting up res4d_branch2b_relu
I0405 00:40:33.865780 16042 net.cpp:129] Top shape: 1 256 1 1 (256)
I0405 00:40:33.865784 16042 net.cpp:137] Memory required for data: 353880
I0405 00:40:33.865788 16042 layer_factory.hpp:77] Creating layer res4d_branch2c
I0405 00:40:33.865797 16042 net.cpp:84] Creating Layer res4d_branch2c
I0405 00:40:33.865803 16042 net.cpp:406] res4d_branch2c <- res4d_branch2b
I0405 00:40:33.865809 16042 net.cpp:380] res4d_branch2c -> res4d_branch2c
I0405 00:40:33.868321 16042 net.cpp:122] Setting up res4d_branch2c
I0405 00:40:33.868340 16042 net.cpp:129] Top shape: 1 1024 1 1 (1024)
I0405 00:40:33.868345 16042 net.cpp:137] Memory required for data: 357976
I0405 00:40:33.868353 16042 layer_factory.hpp:77] Creating layer bn4d_branch2c
I0405 00:40:33.868363 16042 net.cpp:84] Creating Layer bn4d_branch2c
I0405 00:40:33.868368 16042 net.cpp:406] bn4d_branch2c <- res4d_branch2c
I0405 00:40:33.868377 16042 net.cpp:367] bn4d_branch2c -> res4d_branch2c (in-place)
I0405 00:40:33.868399 16042 net.cpp:122] Setting up bn4d_branch2c
I0405 00:40:33.868405 16042 net.cpp:129] Top shape: 1 1024 1 1 (1024)
I0405 00:40:33.868409 16042 net.cpp:137] Memory required for data: 362072
I0405 00:40:33.868417 16042 layer_factory.hpp:77] Creating layer scale4d_branch2c
I0405 00:40:33.868425 16042 net.cpp:84] Creating Layer scale4d_branch2c
I0405 00:40:33.868432 16042 net.cpp:406] scale4d_branch2c <- res4d_branch2c
I0405 00:40:33.868438 16042 net.cpp:367] scale4d_branch2c -> res4d_branch2c (in-place)
I0405 00:40:33.868454 16042 layer_factory.hpp:77] Creating layer scale4d_branch2c
I0405 00:40:33.868472 16042 net.cpp:122] Setting up scale4d_branch2c
I0405 00:40:33.868479 16042 net.cpp:129] Top shape: 1 1024 1 1 (1024)
I0405 00:40:33.868482 16042 net.cpp:137] Memory required for data: 366168
I0405 00:40:33.868489 16042 layer_factory.hpp:77] Creating layer res4d
I0405 00:40:33.868495 16042 net.cpp:84] Creating Layer res4d
I0405 00:40:33.868500 16042 net.cpp:406] res4d <- res4c_res4c_relu_0_split_1
I0405 00:40:33.868506 16042 net.cpp:406] res4d <- res4d_branch2c
I0405 00:40:33.868513 16042 net.cpp:380] res4d -> res4d
I0405 00:40:33.868523 16042 net.cpp:122] Setting up res4d
I0405 00:40:33.868530 16042 net.cpp:129] Top shape: 1 1024 1 1 (1024)
I0405 00:40:33.868551 16042 net.cpp:137] Memory required for data: 370264
I0405 00:40:33.868556 16042 layer_factory.hpp:77] Creating layer res4d_relu
I0405 00:40:33.868562 16042 net.cpp:84] Creating Layer res4d_relu
I0405 00:40:33.868566 16042 net.cpp:406] res4d_relu <- res4d
I0405 00:40:33.868574 16042 net.cpp:367] res4d_relu -> res4d (in-place)
I0405 00:40:33.868582 16042 net.cpp:122] Setting up res4d_relu
I0405 00:40:33.868588 16042 net.cpp:129] Top shape: 1 1024 1 1 (1024)
I0405 00:40:33.868594 16042 net.cpp:137] Memory required for data: 374360
I0405 00:40:33.868598 16042 layer_factory.hpp:77] Creating layer res4d_res4d_relu_0_split
I0405 00:40:33.868604 16042 net.cpp:84] Creating Layer res4d_res4d_relu_0_split
I0405 00:40:33.868609 16042 net.cpp:406] res4d_res4d_relu_0_split <- res4d
I0405 00:40:33.868615 16042 net.cpp:380] res4d_res4d_relu_0_split -> res4d_res4d_relu_0_split_0
I0405 00:40:33.868623 16042 net.cpp:380] res4d_res4d_relu_0_split -> res4d_res4d_relu_0_split_1
I0405 00:40:33.868633 16042 net.cpp:122] Setting up res4d_res4d_relu_0_split
I0405 00:40:33.868639 16042 net.cpp:129] Top shape: 1 1024 1 1 (1024)
I0405 00:40:33.868645 16042 net.cpp:129] Top shape: 1 1024 1 1 (1024)
I0405 00:40:33.868649 16042 net.cpp:137] Memory required for data: 382552
I0405 00:40:33.868654 16042 layer_factory.hpp:77] Creating layer res4e_branch2a
I0405 00:40:33.868664 16042 net.cpp:84] Creating Layer res4e_branch2a
I0405 00:40:33.868669 16042 net.cpp:406] res4e_branch2a <- res4d_res4d_relu_0_split_0
I0405 00:40:33.868675 16042 net.cpp:380] res4e_branch2a -> res4e_branch2a
I0405 00:40:33.871173 16042 net.cpp:122] Setting up res4e_branch2a
I0405 00:40:33.871188 16042 net.cpp:129] Top shape: 1 256 1 1 (256)
I0405 00:40:33.871192 16042 net.cpp:137] Memory required for data: 383576
I0405 00:40:33.871199 16042 layer_factory.hpp:77] Creating layer bn4e_branch2a
I0405 00:40:33.871209 16042 net.cpp:84] Creating Layer bn4e_branch2a
I0405 00:40:33.871219 16042 net.cpp:406] bn4e_branch2a <- res4e_branch2a
I0405 00:40:33.871227 16042 net.cpp:367] bn4e_branch2a -> res4e_branch2a (in-place)
I0405 00:40:33.871246 16042 net.cpp:122] Setting up bn4e_branch2a
I0405 00:40:33.871253 16042 net.cpp:129] Top shape: 1 256 1 1 (256)
I0405 00:40:33.871256 16042 net.cpp:137] Memory required for data: 384600
I0405 00:40:33.871264 16042 layer_factory.hpp:77] Creating layer scale4e_branch2a
I0405 00:40:33.871274 16042 net.cpp:84] Creating Layer scale4e_branch2a
I0405 00:40:33.871280 16042 net.cpp:406] scale4e_branch2a <- res4e_branch2a
I0405 00:40:33.871286 16042 net.cpp:367] scale4e_branch2a -> res4e_branch2a (in-place)
I0405 00:40:33.871299 16042 layer_factory.hpp:77] Creating layer scale4e_branch2a
I0405 00:40:33.871320 16042 net.cpp:122] Setting up scale4e_branch2a
I0405 00:40:33.871325 16042 net.cpp:129] Top shape: 1 256 1 1 (256)
I0405 00:40:33.871330 16042 net.cpp:137] Memory required for data: 385624
I0405 00:40:33.871335 16042 layer_factory.hpp:77] Creating layer res4e_branch2a_relu
I0405 00:40:33.871346 16042 net.cpp:84] Creating Layer res4e_branch2a_relu
I0405 00:40:33.871351 16042 net.cpp:406] res4e_branch2a_relu <- res4e_branch2a
I0405 00:40:33.871358 16042 net.cpp:367] res4e_branch2a_relu -> res4e_branch2a (in-place)
I0405 00:40:33.871364 16042 net.cpp:122] Setting up res4e_branch2a_relu
I0405 00:40:33.871369 16042 net.cpp:129] Top shape: 1 256 1 1 (256)
I0405 00:40:33.871373 16042 net.cpp:137] Memory required for data: 386648
I0405 00:40:33.871377 16042 layer_factory.hpp:77] Creating layer res4e_branch2b
I0405 00:40:33.871387 16042 net.cpp:84] Creating Layer res4e_branch2b
I0405 00:40:33.871392 16042 net.cpp:406] res4e_branch2b <- res4e_branch2a
I0405 00:40:33.871398 16042 net.cpp:380] res4e_branch2b -> res4e_branch2b
I0405 00:40:33.877307 16042 net.cpp:122] Setting up res4e_branch2b
I0405 00:40:33.877327 16042 net.cpp:129] Top shape: 1 256 1 1 (256)
I0405 00:40:33.877331 16042 net.cpp:137] Memory required for data: 387672
I0405 00:40:33.877339 16042 layer_factory.hpp:77] Creating layer bn4e_branch2b
I0405 00:40:33.877351 16042 net.cpp:84] Creating Layer bn4e_branch2b
I0405 00:40:33.877370 16042 net.cpp:406] bn4e_branch2b <- res4e_branch2b
I0405 00:40:33.877379 16042 net.cpp:367] bn4e_branch2b -> res4e_branch2b (in-place)
I0405 00:40:33.877398 16042 net.cpp:122] Setting up bn4e_branch2b
I0405 00:40:33.877404 16042 net.cpp:129] Top shape: 1 256 1 1 (256)
I0405 00:40:33.877409 16042 net.cpp:137] Memory required for data: 388696
I0405 00:40:33.877418 16042 layer_factory.hpp:77] Creating layer scale4e_branch2b
I0405 00:40:33.877426 16042 net.cpp:84] Creating Layer scale4e_branch2b
I0405 00:40:33.877432 16042 net.cpp:406] scale4e_branch2b <- res4e_branch2b
I0405 00:40:33.877439 16042 net.cpp:367] scale4e_branch2b -> res4e_branch2b (in-place)
I0405 00:40:33.877454 16042 layer_factory.hpp:77] Creating layer scale4e_branch2b
I0405 00:40:33.877470 16042 net.cpp:122] Setting up scale4e_branch2b
I0405 00:40:33.877476 16042 net.cpp:129] Top shape: 1 256 1 1 (256)
I0405 00:40:33.877481 16042 net.cpp:137] Memory required for data: 389720
I0405 00:40:33.877487 16042 layer_factory.hpp:77] Creating layer res4e_branch2b_relu
I0405 00:40:33.877496 16042 net.cpp:84] Creating Layer res4e_branch2b_relu
I0405 00:40:33.877501 16042 net.cpp:406] res4e_branch2b_relu <- res4e_branch2b
I0405 00:40:33.877511 16042 net.cpp:367] res4e_branch2b_relu -> res4e_branch2b (in-place)
I0405 00:40:33.877517 16042 net.cpp:122] Setting up res4e_branch2b_relu
I0405 00:40:33.877523 16042 net.cpp:129] Top shape: 1 256 1 1 (256)
I0405 00:40:33.877527 16042 net.cpp:137] Memory required for data: 390744
I0405 00:40:33.877532 16042 layer_factory.hpp:77] Creating layer res4e_branch2c
I0405 00:40:33.877539 16042 net.cpp:84] Creating Layer res4e_branch2c
I0405 00:40:33.877544 16042 net.cpp:406] res4e_branch2c <- res4e_branch2b
I0405 00:40:33.877553 16042 net.cpp:380] res4e_branch2c -> res4e_branch2c
I0405 00:40:33.879995 16042 net.cpp:122] Setting up res4e_branch2c
I0405 00:40:33.880005 16042 net.cpp:129] Top shape: 1 1024 1 1 (1024)
I0405 00:40:33.880010 16042 net.cpp:137] Memory required for data: 394840
I0405 00:40:33.880017 16042 layer_factory.hpp:77] Creating layer bn4e_branch2c
I0405 00:40:33.880024 16042 net.cpp:84] Creating Layer bn4e_branch2c
I0405 00:40:33.880030 16042 net.cpp:406] bn4e_branch2c <- res4e_branch2c
I0405 00:40:33.880038 16042 net.cpp:367] bn4e_branch2c -> res4e_branch2c (in-place)
I0405 00:40:33.880058 16042 net.cpp:122] Setting up bn4e_branch2c
I0405 00:40:33.880064 16042 net.cpp:129] Top shape: 1 1024 1 1 (1024)
I0405 00:40:33.880069 16042 net.cpp:137] Memory required for data: 398936
I0405 00:40:33.880075 16042 layer_factory.hpp:77] Creating layer scale4e_branch2c
I0405 00:40:33.880084 16042 net.cpp:84] Creating Layer scale4e_branch2c
I0405 00:40:33.880089 16042 net.cpp:406] scale4e_branch2c <- res4e_branch2c
I0405 00:40:33.880095 16042 net.cpp:367] scale4e_branch2c -> res4e_branch2c (in-place)
I0405 00:40:33.880108 16042 layer_factory.hpp:77] Creating layer scale4e_branch2c
I0405 00:40:33.880125 16042 net.cpp:122] Setting up scale4e_branch2c
I0405 00:40:33.880131 16042 net.cpp:129] Top shape: 1 1024 1 1 (1024)
I0405 00:40:33.880136 16042 net.cpp:137] Memory required for data: 403032
I0405 00:40:33.880141 16042 layer_factory.hpp:77] Creating layer res4e
I0405 00:40:33.880148 16042 net.cpp:84] Creating Layer res4e
I0405 00:40:33.880153 16042 net.cpp:406] res4e <- res4d_res4d_relu_0_split_1
I0405 00:40:33.880158 16042 net.cpp:406] res4e <- res4e_branch2c
I0405 00:40:33.880167 16042 net.cpp:380] res4e -> res4e
I0405 00:40:33.880182 16042 net.cpp:122] Setting up res4e
I0405 00:40:33.880189 16042 net.cpp:129] Top shape: 1 1024 1 1 (1024)
I0405 00:40:33.880195 16042 net.cpp:137] Memory required for data: 407128
I0405 00:40:33.880199 16042 layer_factory.hpp:77] Creating layer res4e_relu
I0405 00:40:33.880206 16042 net.cpp:84] Creating Layer res4e_relu
I0405 00:40:33.880211 16042 net.cpp:406] res4e_relu <- res4e
I0405 00:40:33.880218 16042 net.cpp:367] res4e_relu -> res4e (in-place)
I0405 00:40:33.880223 16042 net.cpp:122] Setting up res4e_relu
I0405 00:40:33.880229 16042 net.cpp:129] Top shape: 1 1024 1 1 (1024)
I0405 00:40:33.880244 16042 net.cpp:137] Memory required for data: 411224
I0405 00:40:33.880249 16042 layer_factory.hpp:77] Creating layer res4e_res4e_relu_0_split
I0405 00:40:33.880255 16042 net.cpp:84] Creating Layer res4e_res4e_relu_0_split
I0405 00:40:33.880259 16042 net.cpp:406] res4e_res4e_relu_0_split <- res4e
I0405 00:40:33.880266 16042 net.cpp:380] res4e_res4e_relu_0_split -> res4e_res4e_relu_0_split_0
I0405 00:40:33.880273 16042 net.cpp:380] res4e_res4e_relu_0_split -> res4e_res4e_relu_0_split_1
I0405 00:40:33.880282 16042 net.cpp:122] Setting up res4e_res4e_relu_0_split
I0405 00:40:33.880290 16042 net.cpp:129] Top shape: 1 1024 1 1 (1024)
I0405 00:40:33.880296 16042 net.cpp:129] Top shape: 1 1024 1 1 (1024)
I0405 00:40:33.880300 16042 net.cpp:137] Memory required for data: 419416
I0405 00:40:33.880304 16042 layer_factory.hpp:77] Creating layer res4f_branch2a
I0405 00:40:33.880316 16042 net.cpp:84] Creating Layer res4f_branch2a
I0405 00:40:33.880321 16042 net.cpp:406] res4f_branch2a <- res4e_res4e_relu_0_split_0
I0405 00:40:33.880331 16042 net.cpp:380] res4f_branch2a -> res4f_branch2a
I0405 00:40:33.882812 16042 net.cpp:122] Setting up res4f_branch2a
I0405 00:40:33.882828 16042 net.cpp:129] Top shape: 1 256 1 1 (256)
I0405 00:40:33.882833 16042 net.cpp:137] Memory required for data: 420440
I0405 00:40:33.882839 16042 layer_factory.hpp:77] Creating layer bn4f_branch2a
I0405 00:40:33.882849 16042 net.cpp:84] Creating Layer bn4f_branch2a
I0405 00:40:33.882855 16042 net.cpp:406] bn4f_branch2a <- res4f_branch2a
I0405 00:40:33.882864 16042 net.cpp:367] bn4f_branch2a -> res4f_branch2a (in-place)
I0405 00:40:33.882884 16042 net.cpp:122] Setting up bn4f_branch2a
I0405 00:40:33.882891 16042 net.cpp:129] Top shape: 1 256 1 1 (256)
I0405 00:40:33.882895 16042 net.cpp:137] Memory required for data: 421464
I0405 00:40:33.882903 16042 layer_factory.hpp:77] Creating layer scale4f_branch2a
I0405 00:40:33.882913 16042 net.cpp:84] Creating Layer scale4f_branch2a
I0405 00:40:33.882920 16042 net.cpp:406] scale4f_branch2a <- res4f_branch2a
I0405 00:40:33.882925 16042 net.cpp:367] scale4f_branch2a -> res4f_branch2a (in-place)
I0405 00:40:33.882936 16042 layer_factory.hpp:77] Creating layer scale4f_branch2a
I0405 00:40:33.882954 16042 net.cpp:122] Setting up scale4f_branch2a
I0405 00:40:33.882963 16042 net.cpp:129] Top shape: 1 256 1 1 (256)
I0405 00:40:33.882967 16042 net.cpp:137] Memory required for data: 422488
I0405 00:40:33.882973 16042 layer_factory.hpp:77] Creating layer res4f_branch2a_relu
I0405 00:40:33.882983 16042 net.cpp:84] Creating Layer res4f_branch2a_relu
I0405 00:40:33.882988 16042 net.cpp:406] res4f_branch2a_relu <- res4f_branch2a
I0405 00:40:33.882994 16042 net.cpp:367] res4f_branch2a_relu -> res4f_branch2a (in-place)
I0405 00:40:33.882999 16042 net.cpp:122] Setting up res4f_branch2a_relu
I0405 00:40:33.883003 16042 net.cpp:129] Top shape: 1 256 1 1 (256)
I0405 00:40:33.883005 16042 net.cpp:137] Memory required for data: 423512
I0405 00:40:33.883008 16042 layer_factory.hpp:77] Creating layer res4f_branch2b
I0405 00:40:33.883015 16042 net.cpp:84] Creating Layer res4f_branch2b
I0405 00:40:33.883025 16042 net.cpp:406] res4f_branch2b <- res4f_branch2a
I0405 00:40:33.883029 16042 net.cpp:380] res4f_branch2b -> res4f_branch2b
I0405 00:40:33.888514 16042 net.cpp:122] Setting up res4f_branch2b
I0405 00:40:33.888528 16042 net.cpp:129] Top shape: 1 256 1 1 (256)
I0405 00:40:33.888531 16042 net.cpp:137] Memory required for data: 424536
I0405 00:40:33.888537 16042 layer_factory.hpp:77] Creating layer bn4f_branch2b
I0405 00:40:33.888543 16042 net.cpp:84] Creating Layer bn4f_branch2b
I0405 00:40:33.888547 16042 net.cpp:406] bn4f_branch2b <- res4f_branch2b
I0405 00:40:33.888553 16042 net.cpp:367] bn4f_branch2b -> res4f_branch2b (in-place)
I0405 00:40:33.888568 16042 net.cpp:122] Setting up bn4f_branch2b
I0405 00:40:33.888573 16042 net.cpp:129] Top shape: 1 256 1 1 (256)
I0405 00:40:33.888576 16042 net.cpp:137] Memory required for data: 425560
I0405 00:40:33.888581 16042 layer_factory.hpp:77] Creating layer scale4f_branch2b
I0405 00:40:33.888599 16042 net.cpp:84] Creating Layer scale4f_branch2b
I0405 00:40:33.888603 16042 net.cpp:406] scale4f_branch2b <- res4f_branch2b
I0405 00:40:33.888607 16042 net.cpp:367] scale4f_branch2b -> res4f_branch2b (in-place)
I0405 00:40:33.888617 16042 layer_factory.hpp:77] Creating layer scale4f_branch2b
I0405 00:40:33.888628 16042 net.cpp:122] Setting up scale4f_branch2b
I0405 00:40:33.888633 16042 net.cpp:129] Top shape: 1 256 1 1 (256)
I0405 00:40:33.888636 16042 net.cpp:137] Memory required for data: 426584
I0405 00:40:33.888640 16042 layer_factory.hpp:77] Creating layer res4f_branch2b_relu
I0405 00:40:33.888645 16042 net.cpp:84] Creating Layer res4f_branch2b_relu
I0405 00:40:33.888649 16042 net.cpp:406] res4f_branch2b_relu <- res4f_branch2b
I0405 00:40:33.888653 16042 net.cpp:367] res4f_branch2b_relu -> res4f_branch2b (in-place)
I0405 00:40:33.888658 16042 net.cpp:122] Setting up res4f_branch2b_relu
I0405 00:40:33.888660 16042 net.cpp:129] Top shape: 1 256 1 1 (256)
I0405 00:40:33.888664 16042 net.cpp:137] Memory required for data: 427608
I0405 00:40:33.888666 16042 layer_factory.hpp:77] Creating layer res4f_branch2c
I0405 00:40:33.888672 16042 net.cpp:84] Creating Layer res4f_branch2c
I0405 00:40:33.888676 16042 net.cpp:406] res4f_branch2c <- res4f_branch2b
I0405 00:40:33.888680 16042 net.cpp:380] res4f_branch2c -> res4f_branch2c
I0405 00:40:33.891065 16042 net.cpp:122] Setting up res4f_branch2c
I0405 00:40:33.891073 16042 net.cpp:129] Top shape: 1 1024 1 1 (1024)
I0405 00:40:33.891077 16042 net.cpp:137] Memory required for data: 431704
I0405 00:40:33.891079 16042 layer_factory.hpp:77] Creating layer bn4f_branch2c
I0405 00:40:33.891084 16042 net.cpp:84] Creating Layer bn4f_branch2c
I0405 00:40:33.891088 16042 net.cpp:406] bn4f_branch2c <- res4f_branch2c
I0405 00:40:33.891093 16042 net.cpp:367] bn4f_branch2c -> res4f_branch2c (in-place)
I0405 00:40:33.891104 16042 net.cpp:122] Setting up bn4f_branch2c
I0405 00:40:33.891109 16042 net.cpp:129] Top shape: 1 1024 1 1 (1024)
I0405 00:40:33.891111 16042 net.cpp:137] Memory required for data: 435800
I0405 00:40:33.891125 16042 layer_factory.hpp:77] Creating layer scale4f_branch2c
I0405 00:40:33.891131 16042 net.cpp:84] Creating Layer scale4f_branch2c
I0405 00:40:33.891134 16042 net.cpp:406] scale4f_branch2c <- res4f_branch2c
I0405 00:40:33.891139 16042 net.cpp:367] scale4f_branch2c -> res4f_branch2c (in-place)
I0405 00:40:33.891145 16042 layer_factory.hpp:77] Creating layer scale4f_branch2c
I0405 00:40:33.891157 16042 net.cpp:122] Setting up scale4f_branch2c
I0405 00:40:33.891161 16042 net.cpp:129] Top shape: 1 1024 1 1 (1024)
I0405 00:40:33.891165 16042 net.cpp:137] Memory required for data: 439896
I0405 00:40:33.891168 16042 layer_factory.hpp:77] Creating layer res4f
I0405 00:40:33.891173 16042 net.cpp:84] Creating Layer res4f
I0405 00:40:33.891176 16042 net.cpp:406] res4f <- res4e_res4e_relu_0_split_1
I0405 00:40:33.891181 16042 net.cpp:406] res4f <- res4f_branch2c
I0405 00:40:33.891185 16042 net.cpp:380] res4f -> res4f
I0405 00:40:33.891191 16042 net.cpp:122] Setting up res4f
I0405 00:40:33.891196 16042 net.cpp:129] Top shape: 1 1024 1 1 (1024)
I0405 00:40:33.891198 16042 net.cpp:137] Memory required for data: 443992
I0405 00:40:33.891201 16042 layer_factory.hpp:77] Creating layer res4f_relu
I0405 00:40:33.891204 16042 net.cpp:84] Creating Layer res4f_relu
I0405 00:40:33.891207 16042 net.cpp:406] res4f_relu <- res4f
I0405 00:40:33.891211 16042 net.cpp:367] res4f_relu -> res4f (in-place)
I0405 00:40:33.891216 16042 net.cpp:122] Setting up res4f_relu
I0405 00:40:33.891219 16042 net.cpp:129] Top shape: 1 1024 1 1 (1024)
I0405 00:40:33.891222 16042 net.cpp:137] Memory required for data: 448088
I0405 00:40:33.891224 16042 layer_factory.hpp:77] Creating layer res4f_res4f_relu_0_split
I0405 00:40:33.891228 16042 net.cpp:84] Creating Layer res4f_res4f_relu_0_split
I0405 00:40:33.891230 16042 net.cpp:406] res4f_res4f_relu_0_split <- res4f
I0405 00:40:33.891234 16042 net.cpp:380] res4f_res4f_relu_0_split -> res4f_res4f_relu_0_split_0
I0405 00:40:33.891249 16042 net.cpp:380] res4f_res4f_relu_0_split -> res4f_res4f_relu_0_split_1
I0405 00:40:33.891257 16042 net.cpp:122] Setting up res4f_res4f_relu_0_split
I0405 00:40:33.891260 16042 net.cpp:129] Top shape: 1 1024 1 1 (1024)
I0405 00:40:33.891264 16042 net.cpp:129] Top shape: 1 1024 1 1 (1024)
I0405 00:40:33.891266 16042 net.cpp:137] Memory required for data: 456280
I0405 00:40:33.891269 16042 layer_factory.hpp:77] Creating layer res5a_branch1
I0405 00:40:33.891275 16042 net.cpp:84] Creating Layer res5a_branch1
I0405 00:40:33.891278 16042 net.cpp:406] res5a_branch1 <- res4f_res4f_relu_0_split_0
I0405 00:40:33.891283 16042 net.cpp:380] res5a_branch1 -> res5a_branch1
I0405 00:40:33.910616 16042 net.cpp:122] Setting up res5a_branch1
I0405 00:40:33.910655 16042 net.cpp:129] Top shape: 1 2048 1 1 (2048)
I0405 00:40:33.910660 16042 net.cpp:137] Memory required for data: 464472
I0405 00:40:33.910666 16042 layer_factory.hpp:77] Creating layer bn5a_branch1
I0405 00:40:33.910679 16042 net.cpp:84] Creating Layer bn5a_branch1
I0405 00:40:33.910686 16042 net.cpp:406] bn5a_branch1 <- res5a_branch1
I0405 00:40:33.910692 16042 net.cpp:367] bn5a_branch1 -> res5a_branch1 (in-place)
I0405 00:40:33.910715 16042 net.cpp:122] Setting up bn5a_branch1
I0405 00:40:33.910720 16042 net.cpp:129] Top shape: 1 2048 1 1 (2048)
I0405 00:40:33.910724 16042 net.cpp:137] Memory required for data: 472664
I0405 00:40:33.910729 16042 layer_factory.hpp:77] Creating layer scale5a_branch1
I0405 00:40:33.910740 16042 net.cpp:84] Creating Layer scale5a_branch1
I0405 00:40:33.910746 16042 net.cpp:406] scale5a_branch1 <- res5a_branch1
I0405 00:40:33.910751 16042 net.cpp:367] scale5a_branch1 -> res5a_branch1 (in-place)
I0405 00:40:33.910768 16042 layer_factory.hpp:77] Creating layer scale5a_branch1
I0405 00:40:33.910797 16042 net.cpp:122] Setting up scale5a_branch1
I0405 00:40:33.910804 16042 net.cpp:129] Top shape: 1 2048 1 1 (2048)
I0405 00:40:33.910806 16042 net.cpp:137] Memory required for data: 480856
I0405 00:40:33.910810 16042 layer_factory.hpp:77] Creating layer res5a_branch2a
I0405 00:40:33.910818 16042 net.cpp:84] Creating Layer res5a_branch2a
I0405 00:40:33.910822 16042 net.cpp:406] res5a_branch2a <- res4f_res4f_relu_0_split_1
I0405 00:40:33.910826 16042 net.cpp:380] res5a_branch2a -> res5a_branch2a
I0405 00:40:33.916575 16042 net.cpp:122] Setting up res5a_branch2a
I0405 00:40:33.916599 16042 net.cpp:129] Top shape: 1 512 1 1 (512)
I0405 00:40:33.916604 16042 net.cpp:137] Memory required for data: 482904
I0405 00:40:33.916610 16042 layer_factory.hpp:77] Creating layer bn5a_branch2a
I0405 00:40:33.916617 16042 net.cpp:84] Creating Layer bn5a_branch2a
I0405 00:40:33.916622 16042 net.cpp:406] bn5a_branch2a <- res5a_branch2a
I0405 00:40:33.916627 16042 net.cpp:367] bn5a_branch2a -> res5a_branch2a (in-place)
I0405 00:40:33.916645 16042 net.cpp:122] Setting up bn5a_branch2a
I0405 00:40:33.916648 16042 net.cpp:129] Top shape: 1 512 1 1 (512)
I0405 00:40:33.916651 16042 net.cpp:137] Memory required for data: 484952
I0405 00:40:33.916656 16042 layer_factory.hpp:77] Creating layer scale5a_branch2a
I0405 00:40:33.916664 16042 net.cpp:84] Creating Layer scale5a_branch2a
I0405 00:40:33.916668 16042 net.cpp:406] scale5a_branch2a <- res5a_branch2a
I0405 00:40:33.916673 16042 net.cpp:367] scale5a_branch2a -> res5a_branch2a (in-place)
I0405 00:40:33.916683 16042 layer_factory.hpp:77] Creating layer scale5a_branch2a
I0405 00:40:33.916697 16042 net.cpp:122] Setting up scale5a_branch2a
I0405 00:40:33.916702 16042 net.cpp:129] Top shape: 1 512 1 1 (512)
I0405 00:40:33.916705 16042 net.cpp:137] Memory required for data: 487000
I0405 00:40:33.916710 16042 layer_factory.hpp:77] Creating layer res5a_branch2a_relu
I0405 00:40:33.916716 16042 net.cpp:84] Creating Layer res5a_branch2a_relu
I0405 00:40:33.916719 16042 net.cpp:406] res5a_branch2a_relu <- res5a_branch2a
I0405 00:40:33.916723 16042 net.cpp:367] res5a_branch2a_relu -> res5a_branch2a (in-place)
I0405 00:40:33.916728 16042 net.cpp:122] Setting up res5a_branch2a_relu
I0405 00:40:33.916731 16042 net.cpp:129] Top shape: 1 512 1 1 (512)
I0405 00:40:33.916752 16042 net.cpp:137] Memory required for data: 489048
I0405 00:40:33.916755 16042 layer_factory.hpp:77] Creating layer res5a_branch2b
I0405 00:40:33.916762 16042 net.cpp:84] Creating Layer res5a_branch2b
I0405 00:40:33.916765 16042 net.cpp:406] res5a_branch2b <- res5a_branch2a
I0405 00:40:33.916772 16042 net.cpp:380] res5a_branch2b -> res5a_branch2b
I0405 00:40:33.939879 16042 net.cpp:122] Setting up res5a_branch2b
I0405 00:40:33.939939 16042 net.cpp:129] Top shape: 1 512 1 1 (512)
I0405 00:40:33.939944 16042 net.cpp:137] Memory required for data: 491096
I0405 00:40:33.939952 16042 layer_factory.hpp:77] Creating layer bn5a_branch2b
I0405 00:40:33.939977 16042 net.cpp:84] Creating Layer bn5a_branch2b
I0405 00:40:33.939985 16042 net.cpp:406] bn5a_branch2b <- res5a_branch2b
I0405 00:40:33.939994 16042 net.cpp:367] bn5a_branch2b -> res5a_branch2b (in-place)
I0405 00:40:33.940019 16042 net.cpp:122] Setting up bn5a_branch2b
I0405 00:40:33.940023 16042 net.cpp:129] Top shape: 1 512 1 1 (512)
I0405 00:40:33.940026 16042 net.cpp:137] Memory required for data: 493144
I0405 00:40:33.940035 16042 layer_factory.hpp:77] Creating layer scale5a_branch2b
I0405 00:40:33.940043 16042 net.cpp:84] Creating Layer scale5a_branch2b
I0405 00:40:33.940047 16042 net.cpp:406] scale5a_branch2b <- res5a_branch2b
I0405 00:40:33.940050 16042 net.cpp:367] scale5a_branch2b -> res5a_branch2b (in-place)
I0405 00:40:33.940064 16042 layer_factory.hpp:77] Creating layer scale5a_branch2b
I0405 00:40:33.940083 16042 net.cpp:122] Setting up scale5a_branch2b
I0405 00:40:33.940088 16042 net.cpp:129] Top shape: 1 512 1 1 (512)
I0405 00:40:33.940090 16042 net.cpp:137] Memory required for data: 495192
I0405 00:40:33.940095 16042 layer_factory.hpp:77] Creating layer res5a_branch2b_relu
I0405 00:40:33.940101 16042 net.cpp:84] Creating Layer res5a_branch2b_relu
I0405 00:40:33.940104 16042 net.cpp:406] res5a_branch2b_relu <- res5a_branch2b
I0405 00:40:33.940107 16042 net.cpp:367] res5a_branch2b_relu -> res5a_branch2b (in-place)
I0405 00:40:33.940112 16042 net.cpp:122] Setting up res5a_branch2b_relu
I0405 00:40:33.940115 16042 net.cpp:129] Top shape: 1 512 1 1 (512)
I0405 00:40:33.940119 16042 net.cpp:137] Memory required for data: 497240
I0405 00:40:33.940120 16042 layer_factory.hpp:77] Creating layer res5a_branch2c
I0405 00:40:33.940132 16042 net.cpp:84] Creating Layer res5a_branch2c
I0405 00:40:33.940136 16042 net.cpp:406] res5a_branch2c <- res5a_branch2b
I0405 00:40:33.940140 16042 net.cpp:380] res5a_branch2c -> res5a_branch2c
I0405 00:40:33.950975 16042 net.cpp:122] Setting up res5a_branch2c
I0405 00:40:33.950999 16042 net.cpp:129] Top shape: 1 2048 1 1 (2048)
I0405 00:40:33.951004 16042 net.cpp:137] Memory required for data: 505432
I0405 00:40:33.951009 16042 layer_factory.hpp:77] Creating layer bn5a_branch2c
I0405 00:40:33.951023 16042 net.cpp:84] Creating Layer bn5a_branch2c
I0405 00:40:33.951030 16042 net.cpp:406] bn5a_branch2c <- res5a_branch2c
I0405 00:40:33.951035 16042 net.cpp:367] bn5a_branch2c -> res5a_branch2c (in-place)
I0405 00:40:33.951051 16042 net.cpp:122] Setting up bn5a_branch2c
I0405 00:40:33.951056 16042 net.cpp:129] Top shape: 1 2048 1 1 (2048)
I0405 00:40:33.951059 16042 net.cpp:137] Memory required for data: 513624
I0405 00:40:33.951064 16042 layer_factory.hpp:77] Creating layer scale5a_branch2c
I0405 00:40:33.951069 16042 net.cpp:84] Creating Layer scale5a_branch2c
I0405 00:40:33.951073 16042 net.cpp:406] scale5a_branch2c <- res5a_branch2c
I0405 00:40:33.951078 16042 net.cpp:367] scale5a_branch2c -> res5a_branch2c (in-place)
I0405 00:40:33.951088 16042 layer_factory.hpp:77] Creating layer scale5a_branch2c
I0405 00:40:33.951105 16042 net.cpp:122] Setting up scale5a_branch2c
I0405 00:40:33.951110 16042 net.cpp:129] Top shape: 1 2048 1 1 (2048)
I0405 00:40:33.951113 16042 net.cpp:137] Memory required for data: 521816
I0405 00:40:33.951117 16042 layer_factory.hpp:77] Creating layer res5a
I0405 00:40:33.951123 16042 net.cpp:84] Creating Layer res5a
I0405 00:40:33.951126 16042 net.cpp:406] res5a <- res5a_branch1
I0405 00:40:33.951146 16042 net.cpp:406] res5a <- res5a_branch2c
I0405 00:40:33.951151 16042 net.cpp:380] res5a -> res5a
I0405 00:40:33.951158 16042 net.cpp:122] Setting up res5a
I0405 00:40:33.951162 16042 net.cpp:129] Top shape: 1 2048 1 1 (2048)
I0405 00:40:33.951165 16042 net.cpp:137] Memory required for data: 530008
I0405 00:40:33.951169 16042 layer_factory.hpp:77] Creating layer res5a_relu
I0405 00:40:33.951175 16042 net.cpp:84] Creating Layer res5a_relu
I0405 00:40:33.951179 16042 net.cpp:406] res5a_relu <- res5a
I0405 00:40:33.951184 16042 net.cpp:367] res5a_relu -> res5a (in-place)
I0405 00:40:33.951189 16042 net.cpp:122] Setting up res5a_relu
I0405 00:40:33.951191 16042 net.cpp:129] Top shape: 1 2048 1 1 (2048)
I0405 00:40:33.951195 16042 net.cpp:137] Memory required for data: 538200
I0405 00:40:33.951197 16042 layer_factory.hpp:77] Creating layer res5a_res5a_relu_0_split
I0405 00:40:33.951201 16042 net.cpp:84] Creating Layer res5a_res5a_relu_0_split
I0405 00:40:33.951205 16042 net.cpp:406] res5a_res5a_relu_0_split <- res5a
I0405 00:40:33.951232 16042 net.cpp:380] res5a_res5a_relu_0_split -> res5a_res5a_relu_0_split_0
I0405 00:40:33.951239 16042 net.cpp:380] res5a_res5a_relu_0_split -> res5a_res5a_relu_0_split_1
I0405 00:40:33.951246 16042 net.cpp:122] Setting up res5a_res5a_relu_0_split
I0405 00:40:33.951249 16042 net.cpp:129] Top shape: 1 2048 1 1 (2048)
I0405 00:40:33.951252 16042 net.cpp:129] Top shape: 1 2048 1 1 (2048)
I0405 00:40:33.951256 16042 net.cpp:137] Memory required for data: 554584
I0405 00:40:33.951258 16042 layer_factory.hpp:77] Creating layer res5b_branch2a
I0405 00:40:33.951264 16042 net.cpp:84] Creating Layer res5b_branch2a
I0405 00:40:33.951267 16042 net.cpp:406] res5b_branch2a <- res5a_res5a_relu_0_split_0
I0405 00:40:33.951272 16042 net.cpp:380] res5b_branch2a -> res5b_branch2a
I0405 00:40:33.960970 16042 net.cpp:122] Setting up res5b_branch2a
I0405 00:40:33.960989 16042 net.cpp:129] Top shape: 1 512 1 1 (512)
I0405 00:40:33.960992 16042 net.cpp:137] Memory required for data: 556632
I0405 00:40:33.960997 16042 layer_factory.hpp:77] Creating layer bn5b_branch2a
I0405 00:40:33.961005 16042 net.cpp:84] Creating Layer bn5b_branch2a
I0405 00:40:33.961010 16042 net.cpp:406] bn5b_branch2a <- res5b_branch2a
I0405 00:40:33.961017 16042 net.cpp:367] bn5b_branch2a -> res5b_branch2a (in-place)
I0405 00:40:33.961033 16042 net.cpp:122] Setting up bn5b_branch2a
I0405 00:40:33.961037 16042 net.cpp:129] Top shape: 1 512 1 1 (512)
I0405 00:40:33.961040 16042 net.cpp:137] Memory required for data: 558680
I0405 00:40:33.961045 16042 layer_factory.hpp:77] Creating layer scale5b_branch2a
I0405 00:40:33.961050 16042 net.cpp:84] Creating Layer scale5b_branch2a
I0405 00:40:33.961053 16042 net.cpp:406] scale5b_branch2a <- res5b_branch2a
I0405 00:40:33.961058 16042 net.cpp:367] scale5b_branch2a -> res5b_branch2a (in-place)
I0405 00:40:33.961067 16042 layer_factory.hpp:77] Creating layer scale5b_branch2a
I0405 00:40:33.961079 16042 net.cpp:122] Setting up scale5b_branch2a
I0405 00:40:33.961086 16042 net.cpp:129] Top shape: 1 512 1 1 (512)
I0405 00:40:33.961087 16042 net.cpp:137] Memory required for data: 560728
I0405 00:40:33.961091 16042 layer_factory.hpp:77] Creating layer res5b_branch2a_relu
I0405 00:40:33.961097 16042 net.cpp:84] Creating Layer res5b_branch2a_relu
I0405 00:40:33.961099 16042 net.cpp:406] res5b_branch2a_relu <- res5b_branch2a
I0405 00:40:33.961102 16042 net.cpp:367] res5b_branch2a_relu -> res5b_branch2a (in-place)
I0405 00:40:33.961107 16042 net.cpp:122] Setting up res5b_branch2a_relu
I0405 00:40:33.961109 16042 net.cpp:129] Top shape: 1 512 1 1 (512)
I0405 00:40:33.961112 16042 net.cpp:137] Memory required for data: 562776
I0405 00:40:33.961114 16042 layer_factory.hpp:77] Creating layer res5b_branch2b
I0405 00:40:33.961120 16042 net.cpp:84] Creating Layer res5b_branch2b
I0405 00:40:33.961124 16042 net.cpp:406] res5b_branch2b <- res5b_branch2a
I0405 00:40:33.961128 16042 net.cpp:380] res5b_branch2b -> res5b_branch2b
I0405 00:40:33.985059 16042 net.cpp:122] Setting up res5b_branch2b
I0405 00:40:33.985103 16042 net.cpp:129] Top shape: 1 512 1 1 (512)
I0405 00:40:33.985107 16042 net.cpp:137] Memory required for data: 564824
I0405 00:40:33.985113 16042 layer_factory.hpp:77] Creating layer bn5b_branch2b
I0405 00:40:33.985124 16042 net.cpp:84] Creating Layer bn5b_branch2b
I0405 00:40:33.985129 16042 net.cpp:406] bn5b_branch2b <- res5b_branch2b
I0405 00:40:33.985136 16042 net.cpp:367] bn5b_branch2b -> res5b_branch2b (in-place)
I0405 00:40:33.985148 16042 net.cpp:122] Setting up bn5b_branch2b
I0405 00:40:33.985153 16042 net.cpp:129] Top shape: 1 512 1 1 (512)
I0405 00:40:33.985155 16042 net.cpp:137] Memory required for data: 566872
I0405 00:40:33.985162 16042 layer_factory.hpp:77] Creating layer scale5b_branch2b
I0405 00:40:33.985167 16042 net.cpp:84] Creating Layer scale5b_branch2b
I0405 00:40:33.985170 16042 net.cpp:406] scale5b_branch2b <- res5b_branch2b
I0405 00:40:33.985174 16042 net.cpp:367] scale5b_branch2b -> res5b_branch2b (in-place)
I0405 00:40:33.985184 16042 layer_factory.hpp:77] Creating layer scale5b_branch2b
I0405 00:40:33.985198 16042 net.cpp:122] Setting up scale5b_branch2b
I0405 00:40:33.985203 16042 net.cpp:129] Top shape: 1 512 1 1 (512)
I0405 00:40:33.985205 16042 net.cpp:137] Memory required for data: 568920
I0405 00:40:33.985209 16042 layer_factory.hpp:77] Creating layer res5b_branch2b_relu
I0405 00:40:33.985214 16042 net.cpp:84] Creating Layer res5b_branch2b_relu
I0405 00:40:33.985218 16042 net.cpp:406] res5b_branch2b_relu <- res5b_branch2b
I0405 00:40:33.985224 16042 net.cpp:367] res5b_branch2b_relu -> res5b_branch2b (in-place)
I0405 00:40:33.985229 16042 net.cpp:122] Setting up res5b_branch2b_relu
I0405 00:40:33.985232 16042 net.cpp:129] Top shape: 1 512 1 1 (512)
I0405 00:40:33.985235 16042 net.cpp:137] Memory required for data: 570968
I0405 00:40:33.985239 16042 layer_factory.hpp:77] Creating layer res5b_branch2c
I0405 00:40:33.985244 16042 net.cpp:84] Creating Layer res5b_branch2c
I0405 00:40:33.985247 16042 net.cpp:406] res5b_branch2c <- res5b_branch2b
I0405 00:40:33.985252 16042 net.cpp:380] res5b_branch2c -> res5b_branch2c
I0405 00:40:33.995465 16042 net.cpp:122] Setting up res5b_branch2c
I0405 00:40:33.995481 16042 net.cpp:129] Top shape: 1 2048 1 1 (2048)
I0405 00:40:33.995484 16042 net.cpp:137] Memory required for data: 579160
I0405 00:40:33.995489 16042 layer_factory.hpp:77] Creating layer bn5b_branch2c
I0405 00:40:33.995496 16042 net.cpp:84] Creating Layer bn5b_branch2c
I0405 00:40:33.995499 16042 net.cpp:406] bn5b_branch2c <- res5b_branch2c
I0405 00:40:33.995504 16042 net.cpp:367] bn5b_branch2c -> res5b_branch2c (in-place)
I0405 00:40:33.995517 16042 net.cpp:122] Setting up bn5b_branch2c
I0405 00:40:33.995522 16042 net.cpp:129] Top shape: 1 2048 1 1 (2048)
I0405 00:40:33.995524 16042 net.cpp:137] Memory required for data: 587352
I0405 00:40:33.995529 16042 layer_factory.hpp:77] Creating layer scale5b_branch2c
I0405 00:40:33.995535 16042 net.cpp:84] Creating Layer scale5b_branch2c
I0405 00:40:33.995538 16042 net.cpp:406] scale5b_branch2c <- res5b_branch2c
I0405 00:40:33.995543 16042 net.cpp:367] scale5b_branch2c -> res5b_branch2c (in-place)
I0405 00:40:33.995551 16042 layer_factory.hpp:77] Creating layer scale5b_branch2c
I0405 00:40:33.995568 16042 net.cpp:122] Setting up scale5b_branch2c
I0405 00:40:33.995573 16042 net.cpp:129] Top shape: 1 2048 1 1 (2048)
I0405 00:40:33.995575 16042 net.cpp:137] Memory required for data: 595544
I0405 00:40:33.995579 16042 layer_factory.hpp:77] Creating layer res5b
I0405 00:40:33.995584 16042 net.cpp:84] Creating Layer res5b
I0405 00:40:33.995587 16042 net.cpp:406] res5b <- res5a_res5a_relu_0_split_1
I0405 00:40:33.995591 16042 net.cpp:406] res5b <- res5b_branch2c
I0405 00:40:33.995597 16042 net.cpp:380] res5b -> res5b
I0405 00:40:33.995605 16042 net.cpp:122] Setting up res5b
I0405 00:40:33.995610 16042 net.cpp:129] Top shape: 1 2048 1 1 (2048)
I0405 00:40:33.995613 16042 net.cpp:137] Memory required for data: 603736
I0405 00:40:33.995616 16042 layer_factory.hpp:77] Creating layer res5b_relu
I0405 00:40:33.995620 16042 net.cpp:84] Creating Layer res5b_relu
I0405 00:40:33.995636 16042 net.cpp:406] res5b_relu <- res5b
I0405 00:40:33.995641 16042 net.cpp:367] res5b_relu -> res5b (in-place)
I0405 00:40:33.995645 16042 net.cpp:122] Setting up res5b_relu
I0405 00:40:33.995651 16042 net.cpp:129] Top shape: 1 2048 1 1 (2048)
I0405 00:40:33.995653 16042 net.cpp:137] Memory required for data: 611928
I0405 00:40:33.995656 16042 layer_factory.hpp:77] Creating layer res5b_res5b_relu_0_split
I0405 00:40:33.995661 16042 net.cpp:84] Creating Layer res5b_res5b_relu_0_split
I0405 00:40:33.995666 16042 net.cpp:406] res5b_res5b_relu_0_split <- res5b
I0405 00:40:33.995669 16042 net.cpp:380] res5b_res5b_relu_0_split -> res5b_res5b_relu_0_split_0
I0405 00:40:33.995673 16042 net.cpp:380] res5b_res5b_relu_0_split -> res5b_res5b_relu_0_split_1
I0405 00:40:33.995681 16042 net.cpp:122] Setting up res5b_res5b_relu_0_split
I0405 00:40:33.995684 16042 net.cpp:129] Top shape: 1 2048 1 1 (2048)
I0405 00:40:33.995687 16042 net.cpp:129] Top shape: 1 2048 1 1 (2048)
I0405 00:40:33.995690 16042 net.cpp:137] Memory required for data: 628312
I0405 00:40:33.995693 16042 layer_factory.hpp:77] Creating layer res5c_branch2a
I0405 00:40:33.995700 16042 net.cpp:84] Creating Layer res5c_branch2a
I0405 00:40:33.995705 16042 net.cpp:406] res5c_branch2a <- res5b_res5b_relu_0_split_0
I0405 00:40:33.995709 16042 net.cpp:380] res5c_branch2a -> res5c_branch2a
I0405 00:40:34.005816 16042 net.cpp:122] Setting up res5c_branch2a
I0405 00:40:34.005842 16042 net.cpp:129] Top shape: 1 512 1 1 (512)
I0405 00:40:34.005846 16042 net.cpp:137] Memory required for data: 630360
I0405 00:40:34.005851 16042 layer_factory.hpp:77] Creating layer bn5c_branch2a
I0405 00:40:34.005861 16042 net.cpp:84] Creating Layer bn5c_branch2a
I0405 00:40:34.005865 16042 net.cpp:406] bn5c_branch2a <- res5c_branch2a
I0405 00:40:34.005872 16042 net.cpp:367] bn5c_branch2a -> res5c_branch2a (in-place)
I0405 00:40:34.005887 16042 net.cpp:122] Setting up bn5c_branch2a
I0405 00:40:34.005890 16042 net.cpp:129] Top shape: 1 512 1 1 (512)
I0405 00:40:34.005893 16042 net.cpp:137] Memory required for data: 632408
I0405 00:40:34.005898 16042 layer_factory.hpp:77] Creating layer scale5c_branch2a
I0405 00:40:34.005908 16042 net.cpp:84] Creating Layer scale5c_branch2a
I0405 00:40:34.005913 16042 net.cpp:406] scale5c_branch2a <- res5c_branch2a
I0405 00:40:34.005916 16042 net.cpp:367] scale5c_branch2a -> res5c_branch2a (in-place)
I0405 00:40:34.005926 16042 layer_factory.hpp:77] Creating layer scale5c_branch2a
I0405 00:40:34.005939 16042 net.cpp:122] Setting up scale5c_branch2a
I0405 00:40:34.005944 16042 net.cpp:129] Top shape: 1 512 1 1 (512)
I0405 00:40:34.005946 16042 net.cpp:137] Memory required for data: 634456
I0405 00:40:34.005950 16042 layer_factory.hpp:77] Creating layer res5c_branch2a_relu
I0405 00:40:34.005954 16042 net.cpp:84] Creating Layer res5c_branch2a_relu
I0405 00:40:34.005957 16042 net.cpp:406] res5c_branch2a_relu <- res5c_branch2a
I0405 00:40:34.005960 16042 net.cpp:367] res5c_branch2a_relu -> res5c_branch2a (in-place)
I0405 00:40:34.005964 16042 net.cpp:122] Setting up res5c_branch2a_relu
I0405 00:40:34.005969 16042 net.cpp:129] Top shape: 1 512 1 1 (512)
I0405 00:40:34.005970 16042 net.cpp:137] Memory required for data: 636504
I0405 00:40:34.005973 16042 layer_factory.hpp:77] Creating layer res5c_branch2b
I0405 00:40:34.005985 16042 net.cpp:84] Creating Layer res5c_branch2b
I0405 00:40:34.005988 16042 net.cpp:406] res5c_branch2b <- res5c_branch2a
I0405 00:40:34.005993 16042 net.cpp:380] res5c_branch2b -> res5c_branch2b
I0405 00:40:34.030426 16042 net.cpp:122] Setting up res5c_branch2b
I0405 00:40:34.030457 16042 net.cpp:129] Top shape: 1 512 1 1 (512)
I0405 00:40:34.030462 16042 net.cpp:137] Memory required for data: 638552
I0405 00:40:34.030468 16042 layer_factory.hpp:77] Creating layer bn5c_branch2b
I0405 00:40:34.030480 16042 net.cpp:84] Creating Layer bn5c_branch2b
I0405 00:40:34.030486 16042 net.cpp:406] bn5c_branch2b <- res5c_branch2b
I0405 00:40:34.030494 16042 net.cpp:367] bn5c_branch2b -> res5c_branch2b (in-place)
I0405 00:40:34.030519 16042 net.cpp:122] Setting up bn5c_branch2b
I0405 00:40:34.030556 16042 net.cpp:129] Top shape: 1 512 1 1 (512)
I0405 00:40:34.030561 16042 net.cpp:137] Memory required for data: 640600
I0405 00:40:34.030568 16042 layer_factory.hpp:77] Creating layer scale5c_branch2b
I0405 00:40:34.030578 16042 net.cpp:84] Creating Layer scale5c_branch2b
I0405 00:40:34.030583 16042 net.cpp:406] scale5c_branch2b <- res5c_branch2b
I0405 00:40:34.030591 16042 net.cpp:367] scale5c_branch2b -> res5c_branch2b (in-place)
I0405 00:40:34.030604 16042 layer_factory.hpp:77] Creating layer scale5c_branch2b
I0405 00:40:34.030624 16042 net.cpp:122] Setting up scale5c_branch2b
I0405 00:40:34.030633 16042 net.cpp:129] Top shape: 1 512 1 1 (512)
I0405 00:40:34.030637 16042 net.cpp:137] Memory required for data: 642648
I0405 00:40:34.030643 16042 layer_factory.hpp:77] Creating layer res5c_branch2b_relu
I0405 00:40:34.030653 16042 net.cpp:84] Creating Layer res5c_branch2b_relu
I0405 00:40:34.030659 16042 net.cpp:406] res5c_branch2b_relu <- res5c_branch2b
I0405 00:40:34.030665 16042 net.cpp:367] res5c_branch2b_relu -> res5c_branch2b (in-place)
I0405 00:40:34.030671 16042 net.cpp:122] Setting up res5c_branch2b_relu
I0405 00:40:34.030678 16042 net.cpp:129] Top shape: 1 512 1 1 (512)
I0405 00:40:34.030681 16042 net.cpp:137] Memory required for data: 644696
I0405 00:40:34.030685 16042 layer_factory.hpp:77] Creating layer res5c_branch2c
I0405 00:40:34.030695 16042 net.cpp:84] Creating Layer res5c_branch2c
I0405 00:40:34.030705 16042 net.cpp:406] res5c_branch2c <- res5c_branch2b
I0405 00:40:34.030712 16042 net.cpp:380] res5c_branch2c -> res5c_branch2c
I0405 00:40:34.041240 16042 net.cpp:122] Setting up res5c_branch2c
I0405 00:40:34.041265 16042 net.cpp:129] Top shape: 1 2048 1 1 (2048)
I0405 00:40:34.041268 16042 net.cpp:137] Memory required for data: 652888
I0405 00:40:34.041275 16042 layer_factory.hpp:77] Creating layer bn5c_branch2c
I0405 00:40:34.041282 16042 net.cpp:84] Creating Layer bn5c_branch2c
I0405 00:40:34.041287 16042 net.cpp:406] bn5c_branch2c <- res5c_branch2c
I0405 00:40:34.041294 16042 net.cpp:367] bn5c_branch2c -> res5c_branch2c (in-place)
I0405 00:40:34.041311 16042 net.cpp:122] Setting up bn5c_branch2c
I0405 00:40:34.041314 16042 net.cpp:129] Top shape: 1 2048 1 1 (2048)
I0405 00:40:34.041317 16042 net.cpp:137] Memory required for data: 661080
I0405 00:40:34.041322 16042 layer_factory.hpp:77] Creating layer scale5c_branch2c
I0405 00:40:34.041328 16042 net.cpp:84] Creating Layer scale5c_branch2c
I0405 00:40:34.041334 16042 net.cpp:406] scale5c_branch2c <- res5c_branch2c
I0405 00:40:34.041338 16042 net.cpp:367] scale5c_branch2c -> res5c_branch2c (in-place)
I0405 00:40:34.041349 16042 layer_factory.hpp:77] Creating layer scale5c_branch2c
I0405 00:40:34.041364 16042 net.cpp:122] Setting up scale5c_branch2c
I0405 00:40:34.041370 16042 net.cpp:129] Top shape: 1 2048 1 1 (2048)
I0405 00:40:34.041373 16042 net.cpp:137] Memory required for data: 669272
I0405 00:40:34.041378 16042 layer_factory.hpp:77] Creating layer res5c
I0405 00:40:34.041388 16042 net.cpp:84] Creating Layer res5c
I0405 00:40:34.041393 16042 net.cpp:406] res5c <- res5b_res5b_relu_0_split_1
I0405 00:40:34.041395 16042 net.cpp:406] res5c <- res5c_branch2c
I0405 00:40:34.041400 16042 net.cpp:380] res5c -> res5c
I0405 00:40:34.041406 16042 net.cpp:122] Setting up res5c
I0405 00:40:34.041410 16042 net.cpp:129] Top shape: 1 2048 1 1 (2048)
I0405 00:40:34.041414 16042 net.cpp:137] Memory required for data: 677464
I0405 00:40:34.041416 16042 layer_factory.hpp:77] Creating layer res5c_relu
I0405 00:40:34.041420 16042 net.cpp:84] Creating Layer res5c_relu
I0405 00:40:34.041424 16042 net.cpp:406] res5c_relu <- res5c
I0405 00:40:34.041429 16042 net.cpp:367] res5c_relu -> res5c (in-place)
I0405 00:40:34.041434 16042 net.cpp:122] Setting up res5c_relu
I0405 00:40:34.041437 16042 net.cpp:129] Top shape: 1 2048 1 1 (2048)
I0405 00:40:34.041440 16042 net.cpp:137] Memory required for data: 685656
I0405 00:40:34.041443 16042 layer_factory.hpp:77] Creating layer pool5
I0405 00:40:34.041447 16042 net.cpp:84] Creating Layer pool5
I0405 00:40:34.041467 16042 net.cpp:406] pool5 <- res5c
I0405 00:40:34.041473 16042 net.cpp:380] pool5 -> pool5
I0405 00:40:34.041479 16042 net.cpp:122] Setting up pool5
I0405 00:40:34.041483 16042 net.cpp:129] Top shape: 1 2048 1 1 (2048)
I0405 00:40:34.041486 16042 net.cpp:137] Memory required for data: 693848
I0405 00:40:34.041488 16042 layer_factory.hpp:77] Creating layer fc2
I0405 00:40:34.041494 16042 net.cpp:84] Creating Layer fc2
I0405 00:40:34.041497 16042 net.cpp:406] fc2 <- pool5
I0405 00:40:34.041503 16042 net.cpp:380] fc2 -> fc2
I0405 00:40:34.041539 16042 net.cpp:122] Setting up fc2
I0405 00:40:34.041544 16042 net.cpp:129] Top shape: 1 2 (2)
I0405 00:40:34.041548 16042 net.cpp:137] Memory required for data: 693856
I0405 00:40:34.041551 16042 layer_factory.hpp:77] Creating layer fc2_fc2_0_split
I0405 00:40:34.041558 16042 net.cpp:84] Creating Layer fc2_fc2_0_split
I0405 00:40:34.041560 16042 net.cpp:406] fc2_fc2_0_split <- fc2
I0405 00:40:34.041564 16042 net.cpp:380] fc2_fc2_0_split -> fc2_fc2_0_split_0
I0405 00:40:34.041569 16042 net.cpp:380] fc2_fc2_0_split -> fc2_fc2_0_split_1
I0405 00:40:34.041577 16042 net.cpp:122] Setting up fc2_fc2_0_split
I0405 00:40:34.041581 16042 net.cpp:129] Top shape: 1 2 (2)
I0405 00:40:34.041584 16042 net.cpp:129] Top shape: 1 2 (2)
I0405 00:40:34.041587 16042 net.cpp:137] Memory required for data: 693872
I0405 00:40:34.041589 16042 layer_factory.hpp:77] Creating layer loss
I0405 00:40:34.041594 16042 net.cpp:84] Creating Layer loss
I0405 00:40:34.041597 16042 net.cpp:406] loss <- fc2_fc2_0_split_0
I0405 00:40:34.041600 16042 net.cpp:406] loss <- label_L4G_IDS_4_1_split_0
I0405 00:40:34.041605 16042 net.cpp:380] loss -> loss
…
