…
I0316 15:25:44.257710 30454 net.cpp:294] The NetState phase (0) differed from the phase (1) specified by a rule in layer L4G_IDS_4
I0316 15:25:44.257779 30454 net.cpp:294] The NetState phase (0) differed from the phase (1) specified by a rule in layer accuracy
I0316 15:25:44.258496 30454 net.cpp:51] Initializing net from parameters: 
name: "ResNet-50"
state {
  phase: TRAIN
}
layer {
  name: "L4G_IDS_4"
  type: "ImageData"
  top: "data"
  top: "label"
  include {
    phase: TRAIN
  }
  transform_param {
    mirror: true
    crop_size: 7
  }
  image_data_param {
    source: "Train.txt"
    batch_size: 64
  }
}
layer {
  name: "conv1"
  type: "Convolution"
  bottom: "data"
  top: "conv1"
  convolution_param {
    num_output: 64
    bias_term: true
    pad: 3
    kernel_size: 7
    stride: 2
    weight_filler {
      type: "msra"
    }
  }
}
layer {
  name: "bn_conv1"
  type: "BatchNorm"
  bottom: "conv1"
  top: "conv1"
  batch_norm_param {
    use_global_stats: false
  }
}
layer {
  name: "scale_conv1"
  type: "Scale"
  bottom: "conv1"
  top: "conv1"
  scale_param {
    bias_term: true
  }
}
layer {
  name: "conv1_relu"
  type: "ReLU"
  bottom: "conv1"
  top: "conv1"
}
layer {
  name: "pool1"
  type: "Pooling"
  bottom: "conv1"
  top: "pool1"
  pooling_param {
    pool: MAX
    kernel_size: 3
    stride: 2
  }
}
layer {
  name: "res2a_branch1"
  type: "Convolution"
  bottom: "pool1"
  top: "res2a_branch1"
  convolution_param {
    num_output: 256
    bias_term: false
    pad: 0
    kernel_size: 1
    stride: 1
    weight_filler {
      type: "msra"
    }
  }
}
layer {
  name: "bn2a_branch1"
  type: "BatchNorm"
  bottom: "res2a_branch1"
  top: "res2a_branch1"
  batch_norm_param {
    use_global_stats: false
  }
}
layer {
  name: "scale2a_branch1"
  type: "Scale"
  bottom: "res2a_branch1"
  top: "res2a_branch1"
  scale_param {
    bias_term: true
  }
}
layer {
  name: "res2a_branch2a"
  type: "Convolution"
  bottom: "pool1"
  top: "res2a_branch2a"
  convolution_param {
    num_output: 64
    bias_term: false
    pad: 0
    kernel_size: 1
    stride: 1
    weight_filler {
      type: "msra"
    }
  }
}
layer {
  name: "bn2a_branch2a"
  type: "BatchNorm"
  bottom: "res2a_branch2a"
  top: "res2a_branch2a"
  batch_norm_param {
    use_global_stats: false
  }
}
layer {
  name: "scale2a_branch2a"
  type: "Scale"
  bottom: "res2a_branch2a"
  top: "res2a_branch2a"
  scale_param {
    bias_term: true
  }
}
layer {
  name: "res2a_branch2a_relu"
  type: "ReLU"
  bottom: "res2a_branch2a"
  top: "res2a_branch2a"
}
layer {
  name: "res2a_branch2b"
  type: "Convolution"
  bottom: "res2a_branch2a"
  top: "res2a_branch2b"
  convolution_param {
    num_output: 64
    bias_term: false
    pad: 1
    kernel_size: 3
    stride: 1
    weight_filler {
      type: "msra"
    }
  }
}
layer {
  name: "bn2a_branch2b"
  type: "BatchNorm"
  bottom: "res2a_branch2b"
  top: "res2a_branch2b"
  batch_norm_param {
    use_global_stats: false
  }
}
layer {
  name: "scale2a_branch2b"
  type: "Scale"
  bottom: "res2a_branch2b"
  top: "res2a_branch2b"
  scale_param {
    bias_term: true
  }
}
layer {
  name: "res2a_branch2b_relu"
  type: "ReLU"
  bottom: "res2a_branch2b"
  top: "res2a_branch2b"
}
layer {
  name: "res2a_branch2c"
  type: "Convolution"
  bottom: "res2a_branch2b"
  top: "res2a_branch2c"
  convolution_param {
    num_output: 256
    bias_term: false
    pad: 0
    kernel_size: 1
    stride: 1
    weight_filler {
      type: "msra"
    }
  }
}
layer {
  name: "bn2a_branch2c"
  type: "BatchNorm"
  bottom: "res2a_branch2c"
  top: "res2a_branch2c"
  batch_norm_param {
    use_global_stats: false
  }
}
layer {
  name: "scale2a_branch2c"
  type: "Scale"
  bottom: "res2a_branch2c"
  top: "res2a_branch2c"
  scale_param {
    bias_term: true
  }
}
layer {
  name: "res2a"
  type: "Eltwise"
  bottom: "res2a_branch1"
  bottom: "res2a_branch2c"
  top: "res2a"
  eltwise_param {
    operation: SUM
  }
}
layer {
  name: "res2a_relu"
  type: "ReLU"
  bottom: "res2a"
  top: "res2a"
}
layer {
  name: "res2b_branch2a"
  type: "Convolution"
  bottom: "res2a"
  top: "res2b_branch2a"
  convolution_param {
    num_output: 64
    bias_term: false
    pad: 0
    kernel_size: 1
    stride: 1
    weight_filler {
      type: "msra"
    }
  }
}
layer {
  name: "bn2b_branch2a"
  type: "BatchNorm"
  bottom: "res2b_branch2a"
  top: "res2b_branch2a"
  batch_norm_param {
    use_global_stats: false
  }
}
layer {
  name: "scale2b_branch2a"
  type: "Scale"
  bottom: "res2b_branch2a"
  top: "res2b_branch2a"
  scale_param {
    bias_term: true
  }
}
layer {
  name: "res2b_branch2a_relu"
  type: "ReLU"
  bottom: "res2b_branch2a"
  top: "res2b_branch2a"
}
layer {
  name: "res2b_branch2b"
  type: "Convolution"
  bottom: "res2b_branch2a"
  top: "res2b_branch2b"
  convolution_param {
    num_output: 64
    bias_term: false
    pad: 1
    kernel_size: 3
    stride: 1
    weight_filler {
      type: "msra"
    }
  }
}
layer {
  name: "bn2b_branch2b"
  type: "BatchNorm"
  bottom: "res2b_branch2b"
  top: "res2b_branch2b"
  batch_norm_param {
    use_global_stats: false
  }
}
layer {
  name: "scale2b_branch2b"
  type: "Scale"
  bottom: "res2b_branch2b"
  top: "res2b_branch2b"
  scale_param {
    bias_term: true
  }
}
layer {
  name: "res2b_branch2b_relu"
  type: "ReLU"
  bottom: "res2b_branch2b"
  top: "res2b_branch2b"
}
layer {
  name: "res2b_branch2c"
  type: "Convolution"
  bottom: "res2b_branch2b"
  top: "res2b_branch2c"
  convolution_param {
    num_output: 256
    bias_term: false
    pad: 0
    kernel_size: 1
    stride: 1
    weight_filler {
      type: "msra"
    }
  }
}
layer {
  name: "bn2b_branch2c"
  type: "BatchNorm"
  bottom: "res2b_branch2c"
  top: "res2b_branch2c"
  batch_norm_param {
    use_global_stats: false
  }
}
layer {
  name: "scale2b_branch2c"
  type: "Scale"
  bottom: "res2b_branch2c"
  top: "res2b_branch2c"
  scale_param {
    bias_term: true
  }
}
layer {
  name: "res2b"
  type: "Eltwise"
  bottom: "res2a"
  bottom: "res2b_branch2c"
  top: "res2b"
  eltwise_param {
    operation: SUM
  }
}
layer {
  name: "res2b_relu"
  type: "ReLU"
  bottom: "res2b"
  top: "res2b"
}
layer {
  name: "res2c_branch2a"
  type: "Convolution"
  bottom: "res2b"
  top: "res2c_branch2a"
  convolution_param {
    num_output: 64
    bias_term: false
    pad: 0
    kernel_size: 1
    stride: 1
    weight_filler {
      type: "msra"
    }
  }
}
layer {
  name: "bn2c_branch2a"
  type: "BatchNorm"
  bottom: "res2c_branch2a"
  top: "res2c_branch2a"
  batch_norm_param {
    use_global_stats: false
  }
}
layer {
  name: "scale2c_branch2a"
  type: "Scale"
  bottom: "res2c_branch2a"
  top: "res2c_branch2a"
  scale_param {
    bias_term: true
  }
}
layer {
  name: "res2c_branch2a_relu"
  type: "ReLU"
  bottom: "res2c_branch2a"
  top: "res2c_branch2a"
}
layer {
  name: "res2c_branch2b"
  type: "Convolution"
  bottom: "res2c_branch2a"
  top: "res2c_branch2b"
  convolution_param {
    num_output: 64
    bias_term: false
    pad: 1
    kernel_size: 3
    stride: 1
    weight_filler {
      type: "msra"
    }
  }
}
layer {
  name: "bn2c_branch2b"
  type: "BatchNorm"
  bottom: "res2c_branch2b"
  top: "res2c_branch2b"
  batch_norm_param {
    use_global_stats: false
  }
}
layer {
  name: "scale2c_branch2b"
  type: "Scale"
  bottom: "res2c_branch2b"
  top: "res2c_branch2b"
  scale_param {
    bias_term: true
  }
}
layer {
  name: "res2c_branch2b_relu"
  type: "ReLU"
  bottom: "res2c_branch2b"
  top: "res2c_branch2b"
}
layer {
  name: "res2c_branch2c"
  type: "Convolution"
  bottom: "res2c_branch2b"
  top: "res2c_branch2c"
  convolution_param {
    num_output: 256
    bias_term: false
    pad: 0
    kernel_size: 1
    stride: 1
    weight_filler {
      type: "msra"
    }
  }
}
layer {
  name: "bn2c_branch2c"
  type: "BatchNorm"
  bottom: "res2c_branch2c"
  top: "res2c_branch2c"
  batch_norm_param {
    use_global_stats: false
  }
}
layer {
  name: "scale2c_branch2c"
  type: "Scale"
  bottom: "res2c_branch2c"
  top: "res2c_branch2c"
  scale_param {
    bias_term: true
  }
}
layer {
  name: "res2c"
  type: "Eltwise"
  bottom: "res2b"
  bottom: "res2c_branch2c"
  top: "res2c"
  eltwise_param {
    operation: SUM
  }
}
layer {
  name: "res2c_relu"
  type: "ReLU"
  bottom: "res2c"
  top: "res2c"
}
layer {
  name: "res3a_branch1"
  type: "Convolution"
  bottom: "res2c"
  top: "res3a_branch1"
  convolution_param {
    num_output: 512
    bias_term: false
    pad: 0
    kernel_size: 1
    stride: 2
    weight_filler {
      type: "msra"
    }
  }
}
layer {
  name: "bn3a_branch1"
  type: "BatchNorm"
  bottom: "res3a_branch1"
  top: "res3a_branch1"
  batch_norm_param {
    use_global_stats: false
  }
}
layer {
  name: "scale3a_branch1"
  type: "Scale"
  bottom: "res3a_branch1"
  top: "res3a_branch1"
  scale_param {
    bias_term: true
  }
}
layer {
  name: "res3a_branch2a"
  type: "Convolution"
  bottom: "res2c"
  top: "res3a_branch2a"
  convolution_param {
    num_output: 128
    bias_term: false
    pad: 0
    kernel_size: 1
    stride: 2
    weight_filler {
      type: "msra"
    }
  }
}
layer {
  name: "bn3a_branch2a"
  type: "BatchNorm"
  bottom: "res3a_branch2a"
  top: "res3a_branch2a"
  batch_norm_param {
    use_global_stats: false
  }
}
layer {
  name: "scale3a_branch2a"
  type: "Scale"
  bottom: "res3a_branch2a"
  top: "res3a_branch2a"
  scale_param {
    bias_term: true
  }
}
layer {
  name: "res3a_branch2a_relu"
  type: "ReLU"
  bottom: "res3a_branch2a"
  top: "res3a_branch2a"
}
layer {
  name: "res3a_branch2b"
  type: "Convolution"
  bottom: "res3a_branch2a"
  top: "res3a_branch2b"
  convolution_param {
    num_output: 128
    bias_term: false
    pad: 1
    kernel_size: 3
    stride: 1
    weight_filler {
      type: "msra"
    }
  }
}
layer {
  name: "bn3a_branch2b"
  type: "BatchNorm"
  bottom: "res3a_branch2b"
  top: "res3a_branch2b"
  batch_norm_param {
    use_global_stats: false
  }
}
layer {
  name: "scale3a_branch2b"
  type: "Scale"
  bottom: "res3a_branch2b"
  top: "res3a_branch2b"
  scale_param {
    bias_term: true
  }
}
layer {
  name: "res3a_branch2b_relu"
  type: "ReLU"
  bottom: "res3a_branch2b"
  top: "res3a_branch2b"
}
layer {
  name: "res3a_branch2c"
  type: "Convolution"
  bottom: "res3a_branch2b"
  top: "res3a_branch2c"
  convolution_param {
    num_output: 512
    bias_term: false
    pad: 0
    kernel_size: 1
    stride: 1
    weight_filler {
      type: "msra"
    }
  }
}
layer {
  name: "bn3a_branch2c"
  type: "BatchNorm"
  bottom: "res3a_branch2c"
  top: "res3a_branch2c"
  batch_norm_param {
    use_global_stats: false
  }
}
layer {
  name: "scale3a_branch2c"
  type: "Scale"
  bottom: "res3a_branch2c"
  top: "res3a_branch2c"
  scale_param {
    bias_term: true
  }
}
layer {
  name: "res3a"
  type: "Eltwise"
  bottom: "res3a_branch1"
  bottom: "res3a_branch2c"
  top: "res3a"
  eltwise_param {
    operation: SUM
  }
}
layer {
  name: "res3a_relu"
  type: "ReLU"
  bottom: "res3a"
  top: "res3a"
}
layer {
  name: "res3b_branch2a"
  type: "Convolution"
  bottom: "res3a"
  top: "res3b_branch2a"
  convolution_param {
    num_output: 128
    bias_term: false
    pad: 0
    kernel_size: 1
    stride: 1
    weight_filler {
      type: "msra"
    }
  }
}
layer {
  name: "bn3b_branch2a"
  type: "BatchNorm"
  bottom: "res3b_branch2a"
  top: "res3b_branch2a"
  batch_norm_param {
    use_global_stats: false
  }
}
layer {
  name: "scale3b_branch2a"
  type: "Scale"
  bottom: "res3b_branch2a"
  top: "res3b_branch2a"
  scale_param {
    bias_term: true
  }
}
layer {
  name: "res3b_branch2a_relu"
  type: "ReLU"
  bottom: "res3b_branch2a"
  top: "res3b_branch2a"
}
layer {
  name: "res3b_branch2b"
  type: "Convolution"
  bottom: "res3b_branch2a"
  top: "res3b_branch2b"
  convolution_param {
    num_output: 128
    bias_term: false
    pad: 1
    kernel_size: 3
    stride: 1
    weight_filler {
      type: "msra"
    }
  }
}
layer {
  name: "bn3b_branch2b"
  type: "BatchNorm"
  bottom: "res3b_branch2b"
  top: "res3b_branch2b"
  batch_norm_param {
    use_global_stats: false
  }
}
layer {
  name: "scale3b_branch2b"
  type: "Scale"
  bottom: "res3b_branch2b"
  top: "res3b_branch2b"
  scale_param {
    bias_term: true
  }
}
layer {
  name: "res3b_branch2b_relu"
  type: "ReLU"
  bottom: "res3b_branch2b"
  top: "res3b_branch2b"
}
layer {
  name: "res3b_branch2c"
  type: "Convolution"
  bottom: "res3b_branch2b"
  top: "res3b_branch2c"
  convolution_param {
    num_output: 512
    bias_term: false
    pad: 0
    kernel_size: 1
    stride: 1
    weight_filler {
      type: "msra"
    }
  }
}
layer {
  name: "bn3b_branch2c"
  type: "BatchNorm"
  bottom: "res3b_branch2c"
  top: "res3b_branch2c"
  batch_norm_param {
    use_global_stats: false
  }
}
layer {
  name: "scale3b_branch2c"
  type: "Scale"
  bottom: "res3b_branch2c"
  top: "res3b_branch2c"
  scale_param {
    bias_term: true
  }
}
layer {
  name: "res3b"
  type: "Eltwise"
  bottom: "res3a"
  bottom: "res3b_branch2c"
  top: "res3b"
  eltwise_param {
    operation: SUM
  }
}
layer {
  name: "res3b_relu"
  type: "ReLU"
  bottom: "res3b"
  top: "res3b"
}
layer {
  name: "res3c_branch2a"
  type: "Convolution"
  bottom: "res3b"
  top: "res3c_branch2a"
  convolution_param {
    num_output: 128
    bias_term: false
    pad: 0
    kernel_size: 1
    stride: 1
    weight_filler {
      type: "msra"
    }
  }
}
layer {
  name: "bn3c_branch2a"
  type: "BatchNorm"
  bottom: "res3c_branch2a"
  top: "res3c_branch2a"
  batch_norm_param {
    use_global_stats: false
  }
}
layer {
  name: "scale3c_branch2a"
  type: "Scale"
  bottom: "res3c_branch2a"
  top: "res3c_branch2a"
  scale_param {
    bias_term: true
  }
}
layer {
  name: "res3c_branch2a_relu"
  type: "ReLU"
  bottom: "res3c_branch2a"
  top: "res3c_branch2a"
}
layer {
  name: "res3c_branch2b"
  type: "Convolution"
  bottom: "res3c_branch2a"
  top: "res3c_branch2b"
  convolution_param {
    num_output: 128
    bias_term: false
    pad: 1
    kernel_size: 3
    stride: 1
    weight_filler {
      type: "msra"
    }
  }
}
layer {
  name: "bn3c_branch2b"
  type: "BatchNorm"
  bottom: "res3c_branch2b"
  top: "res3c_branch2b"
  batch_norm_param {
    use_global_stats: false
  }
}
layer {
  name: "scale3c_branch2b"
  type: "Scale"
  bottom: "res3c_branch2b"
  top: "res3c_branch2b"
  scale_param {
    bias_term: true
  }
}
layer {
  name: "res3c_branch2b_relu"
  type: "ReLU"
  bottom: "res3c_branch2b"
  top: "res3c_branch2b"
}
layer {
  name: "res3c_branch2c"
  type: "Convolution"
  bottom: "res3c_branch2b"
  top: "res3c_branch2c"
  convolution_param {
    num_output: 512
    bias_term: false
    pad: 0
    kernel_size: 1
    stride: 1
    weight_filler {
      type: "msra"
    }
  }
}
layer {
  name: "bn3c_branch2c"
  type: "BatchNorm"
  bottom: "res3c_branch2c"
  top: "res3c_branch2c"
  batch_norm_param {
    use_global_stats: false
  }
}
layer {
  name: "scale3c_branch2c"
  type: "Scale"
  bottom: "res3c_branch2c"
  top: "res3c_branch2c"
  scale_param {
    bias_term: true
  }
}
layer {
  name: "res3c"
  type: "Eltwise"
  bottom: "res3b"
  bottom: "res3c_branch2c"
  top: "res3c"
  eltwise_param {
    operation: SUM
  }
}
layer {
  name: "res3c_relu"
  type: "ReLU"
  bottom: "res3c"
  top: "res3c"
}
layer {
  name: "res3d_branch2a"
  type: "Convolution"
  bottom: "res3c"
  top: "res3d_branch2a"
  convolution_param {
    num_output: 128
    bias_term: false
    pad: 0
    kernel_size: 1
    stride: 1
    weight_filler {
      type: "msra"
    }
  }
}
layer {
  name: "bn3d_branch2a"
  type: "BatchNorm"
  bottom: "res3d_branch2a"
  top: "res3d_branch2a"
  batch_norm_param {
    use_global_stats: false
  }
}
layer {
  name: "scale3d_branch2a"
  type: "Scale"
  bottom: "res3d_branch2a"
  top: "res3d_branch2a"
  scale_param {
    bias_term: true
  }
}
layer {
  name: "res3d_branch2a_relu"
  type: "ReLU"
  bottom: "res3d_branch2a"
  top: "res3d_branch2a"
}
layer {
  name: "res3d_branch2b"
  type: "Convolution"
  bottom: "res3d_branch2a"
  top: "res3d_branch2b"
  convolution_param {
    num_output: 128
    bias_term: false
    pad: 1
    kernel_size: 3
    stride: 1
    weight_filler {
      type: "msra"
    }
  }
}
layer {
  name: "bn3d_branch2b"
  type: "BatchNorm"
  bottom: "res3d_branch2b"
  top: "res3d_branch2b"
  batch_norm_param {
    use_global_stats: false
  }
}
layer {
  name: "scale3d_branch2b"
  type: "Scale"
  bottom: "res3d_branch2b"
  top: "res3d_branch2b"
  scale_param {
    bias_term: true
  }
}
layer {
  name: "res3d_branch2b_relu"
  type: "ReLU"
  bottom: "res3d_branch2b"
  top: "res3d_branch2b"
}
layer {
  name: "res3d_branch2c"
  type: "Convolution"
  bottom: "res3d_branch2b"
  top: "res3d_branch2c"
  convolution_param {
    num_output: 512
    bias_term: false
    pad: 0
    kernel_size: 1
    stride: 1
    weight_filler {
      type: "msra"
    }
  }
}
layer {
  name: "bn3d_branch2c"
  type: "BatchNorm"
  bottom: "res3d_branch2c"
  top: "res3d_branch2c"
  batch_norm_param {
    use_global_stats: false
  }
}
layer {
  name: "scale3d_branch2c"
  type: "Scale"
  bottom: "res3d_branch2c"
  top: "res3d_branch2c"
  scale_param {
    bias_term: true
  }
}
layer {
  name: "res3d"
  type: "Eltwise"
  bottom: "res3c"
  bottom: "res3d_branch2c"
  top: "res3d"
  eltwise_param {
    operation: SUM
  }
}
layer {
  name: "res3d_relu"
  type: "ReLU"
  bottom: "res3d"
  top: "res3d"
}
layer {
  name: "res4a_branch1"
  type: "Convolution"
  bottom: "res3d"
  top: "res4a_branch1"
  convolution_param {
    num_output: 1024
    bias_term: false
    pad: 0
    kernel_size: 1
    stride: 2
    weight_filler {
      type: "msra"
    }
  }
}
layer {
  name: "bn4a_branch1"
  type: "BatchNorm"
  bottom: "res4a_branch1"
  top: "res4a_branch1"
  batch_norm_param {
    use_global_stats: false
  }
}
layer {
  name: "scale4a_branch1"
  type: "Scale"
  bottom: "res4a_branch1"
  top: "res4a_branch1"
  scale_param {
    bias_term: true
  }
}
layer {
  name: "res4a_branch2a"
  type: "Convolution"
  bottom: "res3d"
  top: "res4a_branch2a"
  convolution_param {
    num_output: 256
    bias_term: false
    pad: 0
    kernel_size: 1
    stride: 2
    weight_filler {
      type: "msra"
    }
  }
}
layer {
  name: "bn4a_branch2a"
  type: "BatchNorm"
  bottom: "res4a_branch2a"
  top: "res4a_branch2a"
  batch_norm_param {
    use_global_stats: false
  }
}
layer {
  name: "scale4a_branch2a"
  type: "Scale"
  bottom: "res4a_branch2a"
  top: "res4a_branch2a"
  scale_param {
    bias_term: true
  }
}
layer {
  name: "res4a_branch2a_relu"
  type: "ReLU"
  bottom: "res4a_branch2a"
  top: "res4a_branch2a"
}
layer {
  name: "res4a_branch2b"
  type: "Convolution"
  bottom: "res4a_branch2a"
  top: "res4a_branch2b"
  convolution_param {
    num_output: 256
    bias_term: false
    pad: 1
    kernel_size: 3
    stride: 1
    weight_filler {
      type: "msra"
    }
  }
}
layer {
  name: "bn4a_branch2b"
  type: "BatchNorm"
  bottom: "res4a_branch2b"
  top: "res4a_branch2b"
  batch_norm_param {
    use_global_stats: false
  }
}
layer {
  name: "scale4a_branch2b"
  type: "Scale"
  bottom: "res4a_branch2b"
  top: "res4a_branch2b"
  scale_param {
    bias_term: true
  }
}
layer {
  name: "res4a_branch2b_relu"
  type: "ReLU"
  bottom: "res4a_branch2b"
  top: "res4a_branch2b"
}
layer {
  name: "res4a_branch2c"
  type: "Convolution"
  bottom: "res4a_branch2b"
  top: "res4a_branch2c"
  convolution_param {
    num_output: 1024
    bias_term: false
    pad: 0
    kernel_size: 1
    stride: 1
    weight_filler {
      type: "msra"
    }
  }
}
layer {
  name: "bn4a_branch2c"
  type: "BatchNorm"
  bottom: "res4a_branch2c"
  top: "res4a_branch2c"
  batch_norm_param {
    use_global_stats: false
  }
}
layer {
  name: "scale4a_branch2c"
  type: "Scale"
  bottom: "res4a_branch2c"
  top: "res4a_branch2c"
  scale_param {
    bias_term: true
  }
}
layer {
  name: "res4a"
  type: "Eltwise"
  bottom: "res4a_branch1"
  bottom: "res4a_branch2c"
  top: "res4a"
  eltwise_param {
    operation: SUM
  }
}
layer {
  name: "res4a_relu"
  type: "ReLU"
  bottom: "res4a"
  top: "res4a"
}
layer {
  name: "res4b_branch2a"
  type: "Convolution"
  bottom: "res4a"
  top: "res4b_branch2a"
  convolution_param {
    num_output: 256
    bias_term: false
    pad: 0
    kernel_size: 1
    stride: 1
    weight_filler {
      type: "msra"
    }
  }
}
layer {
  name: "bn4b_branch2a"
  type: "BatchNorm"
  bottom: "res4b_branch2a"
  top: "res4b_branch2a"
  batch_norm_param {
    use_global_stats: false
  }
}
layer {
  name: "scale4b_branch2a"
  type: "Scale"
  bottom: "res4b_branch2a"
  top: "res4b_branch2a"
  scale_param {
    bias_term: true
  }
}
layer {
  name: "res4b_branch2a_relu"
  type: "ReLU"
  bottom: "res4b_branch2a"
  top: "res4b_branch2a"
}
layer {
  name: "res4b_branch2b"
  type: "Convolution"
  bottom: "res4b_branch2a"
  top: "res4b_branch2b"
  convolution_param {
    num_output: 256
    bias_term: false
    pad: 1
    kernel_size: 3
    stride: 1
    weight_filler {
      type: "msra"
    }
  }
}
layer {
  name: "bn4b_branch2b"
  type: "BatchNorm"
  bottom: "res4b_branch2b"
  top: "res4b_branch2b"
  batch_norm_param {
    use_global_stats: false
  }
}
layer {
  name: "scale4b_branch2b"
  type: "Scale"
  bottom: "res4b_branch2b"
  top: "res4b_branch2b"
  scale_param {
    bias_term: true
  }
}
layer {
  name: "res4b_branch2b_relu"
  type: "ReLU"
  bottom: "res4b_branch2b"
  top: "res4b_branch2b"
}
layer {
  name: "res4b_branch2c"
  type: "Convolution"
  bottom: "res4b_branch2b"
  top: "res4b_branch2c"
  convolution_param {
    num_output: 1024
    bias_term: false
    pad: 0
    kernel_size: 1
    stride: 1
    weight_filler {
      type: "msra"
    }
  }
}
layer {
  name: "bn4b_branch2c"
  type: "BatchNorm"
  bottom: "res4b_branch2c"
  top: "res4b_branch2c"
  batch_norm_param {
    use_global_stats: false
  }
}
layer {
  name: "scale4b_branch2c"
  type: "Scale"
  bottom: "res4b_branch2c"
  top: "res4b_branch2c"
  scale_param {
    bias_term: true
  }
}
layer {
  name: "res4b"
  type: "Eltwise"
  bottom: "res4a"
  bottom: "res4b_branch2c"
  top: "res4b"
  eltwise_param {
    operation: SUM
  }
}
layer {
  name: "res4b_relu"
  type: "ReLU"
  bottom: "res4b"
  top: "res4b"
}
layer {
  name: "res4c_branch2a"
  type: "Convolution"
  bottom: "res4b"
  top: "res4c_branch2a"
  convolution_param {
    num_output: 256
    bias_term: false
    pad: 0
    kernel_size: 1
    stride: 1
    weight_filler {
      type: "msra"
    }
  }
}
layer {
  name: "bn4c_branch2a"
  type: "BatchNorm"
  bottom: "res4c_branch2a"
  top: "res4c_branch2a"
  batch_norm_param {
    use_global_stats: false
  }
}
layer {
  name: "scale4c_branch2a"
  type: "Scale"
  bottom: "res4c_branch2a"
  top: "res4c_branch2a"
  scale_param {
    bias_term: true
  }
}
layer {
  name: "res4c_branch2a_relu"
  type: "ReLU"
  bottom: "res4c_branch2a"
  top: "res4c_branch2a"
}
layer {
  name: "res4c_branch2b"
  type: "Convolution"
  bottom: "res4c_branch2a"
  top: "res4c_branch2b"
  convolution_param {
    num_output: 256
    bias_term: false
    pad: 1
    kernel_size: 3
    stride: 1
    weight_filler {
      type: "msra"
    }
  }
}
layer {
  name: "bn4c_branch2b"
  type: "BatchNorm"
  bottom: "res4c_branch2b"
  top: "res4c_branch2b"
  batch_norm_param {
    use_global_stats: false
  }
}
layer {
  name: "scale4c_branch2b"
  type: "Scale"
  bottom: "res4c_branch2b"
  top: "res4c_branch2b"
  scale_param {
    bias_term: true
  }
}
layer {
  name: "res4c_branch2b_relu"
  type: "ReLU"
  bottom: "res4c_branch2b"
  top: "res4c_branch2b"
}
layer {
  name: "res4c_branch2c"
  type: "Convolution"
  bottom: "res4c_branch2b"
  top: "res4c_branch2c"
  convolution_param {
    num_output: 1024
    bias_term: false
    pad: 0
    kernel_size: 1
    stride: 1
    weight_filler {
      type: "msra"
    }
  }
}
layer {
  name: "bn4c_branch2c"
  type: "BatchNorm"
  bottom: "res4c_branch2c"
  top: "res4c_branch2c"
  batch_norm_param {
    use_global_stats: false
  }
}
layer {
  name: "scale4c_branch2c"
  type: "Scale"
  bottom: "res4c_branch2c"
  top: "res4c_branch2c"
  scale_param {
    bias_term: true
  }
}
layer {
  name: "res4c"
  type: "Eltwise"
  bottom: "res4b"
  bottom: "res4c_branch2c"
  top: "res4c"
  eltwise_param {
    operation: SUM
  }
}
layer {
  name: "res4c_relu"
  type: "ReLU"
  bottom: "res4c"
  top: "res4c"
}
layer {
  name: "res4d_branch2a"
  type: "Convolution"
  bottom: "res4c"
  top: "res4d_branch2a"
  convolution_param {
    num_output: 256
    bias_term: false
    pad: 0
    kernel_size: 1
    stride: 1
    weight_filler {
      type: "msra"
    }
  }
}
layer {
  name: "bn4d_branch2a"
  type: "BatchNorm"
  bottom: "res4d_branch2a"
  top: "res4d_branch2a"
  batch_norm_param {
    use_global_stats: false
  }
}
layer {
  name: "scale4d_branch2a"
  type: "Scale"
  bottom: "res4d_branch2a"
  top: "res4d_branch2a"
  scale_param {
    bias_term: true
  }
}
layer {
  name: "res4d_branch2a_relu"
  type: "ReLU"
  bottom: "res4d_branch2a"
  top: "res4d_branch2a"
}
layer {
  name: "res4d_branch2b"
  type: "Convolution"
  bottom: "res4d_branch2a"
  top: "res4d_branch2b"
  convolution_param {
    num_output: 256
    bias_term: false
    pad: 1
    kernel_size: 3
    stride: 1
    weight_filler {
      type: "msra"
    }
  }
}
layer {
  name: "bn4d_branch2b"
  type: "BatchNorm"
  bottom: "res4d_branch2b"
  top: "res4d_branch2b"
  batch_norm_param {
    use_global_stats: false
  }
}
layer {
  name: "scale4d_branch2b"
  type: "Scale"
  bottom: "res4d_branch2b"
  top: "res4d_branch2b"
  scale_param {
    bias_term: true
  }
}
layer {
  name: "res4d_branch2b_relu"
  type: "ReLU"
  bottom: "res4d_branch2b"
  top: "res4d_branch2b"
}
layer {
  name: "res4d_branch2c"
  type: "Convolution"
  bottom: "res4d_branch2b"
  top: "res4d_branch2c"
  convolution_param {
    num_output: 1024
    bias_term: false
    pad: 0
    kernel_size: 1
    stride: 1
    weight_filler {
      type: "msra"
    }
  }
}
layer {
  name: "bn4d_branch2c"
  type: "BatchNorm"
  bottom: "res4d_branch2c"
  top: "res4d_branch2c"
  batch_norm_param {
    use_global_stats: false
  }
}
layer {
  name: "scale4d_branch2c"
  type: "Scale"
  bottom: "res4d_branch2c"
  top: "res4d_branch2c"
  scale_param {
    bias_term: true
  }
}
layer {
  name: "res4d"
  type: "Eltwise"
  bottom: "res4c"
  bottom: "res4d_branch2c"
  top: "res4d"
  eltwise_param {
    operation: SUM
  }
}
layer {
  name: "res4d_relu"
  type: "ReLU"
  bottom: "res4d"
  top: "res4d"
}
layer {
  name: "res4e_branch2a"
  type: "Convolution"
  bottom: "res4d"
  top: "res4e_branch2a"
  convolution_param {
    num_output: 256
    bias_term: false
    pad: 0
    kernel_size: 1
    stride: 1
    weight_filler {
      type: "msra"
    }
  }
}
layer {
  name: "bn4e_branch2a"
  type: "BatchNorm"
  bottom: "res4e_branch2a"
  top: "res4e_branch2a"
  batch_norm_param {
    use_global_stats: false
  }
}
layer {
  name: "scale4e_branch2a"
  type: "Scale"
  bottom: "res4e_branch2a"
  top: "res4e_branch2a"
  scale_param {
    bias_term: true
  }
}
layer {
  name: "res4e_branch2a_relu"
  type: "ReLU"
  bottom: "res4e_branch2a"
  top: "res4e_branch2a"
}
layer {
  name: "res4e_branch2b"
  type: "Convolution"
  bottom: "res4e_branch2a"
  top: "res4e_branch2b"
  convolution_param {
    num_output: 256
    bias_term: false
    pad: 1
    kernel_size: 3
    stride: 1
    weight_filler {
      type: "msra"
    }
  }
}
layer {
  name: "bn4e_branch2b"
  type: "BatchNorm"
  bottom: "res4e_branch2b"
  top: "res4e_branch2b"
  batch_norm_param {
    use_global_stats: false
  }
}
layer {
  name: "scale4e_branch2b"
  type: "Scale"
  bottom: "res4e_branch2b"
  top: "res4e_branch2b"
  scale_param {
    bias_term: true
  }
}
layer {
  name: "res4e_branch2b_relu"
  type: "ReLU"
  bottom: "res4e_branch2b"
  top: "res4e_branch2b"
}
layer {
  name: "res4e_branch2c"
  type: "Convolution"
  bottom: "res4e_branch2b"
  top: "res4e_branch2c"
  convolution_param {
    num_output: 1024
    bias_term: false
    pad: 0
    kernel_size: 1
    stride: 1
    weight_filler {
      type: "msra"
    }
  }
}
layer {
  name: "bn4e_branch2c"
  type: "BatchNorm"
  bottom: "res4e_branch2c"
  top: "res4e_branch2c"
  batch_norm_param {
    use_global_stats: false
  }
}
layer {
  name: "scale4e_branch2c"
  type: "Scale"
  bottom: "res4e_branch2c"
  top: "res4e_branch2c"
  scale_param {
    bias_term: true
  }
}
layer {
  name: "res4e"
  type: "Eltwise"
  bottom: "res4d"
  bottom: "res4e_branch2c"
  top: "res4e"
  eltwise_param {
    operation: SUM
  }
}
layer {
  name: "res4e_relu"
  type: "ReLU"
  bottom: "res4e"
  top: "res4e"
}
layer {
  name: "res4f_branch2a"
  type: "Convolution"
  bottom: "res4e"
  top: "res4f_branch2a"
  convolution_param {
    num_output: 256
    bias_term: false
    pad: 0
    kernel_size: 1
    stride: 1
    weight_filler {
      type: "msra"
    }
  }
}
layer {
  name: "bn4f_branch2a"
  type: "BatchNorm"
  bottom: "res4f_branch2a"
  top: "res4f_branch2a"
  batch_norm_param {
    use_global_stats: false
  }
}
layer {
  name: "scale4f_branch2a"
  type: "Scale"
  bottom: "res4f_branch2a"
  top: "res4f_branch2a"
  scale_param {
    bias_term: true
  }
}
layer {
  name: "res4f_branch2a_relu"
  type: "ReLU"
  bottom: "res4f_branch2a"
  top: "res4f_branch2a"
}
layer {
  name: "res4f_branch2b"
  type: "Convolution"
  bottom: "res4f_branch2a"
  top: "res4f_branch2b"
  convolution_param {
    num_output: 256
    bias_term: false
    pad: 1
    kernel_size: 3
    stride: 1
    weight_filler {
      type: "msra"
    }
  }
}
layer {
  name: "bn4f_branch2b"
  type: "BatchNorm"
  bottom: "res4f_branch2b"
  top: "res4f_branch2b"
  batch_norm_param {
    use_global_stats: false
  }
}
layer {
  name: "scale4f_branch2b"
  type: "Scale"
  bottom: "res4f_branch2b"
  top: "res4f_branch2b"
  scale_param {
    bias_term: true
  }
}
layer {
  name: "res4f_branch2b_relu"
  type: "ReLU"
  bottom: "res4f_branch2b"
  top: "res4f_branch2b"
}
layer {
  name: "res4f_branch2c"
  type: "Convolution"
  bottom: "res4f_branch2b"
  top: "res4f_branch2c"
  convolution_param {
    num_output: 1024
    bias_term: false
    pad: 0
    kernel_size: 1
    stride: 1
    weight_filler {
      type: "msra"
    }
  }
}
layer {
  name: "bn4f_branch2c"
  type: "BatchNorm"
  bottom: "res4f_branch2c"
  top: "res4f_branch2c"
  batch_norm_param {
    use_global_stats: false
  }
I0316 15:25:44.259099 30454 layer_factory.hpp:77] Creating layer L4G_IDS_4
I0316 15:25:44.259115 30454 net.cpp:84] Creating Layer L4G_IDS_4
I0316 15:25:44.259121 30454 net.cpp:380] L4G_IDS_4 -> data
I0316 15:25:44.259131 30454 net.cpp:380] L4G_IDS_4 -> label
I0316 15:25:44.259526 30454 image_data_layer.cpp:38] Opening file Train.txt
I0316 15:25:44.298257 30454 image_data_layer.cpp:63] A total of 125973 images.
I0316 15:25:44.298452 30454 image_data_layer.cpp:90] output data size: 64,3,7,7
I0316 15:25:44.298558 30454 net.cpp:122] Setting up L4G_IDS_4
I0316 15:25:44.298568 30454 net.cpp:129] Top shape: 64 3 7 7 (9408)
I0316 15:25:44.298573 30454 net.cpp:129] Top shape: 64 (64)
I0316 15:25:44.298576 30454 net.cpp:137] Memory required for data: 37888
I0316 15:25:44.298584 30454 layer_factory.hpp:77] Creating layer conv1
I0316 15:25:44.298599 30454 net.cpp:84] Creating Layer conv1
I0316 15:25:44.298604 30454 net.cpp:406] conv1 <- data
I0316 15:25:44.298610 30454 net.cpp:380] conv1 -> conv1
I0316 15:25:44.298794 30454 net.cpp:122] Setting up conv1
I0316 15:25:44.298799 30454 net.cpp:129] Top shape: 64 64 4 4 (65536)
I0316 15:25:44.298804 30454 net.cpp:137] Memory required for data: 300032
I0316 15:25:44.298812 30454 layer_factory.hpp:77] Creating layer bn_conv1
I0316 15:25:44.298818 30454 net.cpp:84] Creating Layer bn_conv1
I0316 15:25:44.298822 30454 net.cpp:406] bn_conv1 <- conv1
I0316 15:25:44.298827 30454 net.cpp:367] bn_conv1 -> conv1 (in-place)
I0316 15:25:44.298837 30454 net.cpp:122] Setting up bn_conv1
I0316 15:25:44.298842 30454 net.cpp:129] Top shape: 64 64 4 4 (65536)
I0316 15:25:44.298846 30454 net.cpp:137] Memory required for data: 562176
I0316 15:25:44.298856 30454 layer_factory.hpp:77] Creating layer scale_conv1
I0316 15:25:44.298888 30454 net.cpp:84] Creating Layer scale_conv1
I0316 15:25:44.298892 30454 net.cpp:406] scale_conv1 <- conv1
I0316 15:25:44.298897 30454 net.cpp:367] scale_conv1 -> conv1 (in-place)
I0316 15:25:44.298918 30454 layer_factory.hpp:77] Creating layer scale_conv1
I0316 15:25:44.298944 30454 net.cpp:122] Setting up scale_conv1
I0316 15:25:44.298950 30454 net.cpp:129] Top shape: 64 64 4 4 (65536)
I0316 15:25:44.298954 30454 net.cpp:137] Memory required for data: 824320
I0316 15:25:44.298959 30454 layer_factory.hpp:77] Creating layer conv1_relu
I0316 15:25:44.298964 30454 net.cpp:84] Creating Layer conv1_relu
I0316 15:25:44.298969 30454 net.cpp:406] conv1_relu <- conv1
I0316 15:25:44.298972 30454 net.cpp:367] conv1_relu -> conv1 (in-place)
I0316 15:25:44.298979 30454 net.cpp:122] Setting up conv1_relu
I0316 15:25:44.298982 30454 net.cpp:129] Top shape: 64 64 4 4 (65536)
I0316 15:25:44.298986 30454 net.cpp:137] Memory required for data: 1086464
I0316 15:25:44.298990 30454 layer_factory.hpp:77] Creating layer pool1
I0316 15:25:44.298995 30454 net.cpp:84] Creating Layer pool1
I0316 15:25:44.298998 30454 net.cpp:406] pool1 <- conv1
I0316 15:25:44.299002 30454 net.cpp:380] pool1 -> pool1
I0316 15:25:44.299010 30454 net.cpp:122] Setting up pool1
I0316 15:25:44.299015 30454 net.cpp:129] Top shape: 64 64 2 2 (16384)
I0316 15:25:44.299018 30454 net.cpp:137] Memory required for data: 1152000
I0316 15:25:44.299022 30454 layer_factory.hpp:77] Creating layer pool1_pool1_0_split
I0316 15:25:44.299027 30454 net.cpp:84] Creating Layer pool1_pool1_0_split
I0316 15:25:44.299043 30454 net.cpp:406] pool1_pool1_0_split <- pool1
I0316 15:25:44.299048 30454 net.cpp:380] pool1_pool1_0_split -> pool1_pool1_0_split_0
I0316 15:25:44.299057 30454 net.cpp:380] pool1_pool1_0_split -> pool1_pool1_0_split_1
I0316 15:25:44.299062 30454 net.cpp:122] Setting up pool1_pool1_0_split
I0316 15:25:44.299067 30454 net.cpp:129] Top shape: 64 64 2 2 (16384)
I0316 15:25:44.299072 30454 net.cpp:129] Top shape: 64 64 2 2 (16384)
I0316 15:25:44.299074 30454 net.cpp:137] Memory required for data: 1283072
I0316 15:25:44.299077 30454 layer_factory.hpp:77] Creating layer res2a_branch1
I0316 15:25:44.299083 30454 net.cpp:84] Creating Layer res2a_branch1
I0316 15:25:44.299088 30454 net.cpp:406] res2a_branch1 <- pool1_pool1_0_split_0
I0316 15:25:44.299093 30454 net.cpp:380] res2a_branch1 -> res2a_branch1
I0316 15:25:44.299305 30454 net.cpp:122] Setting up res2a_branch1
I0316 15:25:44.299311 30454 net.cpp:129] Top shape: 64 256 2 2 (65536)
I0316 15:25:44.299315 30454 net.cpp:137] Memory required for data: 1545216
I0316 15:25:44.299320 30454 layer_factory.hpp:77] Creating layer bn2a_branch1
I0316 15:25:44.299327 30454 net.cpp:84] Creating Layer bn2a_branch1
I0316 15:25:44.299331 30454 net.cpp:406] bn2a_branch1 <- res2a_branch1
I0316 15:25:44.299336 30454 net.cpp:367] bn2a_branch1 -> res2a_branch1 (in-place)
I0316 15:25:44.299350 30454 net.cpp:122] Setting up bn2a_branch1
I0316 15:25:44.299355 30454 net.cpp:129] Top shape: 64 256 2 2 (65536)
I0316 15:25:44.299358 30454 net.cpp:137] Memory required for data: 1807360
I0316 15:25:44.299367 30454 layer_factory.hpp:77] Creating layer scale2a_branch1
I0316 15:25:44.299372 30454 net.cpp:84] Creating Layer scale2a_branch1
I0316 15:25:44.299376 30454 net.cpp:406] scale2a_branch1 <- res2a_branch1
I0316 15:25:44.299382 30454 net.cpp:367] scale2a_branch1 -> res2a_branch1 (in-place)
I0316 15:25:44.299408 30454 layer_factory.hpp:77] Creating layer scale2a_branch1
I0316 15:25:44.299419 30454 net.cpp:122] Setting up scale2a_branch1
I0316 15:25:44.299424 30454 net.cpp:129] Top shape: 64 256 2 2 (65536)
I0316 15:25:44.299432 30454 net.cpp:137] Memory required for data: 2069504
I0316 15:25:44.299437 30454 layer_factory.hpp:77] Creating layer res2a_branch2a
I0316 15:25:44.299444 30454 net.cpp:84] Creating Layer res2a_branch2a
I0316 15:25:44.299453 30454 net.cpp:406] res2a_branch2a <- pool1_pool1_0_split_1
I0316 15:25:44.299460 30454 net.cpp:380] res2a_branch2a -> res2a_branch2a
I0316 15:25:44.299510 30454 net.cpp:122] Setting up res2a_branch2a
I0316 15:25:44.299516 30454 net.cpp:129] Top shape: 64 64 2 2 (16384)
I0316 15:25:44.299520 30454 net.cpp:137] Memory required for data: 2135040
I0316 15:25:44.299527 30454 layer_factory.hpp:77] Creating layer bn2a_branch2a
I0316 15:25:44.299536 30454 net.cpp:84] Creating Layer bn2a_branch2a
I0316 15:25:44.299540 30454 net.cpp:406] bn2a_branch2a <- res2a_branch2a
I0316 15:25:44.299545 30454 net.cpp:367] bn2a_branch2a -> res2a_branch2a (in-place)
I0316 15:25:44.299580 30454 net.cpp:122] Setting up bn2a_branch2a
I0316 15:25:44.299604 30454 net.cpp:129] Top shape: 64 64 2 2 (16384)
I0316 15:25:44.299608 30454 net.cpp:137] Memory required for data: 2200576
I0316 15:25:44.299618 30454 layer_factory.hpp:77] Creating layer scale2a_branch2a
I0316 15:25:44.299623 30454 net.cpp:84] Creating Layer scale2a_branch2a
I0316 15:25:44.299628 30454 net.cpp:406] scale2a_branch2a <- res2a_branch2a
I0316 15:25:44.299633 30454 net.cpp:367] scale2a_branch2a -> res2a_branch2a (in-place)
I0316 15:25:44.299640 30454 layer_factory.hpp:77] Creating layer scale2a_branch2a
I0316 15:25:44.299652 30454 net.cpp:122] Setting up scale2a_branch2a
I0316 15:25:44.299659 30454 net.cpp:129] Top shape: 64 64 2 2 (16384)
I0316 15:25:44.299661 30454 net.cpp:137] Memory required for data: 2266112
I0316 15:25:44.299684 30454 layer_factory.hpp:77] Creating layer res2a_branch2a_relu
I0316 15:25:44.299688 30454 net.cpp:84] Creating Layer res2a_branch2a_relu
I0316 15:25:44.299715 30454 net.cpp:406] res2a_branch2a_relu <- res2a_branch2a
I0316 15:25:44.299720 30454 net.cpp:367] res2a_branch2a_relu -> res2a_branch2a (in-place)
I0316 15:25:44.299724 30454 net.cpp:122] Setting up res2a_branch2a_relu
I0316 15:25:44.299729 30454 net.cpp:129] Top shape: 64 64 2 2 (16384)
I0316 15:25:44.299733 30454 net.cpp:137] Memory required for data: 2331648
I0316 15:25:44.299736 30454 layer_factory.hpp:77] Creating layer res2a_branch2b
I0316 15:25:44.299741 30454 net.cpp:84] Creating Layer res2a_branch2b
I0316 15:25:44.299746 30454 net.cpp:406] res2a_branch2b <- res2a_branch2a
I0316 15:25:44.299769 30454 net.cpp:380] res2a_branch2b -> res2a_branch2b
I0316 15:25:44.300227 30454 net.cpp:122] Setting up res2a_branch2b
I0316 15:25:44.300236 30454 net.cpp:129] Top shape: 64 64 2 2 (16384)
I0316 15:25:44.300240 30454 net.cpp:137] Memory required for data: 2397184
I0316 15:25:44.300246 30454 layer_factory.hpp:77] Creating layer bn2a_branch2b
I0316 15:25:44.300253 30454 net.cpp:84] Creating Layer bn2a_branch2b
I0316 15:25:44.300257 30454 net.cpp:406] bn2a_branch2b <- res2a_branch2b
I0316 15:25:44.300261 30454 net.cpp:367] bn2a_branch2b -> res2a_branch2b (in-place)
I0316 15:25:44.300273 30454 net.cpp:122] Setting up bn2a_branch2b
I0316 15:25:44.300278 30454 net.cpp:129] Top shape: 64 64 2 2 (16384)
I0316 15:25:44.300283 30454 net.cpp:137] Memory required for data: 2462720
I0316 15:25:44.300292 30454 layer_factory.hpp:77] Creating layer scale2a_branch2b
I0316 15:25:44.300302 30454 net.cpp:84] Creating Layer scale2a_branch2b
I0316 15:25:44.300305 30454 net.cpp:406] scale2a_branch2b <- res2a_branch2b
I0316 15:25:44.300309 30454 net.cpp:367] scale2a_branch2b -> res2a_branch2b (in-place)
I0316 15:25:44.300318 30454 layer_factory.hpp:77] Creating layer scale2a_branch2b
I0316 15:25:44.300328 30454 net.cpp:122] Setting up scale2a_branch2b
I0316 15:25:44.300333 30454 net.cpp:129] Top shape: 64 64 2 2 (16384)
I0316 15:25:44.300336 30454 net.cpp:137] Memory required for data: 2528256
I0316 15:25:44.300343 30454 layer_factory.hpp:77] Creating layer res2a_branch2b_relu
I0316 15:25:44.300346 30454 net.cpp:84] Creating Layer res2a_branch2b_relu
I0316 15:25:44.300350 30454 net.cpp:406] res2a_branch2b_relu <- res2a_branch2b
I0316 15:25:44.300355 30454 net.cpp:367] res2a_branch2b_relu -> res2a_branch2b (in-place)
I0316 15:25:44.300360 30454 net.cpp:122] Setting up res2a_branch2b_relu
I0316 15:25:44.300364 30454 net.cpp:129] Top shape: 64 64 2 2 (16384)
I0316 15:25:44.300369 30454 net.cpp:137] Memory required for data: 2593792
I0316 15:25:44.300371 30454 layer_factory.hpp:77] Creating layer res2a_branch2c
I0316 15:25:44.300376 30454 net.cpp:84] Creating Layer res2a_branch2c
I0316 15:25:44.300380 30454 net.cpp:406] res2a_branch2c <- res2a_branch2b
I0316 15:25:44.300390 30454 net.cpp:380] res2a_branch2c -> res2a_branch2c
I0316 15:25:44.300544 30454 net.cpp:122] Setting up res2a_branch2c
I0316 15:25:44.300550 30454 net.cpp:129] Top shape: 64 256 2 2 (65536)
I0316 15:25:44.300554 30454 net.cpp:137] Memory required for data: 2855936
I0316 15:25:44.300559 30454 layer_factory.hpp:77] Creating layer bn2a_branch2c
I0316 15:25:44.300565 30454 net.cpp:84] Creating Layer bn2a_branch2c
I0316 15:25:44.300568 30454 net.cpp:406] bn2a_branch2c <- res2a_branch2c
I0316 15:25:44.300572 30454 net.cpp:367] bn2a_branch2c -> res2a_branch2c (in-place)
I0316 15:25:44.300585 30454 net.cpp:122] Setting up bn2a_branch2c
I0316 15:25:44.300588 30454 net.cpp:129] Top shape: 64 256 2 2 (65536)
I0316 15:25:44.300591 30454 net.cpp:137] Memory required for data: 3118080
I0316 15:25:44.300598 30454 layer_factory.hpp:77] Creating layer scale2a_branch2c
I0316 15:25:44.300604 30454 net.cpp:84] Creating Layer scale2a_branch2c
I0316 15:25:44.300616 30454 net.cpp:406] scale2a_branch2c <- res2a_branch2c
I0316 15:25:44.300619 30454 net.cpp:367] scale2a_branch2c -> res2a_branch2c (in-place)
I0316 15:25:44.300628 30454 layer_factory.hpp:77] Creating layer scale2a_branch2c
I0316 15:25:44.300643 30454 net.cpp:122] Setting up scale2a_branch2c
I0316 15:25:44.300648 30454 net.cpp:129] Top shape: 64 256 2 2 (65536)
I0316 15:25:44.300652 30454 net.cpp:137] Memory required for data: 3380224
I0316 15:25:44.300657 30454 layer_factory.hpp:77] Creating layer res2a
I0316 15:25:44.300662 30454 net.cpp:84] Creating Layer res2a
I0316 15:25:44.300667 30454 net.cpp:406] res2a <- res2a_branch1
I0316 15:25:44.300670 30454 net.cpp:406] res2a <- res2a_branch2c
I0316 15:25:44.300678 30454 net.cpp:380] res2a -> res2a
I0316 15:25:44.300684 30454 net.cpp:122] Setting up res2a
I0316 15:25:44.300688 30454 net.cpp:129] Top shape: 64 256 2 2 (65536)
I0316 15:25:44.300693 30454 net.cpp:137] Memory required for data: 3642368
I0316 15:25:44.300696 30454 layer_factory.hpp:77] Creating layer res2a_relu
I0316 15:25:44.300700 30454 net.cpp:84] Creating Layer res2a_relu
I0316 15:25:44.300704 30454 net.cpp:406] res2a_relu <- res2a
I0316 15:25:44.300707 30454 net.cpp:367] res2a_relu -> res2a (in-place)
I0316 15:25:44.300712 30454 net.cpp:122] Setting up res2a_relu
I0316 15:25:44.300719 30454 net.cpp:129] Top shape: 64 256 2 2 (65536)
I0316 15:25:44.300721 30454 net.cpp:137] Memory required for data: 3904512
I0316 15:25:44.300724 30454 layer_factory.hpp:77] Creating layer res2a_res2a_relu_0_split
I0316 15:25:44.300730 30454 net.cpp:84] Creating Layer res2a_res2a_relu_0_split
I0316 15:25:44.300734 30454 net.cpp:406] res2a_res2a_relu_0_split <- res2a
I0316 15:25:44.300739 30454 net.cpp:380] res2a_res2a_relu_0_split -> res2a_res2a_relu_0_split_0
I0316 15:25:44.300745 30454 net.cpp:380] res2a_res2a_relu_0_split -> res2a_res2a_relu_0_split_1
I0316 15:25:44.300752 30454 net.cpp:122] Setting up res2a_res2a_relu_0_split
I0316 15:25:44.300756 30454 net.cpp:129] Top shape: 64 256 2 2 (65536)
I0316 15:25:44.300760 30454 net.cpp:129] Top shape: 64 256 2 2 (65536)
I0316 15:25:44.300763 30454 net.cpp:137] Memory required for data: 4428800
I0316 15:25:44.300767 30454 layer_factory.hpp:77] Creating layer res2b_branch2a
I0316 15:25:44.300774 30454 net.cpp:84] Creating Layer res2b_branch2a
I0316 15:25:44.300778 30454 net.cpp:406] res2b_branch2a <- res2a_res2a_relu_0_split_0
I0316 15:25:44.300783 30454 net.cpp:380] res2b_branch2a -> res2b_branch2a
I0316 15:25:44.300937 30454 net.cpp:122] Setting up res2b_branch2a
I0316 15:25:44.300943 30454 net.cpp:129] Top shape: 64 64 2 2 (16384)
I0316 15:25:44.300946 30454 net.cpp:137] Memory required for data: 4494336
I0316 15:25:44.300951 30454 layer_factory.hpp:77] Creating layer bn2b_branch2a
I0316 15:25:44.300957 30454 net.cpp:84] Creating Layer bn2b_branch2a
I0316 15:25:44.300961 30454 net.cpp:406] bn2b_branch2a <- res2b_branch2a
I0316 15:25:44.300966 30454 net.cpp:367] bn2b_branch2a -> res2b_branch2a (in-place)
I0316 15:25:44.300976 30454 net.cpp:122] Setting up bn2b_branch2a
I0316 15:25:44.300981 30454 net.cpp:129] Top shape: 64 64 2 2 (16384)
I0316 15:25:44.300988 30454 net.cpp:137] Memory required for data: 4559872
I0316 15:25:44.300997 30454 layer_factory.hpp:77] Creating layer scale2b_branch2a
I0316 15:25:44.301003 30454 net.cpp:84] Creating Layer scale2b_branch2a
I0316 15:25:44.301007 30454 net.cpp:406] scale2b_branch2a <- res2b_branch2a
I0316 15:25:44.301012 30454 net.cpp:367] scale2b_branch2a -> res2b_branch2a (in-place)
I0316 15:25:44.301021 30454 layer_factory.hpp:77] Creating layer scale2b_branch2a
I0316 15:25:44.301031 30454 net.cpp:122] Setting up scale2b_branch2a
I0316 15:25:44.301036 30454 net.cpp:129] Top shape: 64 64 2 2 (16384)
I0316 15:25:44.301039 30454 net.cpp:137] Memory required for data: 4625408
I0316 15:25:44.301044 30454 layer_factory.hpp:77] Creating layer res2b_branch2a_relu
I0316 15:25:44.301048 30454 net.cpp:84] Creating Layer res2b_branch2a_relu
I0316 15:25:44.301053 30454 net.cpp:406] res2b_branch2a_relu <- res2b_branch2a
I0316 15:25:44.301056 30454 net.cpp:367] res2b_branch2a_relu -> res2b_branch2a (in-place)
I0316 15:25:44.301062 30454 net.cpp:122] Setting up res2b_branch2a_relu
I0316 15:25:44.301066 30454 net.cpp:129] Top shape: 64 64 2 2 (16384)
I0316 15:25:44.301070 30454 net.cpp:137] Memory required for data: 4690944
I0316 15:25:44.301074 30454 layer_factory.hpp:77] Creating layer res2b_branch2b
I0316 15:25:44.301079 30454 net.cpp:84] Creating Layer res2b_branch2b
I0316 15:25:44.301082 30454 net.cpp:406] res2b_branch2b <- res2b_branch2a
I0316 15:25:44.301089 30454 net.cpp:380] res2b_branch2b -> res2b_branch2b
I0316 15:25:44.301440 30454 net.cpp:122] Setting up res2b_branch2b
I0316 15:25:44.301446 30454 net.cpp:129] Top shape: 64 64 2 2 (16384)
I0316 15:25:44.301450 30454 net.cpp:137] Memory required for data: 4756480
I0316 15:25:44.301455 30454 layer_factory.hpp:77] Creating layer bn2b_branch2b
I0316 15:25:44.301460 30454 net.cpp:84] Creating Layer bn2b_branch2b
I0316 15:25:44.301465 30454 net.cpp:406] bn2b_branch2b <- res2b_branch2b
I0316 15:25:44.301468 30454 net.cpp:367] bn2b_branch2b -> res2b_branch2b (in-place)
I0316 15:25:44.301481 30454 net.cpp:122] Setting up bn2b_branch2b
I0316 15:25:44.301486 30454 net.cpp:129] Top shape: 64 64 2 2 (16384)
I0316 15:25:44.301488 30454 net.cpp:137] Memory required for data: 4822016
I0316 15:25:44.301493 30454 layer_factory.hpp:77] Creating layer scale2b_branch2b
I0316 15:25:44.301501 30454 net.cpp:84] Creating Layer scale2b_branch2b
I0316 15:25:44.301504 30454 net.cpp:406] scale2b_branch2b <- res2b_branch2b
I0316 15:25:44.301508 30454 net.cpp:367] scale2b_branch2b -> res2b_branch2b (in-place)
I0316 15:25:44.301515 30454 layer_factory.hpp:77] Creating layer scale2b_branch2b
I0316 15:25:44.301527 30454 net.cpp:122] Setting up scale2b_branch2b
I0316 15:25:44.301532 30454 net.cpp:129] Top shape: 64 64 2 2 (16384)
I0316 15:25:44.301534 30454 net.cpp:137] Memory required for data: 4887552
I0316 15:25:44.301539 30454 layer_factory.hpp:77] Creating layer res2b_branch2b_relu
I0316 15:25:44.301544 30454 net.cpp:84] Creating Layer res2b_branch2b_relu
I0316 15:25:44.301548 30454 net.cpp:406] res2b_branch2b_relu <- res2b_branch2b
I0316 15:25:44.301553 30454 net.cpp:367] res2b_branch2b_relu -> res2b_branch2b (in-place)
I0316 15:25:44.301556 30454 net.cpp:122] Setting up res2b_branch2b_relu
I0316 15:25:44.301561 30454 net.cpp:129] Top shape: 64 64 2 2 (16384)
I0316 15:25:44.301564 30454 net.cpp:137] Memory required for data: 4953088
I0316 15:25:44.301568 30454 layer_factory.hpp:77] Creating layer res2b_branch2c
I0316 15:25:44.301578 30454 net.cpp:84] Creating Layer res2b_branch2c
I0316 15:25:44.301581 30454 net.cpp:406] res2b_branch2c <- res2b_branch2b
I0316 15:25:44.301586 30454 net.cpp:380] res2b_branch2c -> res2b_branch2c
I0316 15:25:44.301738 30454 net.cpp:122] Setting up res2b_branch2c
I0316 15:25:44.301744 30454 net.cpp:129] Top shape: 64 256 2 2 (65536)
I0316 15:25:44.301748 30454 net.cpp:137] Memory required for data: 5215232
I0316 15:25:44.301753 30454 layer_factory.hpp:77] Creating layer bn2b_branch2c
I0316 15:25:44.301759 30454 net.cpp:84] Creating Layer bn2b_branch2c
I0316 15:25:44.301765 30454 net.cpp:406] bn2b_branch2c <- res2b_branch2c
I0316 15:25:44.301769 30454 net.cpp:367] bn2b_branch2c -> res2b_branch2c (in-place)
I0316 15:25:44.301781 30454 net.cpp:122] Setting up bn2b_branch2c
I0316 15:25:44.301785 30454 net.cpp:129] Top shape: 64 256 2 2 (65536)
I0316 15:25:44.301789 30454 net.cpp:137] Memory required for data: 5477376
I0316 15:25:44.301795 30454 layer_factory.hpp:77] Creating layer scale2b_branch2c
I0316 15:25:44.301801 30454 net.cpp:84] Creating Layer scale2b_branch2c
I0316 15:25:44.301805 30454 net.cpp:406] scale2b_branch2c <- res2b_branch2c
I0316 15:25:44.301810 30454 net.cpp:367] scale2b_branch2c -> res2b_branch2c (in-place)
I0316 15:25:44.301818 30454 layer_factory.hpp:77] Creating layer scale2b_branch2c
I0316 15:25:44.301833 30454 net.cpp:122] Setting up scale2b_branch2c
I0316 15:25:44.301838 30454 net.cpp:129] Top shape: 64 256 2 2 (65536)
I0316 15:25:44.301841 30454 net.cpp:137] Memory required for data: 5739520
I0316 15:25:44.301846 30454 layer_factory.hpp:77] Creating layer res2b
I0316 15:25:44.301852 30454 net.cpp:84] Creating Layer res2b
I0316 15:25:44.301856 30454 net.cpp:406] res2b <- res2a_res2a_relu_0_split_1
I0316 15:25:44.301859 30454 net.cpp:406] res2b <- res2b_branch2c
I0316 15:25:44.301865 30454 net.cpp:380] res2b -> res2b
I0316 15:25:44.301873 30454 net.cpp:122] Setting up res2b
I0316 15:25:44.301879 30454 net.cpp:129] Top shape: 64 256 2 2 (65536)
I0316 15:25:44.301882 30454 net.cpp:137] Memory required for data: 6001664
I0316 15:25:44.301885 30454 layer_factory.hpp:77] Creating layer res2b_relu
I0316 15:25:44.301890 30454 net.cpp:84] Creating Layer res2b_relu
I0316 15:25:44.301893 30454 net.cpp:406] res2b_relu <- res2b
I0316 15:25:44.301898 30454 net.cpp:367] res2b_relu -> res2b (in-place)
I0316 15:25:44.301903 30454 net.cpp:122] Setting up res2b_relu
I0316 15:25:44.301908 30454 net.cpp:129] Top shape: 64 256 2 2 (65536)
I0316 15:25:44.301911 30454 net.cpp:137] Memory required for data: 6263808
I0316 15:25:44.301914 30454 layer_factory.hpp:77] Creating layer res2b_res2b_relu_0_split
I0316 15:25:44.301918 30454 net.cpp:84] Creating Layer res2b_res2b_relu_0_split
I0316 15:25:44.301923 30454 net.cpp:406] res2b_res2b_relu_0_split <- res2b
I0316 15:25:44.301928 30454 net.cpp:380] res2b_res2b_relu_0_split -> res2b_res2b_relu_0_split_0
I0316 15:25:44.301934 30454 net.cpp:380] res2b_res2b_relu_0_split -> res2b_res2b_relu_0_split_1
I0316 15:25:44.301939 30454 net.cpp:122] Setting up res2b_res2b_relu_0_split
I0316 15:25:44.301945 30454 net.cpp:129] Top shape: 64 256 2 2 (65536)
I0316 15:25:44.301949 30454 net.cpp:129] Top shape: 64 256 2 2 (65536)
I0316 15:25:44.301952 30454 net.cpp:137] Memory required for data: 6788096
I0316 15:25:44.301955 30454 layer_factory.hpp:77] Creating layer res2c_branch2a
I0316 15:25:44.301962 30454 net.cpp:84] Creating Layer res2c_branch2a
I0316 15:25:44.301966 30454 net.cpp:406] res2c_branch2a <- res2b_res2b_relu_0_split_0
I0316 15:25:44.301973 30454 net.cpp:380] res2c_branch2a -> res2c_branch2a
I0316 15:25:44.302125 30454 net.cpp:122] Setting up res2c_branch2a
I0316 15:25:44.302131 30454 net.cpp:129] Top shape: 64 64 2 2 (16384)
I0316 15:25:44.302134 30454 net.cpp:137] Memory required for data: 6853632
I0316 15:25:44.302139 30454 layer_factory.hpp:77] Creating layer bn2c_branch2a
I0316 15:25:44.302142 30454 net.cpp:84] Creating Layer bn2c_branch2a
I0316 15:25:44.302147 30454 net.cpp:406] bn2c_branch2a <- res2c_branch2a
I0316 15:25:44.302152 30454 net.cpp:367] bn2c_branch2a -> res2c_branch2a (in-place)
I0316 15:25:44.302165 30454 net.cpp:122] Setting up bn2c_branch2a
I0316 15:25:44.302168 30454 net.cpp:129] Top shape: 64 64 2 2 (16384)
I0316 15:25:44.302172 30454 net.cpp:137] Memory required for data: 6919168
I0316 15:25:44.302177 30454 layer_factory.hpp:77] Creating layer scale2c_branch2a
I0316 15:25:44.302182 30454 net.cpp:84] Creating Layer scale2c_branch2a
I0316 15:25:44.302186 30454 net.cpp:406] scale2c_branch2a <- res2c_branch2a
I0316 15:25:44.302191 30454 net.cpp:367] scale2c_branch2a -> res2c_branch2a (in-place)
I0316 15:25:44.302198 30454 layer_factory.hpp:77] Creating layer scale2c_branch2a
I0316 15:25:44.302211 30454 net.cpp:122] Setting up scale2c_branch2a
I0316 15:25:44.302215 30454 net.cpp:129] Top shape: 64 64 2 2 (16384)
I0316 15:25:44.302219 30454 net.cpp:137] Memory required for data: 6984704
I0316 15:25:44.302224 30454 layer_factory.hpp:77] Creating layer res2c_branch2a_relu
I0316 15:25:44.302228 30454 net.cpp:84] Creating Layer res2c_branch2a_relu
I0316 15:25:44.302232 30454 net.cpp:406] res2c_branch2a_relu <- res2c_branch2a
I0316 15:25:44.302239 30454 net.cpp:367] res2c_branch2a_relu -> res2c_branch2a (in-place)
I0316 15:25:44.302244 30454 net.cpp:122] Setting up res2c_branch2a_relu
I0316 15:25:44.302249 30454 net.cpp:129] Top shape: 64 64 2 2 (16384)
I0316 15:25:44.302253 30454 net.cpp:137] Memory required for data: 7050240
I0316 15:25:44.302255 30454 layer_factory.hpp:77] Creating layer res2c_branch2b
I0316 15:25:44.302261 30454 net.cpp:84] Creating Layer res2c_branch2b
I0316 15:25:44.302264 30454 net.cpp:406] res2c_branch2b <- res2c_branch2a
I0316 15:25:44.302270 30454 net.cpp:380] res2c_branch2b -> res2c_branch2b
I0316 15:25:44.302608 30454 net.cpp:122] Setting up res2c_branch2b
I0316 15:25:44.302613 30454 net.cpp:129] Top shape: 64 64 2 2 (16384)
I0316 15:25:44.302618 30454 net.cpp:137] Memory required for data: 7115776
I0316 15:25:44.302621 30454 layer_factory.hpp:77] Creating layer bn2c_branch2b
I0316 15:25:44.302626 30454 net.cpp:84] Creating Layer bn2c_branch2b
I0316 15:25:44.302630 30454 net.cpp:406] bn2c_branch2b <- res2c_branch2b
I0316 15:25:44.302634 30454 net.cpp:367] bn2c_branch2b -> res2c_branch2b (in-place)
I0316 15:25:44.302644 30454 net.cpp:122] Setting up bn2c_branch2b
I0316 15:25:44.302649 30454 net.cpp:129] Top shape: 64 64 2 2 (16384)
I0316 15:25:44.302652 30454 net.cpp:137] Memory required for data: 7181312
I0316 15:25:44.302657 30454 layer_factory.hpp:77] Creating layer scale2c_branch2b
I0316 15:25:44.302664 30454 net.cpp:84] Creating Layer scale2c_branch2b
I0316 15:25:44.302666 30454 net.cpp:406] scale2c_branch2b <- res2c_branch2b
I0316 15:25:44.302670 30454 net.cpp:367] scale2c_branch2b -> res2c_branch2b (in-place)
I0316 15:25:44.302677 30454 layer_factory.hpp:77] Creating layer scale2c_branch2b
I0316 15:25:44.302687 30454 net.cpp:122] Setting up scale2c_branch2b
I0316 15:25:44.302692 30454 net.cpp:129] Top shape: 64 64 2 2 (16384)
I0316 15:25:44.302695 30454 net.cpp:137] Memory required for data: 7246848
I0316 15:25:44.302700 30454 layer_factory.hpp:77] Creating layer res2c_branch2b_relu
I0316 15:25:44.302706 30454 net.cpp:84] Creating Layer res2c_branch2b_relu
I0316 15:25:44.302709 30454 net.cpp:406] res2c_branch2b_relu <- res2c_branch2b
I0316 15:25:44.302713 30454 net.cpp:367] res2c_branch2b_relu -> res2c_branch2b (in-place)
I0316 15:25:44.302717 30454 net.cpp:122] Setting up res2c_branch2b_relu
I0316 15:25:44.302721 30454 net.cpp:129] Top shape: 64 64 2 2 (16384)
I0316 15:25:44.302724 30454 net.cpp:137] Memory required for data: 7312384
I0316 15:25:44.302727 30454 layer_factory.hpp:77] Creating layer res2c_branch2c
I0316 15:25:44.302733 30454 net.cpp:84] Creating Layer res2c_branch2c
I0316 15:25:44.302737 30454 net.cpp:406] res2c_branch2c <- res2c_branch2b
I0316 15:25:44.302742 30454 net.cpp:380] res2c_branch2c -> res2c_branch2c
I0316 15:25:44.302893 30454 net.cpp:122] Setting up res2c_branch2c
I0316 15:25:44.302899 30454 net.cpp:129] Top shape: 64 256 2 2 (65536)
I0316 15:25:44.302903 30454 net.cpp:137] Memory required for data: 7574528
I0316 15:25:44.302907 30454 layer_factory.hpp:77] Creating layer bn2c_branch2c
I0316 15:25:44.302911 30454 net.cpp:84] Creating Layer bn2c_branch2c
I0316 15:25:44.302914 30454 net.cpp:406] bn2c_branch2c <- res2c_branch2c
I0316 15:25:44.302919 30454 net.cpp:367] bn2c_branch2c -> res2c_branch2c (in-place)
I0316 15:25:44.302932 30454 net.cpp:122] Setting up bn2c_branch2c
I0316 15:25:44.302937 30454 net.cpp:129] Top shape: 64 256 2 2 (65536)
I0316 15:25:44.302940 30454 net.cpp:137] Memory required for data: 7836672
I0316 15:25:44.302951 30454 layer_factory.hpp:77] Creating layer scale2c_branch2c
I0316 15:25:44.302960 30454 net.cpp:84] Creating Layer scale2c_branch2c
I0316 15:25:44.302963 30454 net.cpp:406] scale2c_branch2c <- res2c_branch2c
I0316 15:25:44.302968 30454 net.cpp:367] scale2c_branch2c -> res2c_branch2c (in-place)
I0316 15:25:44.302976 30454 layer_factory.hpp:77] Creating layer scale2c_branch2c
I0316 15:25:44.302989 30454 net.cpp:122] Setting up scale2c_branch2c
I0316 15:25:44.302994 30454 net.cpp:129] Top shape: 64 256 2 2 (65536)
I0316 15:25:44.302996 30454 net.cpp:137] Memory required for data: 8098816
I0316 15:25:44.303001 30454 layer_factory.hpp:77] Creating layer res2c
I0316 15:25:44.303006 30454 net.cpp:84] Creating Layer res2c
I0316 15:25:44.303009 30454 net.cpp:406] res2c <- res2b_res2b_relu_0_split_1
I0316 15:25:44.303014 30454 net.cpp:406] res2c <- res2c_branch2c
I0316 15:25:44.303019 30454 net.cpp:380] res2c -> res2c
I0316 15:25:44.303025 30454 net.cpp:122] Setting up res2c
I0316 15:25:44.303030 30454 net.cpp:129] Top shape: 64 256 2 2 (65536)
I0316 15:25:44.303032 30454 net.cpp:137] Memory required for data: 8360960
I0316 15:25:44.303035 30454 layer_factory.hpp:77] Creating layer res2c_relu
I0316 15:25:44.303040 30454 net.cpp:84] Creating Layer res2c_relu
I0316 15:25:44.303042 30454 net.cpp:406] res2c_relu <- res2c
I0316 15:25:44.303047 30454 net.cpp:367] res2c_relu -> res2c (in-place)
I0316 15:25:44.303052 30454 net.cpp:122] Setting up res2c_relu
I0316 15:25:44.303057 30454 net.cpp:129] Top shape: 64 256 2 2 (65536)
I0316 15:25:44.303061 30454 net.cpp:137] Memory required for data: 8623104
I0316 15:25:44.303063 30454 layer_factory.hpp:77] Creating layer res2c_res2c_relu_0_split
I0316 15:25:44.303067 30454 net.cpp:84] Creating Layer res2c_res2c_relu_0_split
I0316 15:25:44.303071 30454 net.cpp:406] res2c_res2c_relu_0_split <- res2c
I0316 15:25:44.303076 30454 net.cpp:380] res2c_res2c_relu_0_split -> res2c_res2c_relu_0_split_0
I0316 15:25:44.303081 30454 net.cpp:380] res2c_res2c_relu_0_split -> res2c_res2c_relu_0_split_1
I0316 15:25:44.303086 30454 net.cpp:122] Setting up res2c_res2c_relu_0_split
I0316 15:25:44.303092 30454 net.cpp:129] Top shape: 64 256 2 2 (65536)
I0316 15:25:44.303095 30454 net.cpp:129] Top shape: 64 256 2 2 (65536)
I0316 15:25:44.303098 30454 net.cpp:137] Memory required for data: 9147392
I0316 15:25:44.303102 30454 layer_factory.hpp:77] Creating layer res3a_branch1
I0316 15:25:44.303107 30454 net.cpp:84] Creating Layer res3a_branch1
I0316 15:25:44.303110 30454 net.cpp:406] res3a_branch1 <- res2c_res2c_relu_0_split_0
I0316 15:25:44.303115 30454 net.cpp:380] res3a_branch1 -> res3a_branch1
I0316 15:25:44.304278 30454 net.cpp:122] Setting up res3a_branch1
I0316 15:25:44.304286 30454 net.cpp:129] Top shape: 64 512 1 1 (32768)
I0316 15:25:44.304288 30454 net.cpp:137] Memory required for data: 9278464
I0316 15:25:44.304292 30454 layer_factory.hpp:77] Creating layer bn3a_branch1
I0316 15:25:44.304298 30454 net.cpp:84] Creating Layer bn3a_branch1
I0316 15:25:44.304302 30454 net.cpp:406] bn3a_branch1 <- res3a_branch1
I0316 15:25:44.304306 30454 net.cpp:367] bn3a_branch1 -> res3a_branch1 (in-place)
I0316 15:25:44.304318 30454 net.cpp:122] Setting up bn3a_branch1
I0316 15:25:44.304322 30454 net.cpp:129] Top shape: 64 512 1 1 (32768)
I0316 15:25:44.304327 30454 net.cpp:137] Memory required for data: 9409536
I0316 15:25:44.304332 30454 layer_factory.hpp:77] Creating layer scale3a_branch1
I0316 15:25:44.304337 30454 net.cpp:84] Creating Layer scale3a_branch1
I0316 15:25:44.304340 30454 net.cpp:406] scale3a_branch1 <- res3a_branch1
I0316 15:25:44.304344 30454 net.cpp:367] scale3a_branch1 -> res3a_branch1 (in-place)
I0316 15:25:44.304353 30454 layer_factory.hpp:77] Creating layer scale3a_branch1
I0316 15:25:44.304364 30454 net.cpp:122] Setting up scale3a_branch1
I0316 15:25:44.304369 30454 net.cpp:129] Top shape: 64 512 1 1 (32768)
I0316 15:25:44.304373 30454 net.cpp:137] Memory required for data: 9540608
I0316 15:25:44.304378 30454 layer_factory.hpp:77] Creating layer res3a_branch2a
I0316 15:25:44.304383 30454 net.cpp:84] Creating Layer res3a_branch2a
I0316 15:25:44.304389 30454 net.cpp:406] res3a_branch2a <- res2c_res2c_relu_0_split_1
I0316 15:25:44.304395 30454 net.cpp:380] res3a_branch2a -> res3a_branch2a
I0316 15:25:44.304695 30454 net.cpp:122] Setting up res3a_branch2a
I0316 15:25:44.304702 30454 net.cpp:129] Top shape: 64 128 1 1 (8192)
I0316 15:25:44.304707 30454 net.cpp:137] Memory required for data: 9573376
I0316 15:25:44.304710 30454 layer_factory.hpp:77] Creating layer bn3a_branch2a
I0316 15:25:44.304715 30454 net.cpp:84] Creating Layer bn3a_branch2a
I0316 15:25:44.304718 30454 net.cpp:406] bn3a_branch2a <- res3a_branch2a
I0316 15:25:44.304723 30454 net.cpp:367] bn3a_branch2a -> res3a_branch2a (in-place)
I0316 15:25:44.304734 30454 net.cpp:122] Setting up bn3a_branch2a
I0316 15:25:44.304739 30454 net.cpp:129] Top shape: 64 128 1 1 (8192)
I0316 15:25:44.304742 30454 net.cpp:137] Memory required for data: 9606144
I0316 15:25:44.304747 30454 layer_factory.hpp:77] Creating layer scale3a_branch2a
I0316 15:25:44.304752 30454 net.cpp:84] Creating Layer scale3a_branch2a
I0316 15:25:44.304757 30454 net.cpp:406] scale3a_branch2a <- res3a_branch2a
I0316 15:25:44.304761 30454 net.cpp:367] scale3a_branch2a -> res3a_branch2a (in-place)
I0316 15:25:44.304767 30454 layer_factory.hpp:77] Creating layer scale3a_branch2a
I0316 15:25:44.304778 30454 net.cpp:122] Setting up scale3a_branch2a
I0316 15:25:44.304783 30454 net.cpp:129] Top shape: 64 128 1 1 (8192)
I0316 15:25:44.304786 30454 net.cpp:137] Memory required for data: 9638912
I0316 15:25:44.304790 30454 layer_factory.hpp:77] Creating layer res3a_branch2a_relu
I0316 15:25:44.304795 30454 net.cpp:84] Creating Layer res3a_branch2a_relu
I0316 15:25:44.304798 30454 net.cpp:406] res3a_branch2a_relu <- res3a_branch2a
I0316 15:25:44.304803 30454 net.cpp:367] res3a_branch2a_relu -> res3a_branch2a (in-place)
I0316 15:25:44.304808 30454 net.cpp:122] Setting up res3a_branch2a_relu
I0316 15:25:44.304812 30454 net.cpp:129] Top shape: 64 128 1 1 (8192)
I0316 15:25:44.304816 30454 net.cpp:137] Memory required for data: 9671680
I0316 15:25:44.304818 30454 layer_factory.hpp:77] Creating layer res3a_branch2b
I0316 15:25:44.304826 30454 net.cpp:84] Creating Layer res3a_branch2b
I0316 15:25:44.304829 30454 net.cpp:406] res3a_branch2b <- res3a_branch2a
I0316 15:25:44.304833 30454 net.cpp:380] res3a_branch2b -> res3a_branch2b
I0316 15:25:44.306318 30454 net.cpp:122] Setting up res3a_branch2b
I0316 15:25:44.306355 30454 net.cpp:129] Top shape: 64 128 1 1 (8192)
I0316 15:25:44.306360 30454 net.cpp:137] Memory required for data: 9704448
I0316 15:25:44.306367 30454 layer_factory.hpp:77] Creating layer bn3a_branch2b
I0316 15:25:44.306377 30454 net.cpp:84] Creating Layer bn3a_branch2b
I0316 15:25:44.306381 30454 net.cpp:406] bn3a_branch2b <- res3a_branch2b
I0316 15:25:44.306390 30454 net.cpp:367] bn3a_branch2b -> res3a_branch2b (in-place)
I0316 15:25:44.306408 30454 net.cpp:122] Setting up bn3a_branch2b
I0316 15:25:44.306413 30454 net.cpp:129] Top shape: 64 128 1 1 (8192)
I0316 15:25:44.306417 30454 net.cpp:137] Memory required for data: 9737216
I0316 15:25:44.306423 30454 layer_factory.hpp:77] Creating layer scale3a_branch2b
I0316 15:25:44.306430 30454 net.cpp:84] Creating Layer scale3a_branch2b
I0316 15:25:44.306433 30454 net.cpp:406] scale3a_branch2b <- res3a_branch2b
I0316 15:25:44.306442 30454 net.cpp:367] scale3a_branch2b -> res3a_branch2b (in-place)
I0316 15:25:44.306452 30454 layer_factory.hpp:77] Creating layer scale3a_branch2b
I0316 15:25:44.306468 30454 net.cpp:122] Setting up scale3a_branch2b
I0316 15:25:44.306481 30454 net.cpp:129] Top shape: 64 128 1 1 (8192)
I0316 15:25:44.306484 30454 net.cpp:137] Memory required for data: 9769984
I0316 15:25:44.306489 30454 layer_factory.hpp:77] Creating layer res3a_branch2b_relu
I0316 15:25:44.306499 30454 net.cpp:84] Creating Layer res3a_branch2b_relu
I0316 15:25:44.306501 30454 net.cpp:406] res3a_branch2b_relu <- res3a_branch2b
I0316 15:25:44.306506 30454 net.cpp:367] res3a_branch2b_relu -> res3a_branch2b (in-place)
I0316 15:25:44.306511 30454 net.cpp:122] Setting up res3a_branch2b_relu
I0316 15:25:44.306516 30454 net.cpp:129] Top shape: 64 128 1 1 (8192)
I0316 15:25:44.306524 30454 net.cpp:137] Memory required for data: 9802752
I0316 15:25:44.306526 30454 layer_factory.hpp:77] Creating layer res3a_branch2c
I0316 15:25:44.306535 30454 net.cpp:84] Creating Layer res3a_branch2c
I0316 15:25:44.306537 30454 net.cpp:406] res3a_branch2c <- res3a_branch2b
I0316 15:25:44.306542 30454 net.cpp:380] res3a_branch2c -> res3a_branch2c
I0316 15:25:44.307142 30454 net.cpp:122] Setting up res3a_branch2c
I0316 15:25:44.307152 30454 net.cpp:129] Top shape: 64 512 1 1 (32768)
I0316 15:25:44.307154 30454 net.cpp:137] Memory required for data: 9933824
I0316 15:25:44.307158 30454 layer_factory.hpp:77] Creating layer bn3a_branch2c
I0316 15:25:44.307170 30454 net.cpp:84] Creating Layer bn3a_branch2c
I0316 15:25:44.307174 30454 net.cpp:406] bn3a_branch2c <- res3a_branch2c
I0316 15:25:44.307178 30454 net.cpp:367] bn3a_branch2c -> res3a_branch2c (in-place)
I0316 15:25:44.307190 30454 net.cpp:122] Setting up bn3a_branch2c
I0316 15:25:44.307194 30454 net.cpp:129] Top shape: 64 512 1 1 (32768)
I0316 15:25:44.307198 30454 net.cpp:137] Memory required for data: 10064896
I0316 15:25:44.307204 30454 layer_factory.hpp:77] Creating layer scale3a_branch2c
I0316 15:25:44.307207 30454 net.cpp:84] Creating Layer scale3a_branch2c
I0316 15:25:44.307210 30454 net.cpp:406] scale3a_branch2c <- res3a_branch2c
I0316 15:25:44.307215 30454 net.cpp:367] scale3a_branch2c -> res3a_branch2c (in-place)
I0316 15:25:44.307224 30454 layer_factory.hpp:77] Creating layer scale3a_branch2c
I0316 15:25:44.307235 30454 net.cpp:122] Setting up scale3a_branch2c
I0316 15:25:44.307240 30454 net.cpp:129] Top shape: 64 512 1 1 (32768)
I0316 15:25:44.307242 30454 net.cpp:137] Memory required for data: 10195968
I0316 15:25:44.307246 30454 layer_factory.hpp:77] Creating layer res3a
I0316 15:25:44.307252 30454 net.cpp:84] Creating Layer res3a
I0316 15:25:44.307255 30454 net.cpp:406] res3a <- res3a_branch1
I0316 15:25:44.307260 30454 net.cpp:406] res3a <- res3a_branch2c
I0316 15:25:44.307265 30454 net.cpp:380] res3a -> res3a
I0316 15:25:44.307271 30454 net.cpp:122] Setting up res3a
I0316 15:25:44.307276 30454 net.cpp:129] Top shape: 64 512 1 1 (32768)
I0316 15:25:44.307278 30454 net.cpp:137] Memory required for data: 10327040
I0316 15:25:44.307281 30454 layer_factory.hpp:77] Creating layer res3a_relu
I0316 15:25:44.307286 30454 net.cpp:84] Creating Layer res3a_relu
I0316 15:25:44.307288 30454 net.cpp:406] res3a_relu <- res3a
I0316 15:25:44.307293 30454 net.cpp:367] res3a_relu -> res3a (in-place)
I0316 15:25:44.307297 30454 net.cpp:122] Setting up res3a_relu
I0316 15:25:44.307301 30454 net.cpp:129] Top shape: 64 512 1 1 (32768)
I0316 15:25:44.307304 30454 net.cpp:137] Memory required for data: 10458112
I0316 15:25:44.307307 30454 layer_factory.hpp:77] Creating layer res3a_res3a_relu_0_split
I0316 15:25:44.307313 30454 net.cpp:84] Creating Layer res3a_res3a_relu_0_split
I0316 15:25:44.307317 30454 net.cpp:406] res3a_res3a_relu_0_split <- res3a
I0316 15:25:44.307322 30454 net.cpp:380] res3a_res3a_relu_0_split -> res3a_res3a_relu_0_split_0
I0316 15:25:44.307327 30454 net.cpp:380] res3a_res3a_relu_0_split -> res3a_res3a_relu_0_split_1
I0316 15:25:44.307332 30454 net.cpp:122] Setting up res3a_res3a_relu_0_split
I0316 15:25:44.307335 30454 net.cpp:129] Top shape: 64 512 1 1 (32768)
I0316 15:25:44.307339 30454 net.cpp:129] Top shape: 64 512 1 1 (32768)
I0316 15:25:44.307343 30454 net.cpp:137] Memory required for data: 10720256
I0316 15:25:44.307346 30454 layer_factory.hpp:77] Creating layer res3b_branch2a
I0316 15:25:44.307351 30454 net.cpp:84] Creating Layer res3b_branch2a
I0316 15:25:44.307354 30454 net.cpp:406] res3b_branch2a <- res3a_res3a_relu_0_split_0
I0316 15:25:44.307360 30454 net.cpp:380] res3b_branch2a -> res3b_branch2a
I0316 15:25:44.308022 30454 net.cpp:122] Setting up res3b_branch2a
I0316 15:25:44.308029 30454 net.cpp:129] Top shape: 64 128 1 1 (8192)
I0316 15:25:44.308032 30454 net.cpp:137] Memory required for data: 10753024
I0316 15:25:44.308037 30454 layer_factory.hpp:77] Creating layer bn3b_branch2a
I0316 15:25:44.308043 30454 net.cpp:84] Creating Layer bn3b_branch2a
I0316 15:25:44.308048 30454 net.cpp:406] bn3b_branch2a <- res3b_branch2a
I0316 15:25:44.308053 30454 net.cpp:367] bn3b_branch2a -> res3b_branch2a (in-place)
I0316 15:25:44.308063 30454 net.cpp:122] Setting up bn3b_branch2a
I0316 15:25:44.308068 30454 net.cpp:129] Top shape: 64 128 1 1 (8192)
I0316 15:25:44.308071 30454 net.cpp:137] Memory required for data: 10785792
I0316 15:25:44.308076 30454 layer_factory.hpp:77] Creating layer scale3b_branch2a
I0316 15:25:44.308082 30454 net.cpp:84] Creating Layer scale3b_branch2a
I0316 15:25:44.308085 30454 net.cpp:406] scale3b_branch2a <- res3b_branch2a
I0316 15:25:44.308089 30454 net.cpp:367] scale3b_branch2a -> res3b_branch2a (in-place)
I0316 15:25:44.308097 30454 layer_factory.hpp:77] Creating layer scale3b_branch2a
I0316 15:25:44.308106 30454 net.cpp:122] Setting up scale3b_branch2a
I0316 15:25:44.308112 30454 net.cpp:129] Top shape: 64 128 1 1 (8192)
I0316 15:25:44.308115 30454 net.cpp:137] Memory required for data: 10818560
I0316 15:25:44.308120 30454 layer_factory.hpp:77] Creating layer res3b_branch2a_relu
I0316 15:25:44.308123 30454 net.cpp:84] Creating Layer res3b_branch2a_relu
I0316 15:25:44.308127 30454 net.cpp:406] res3b_branch2a_relu <- res3b_branch2a
I0316 15:25:44.308130 30454 net.cpp:367] res3b_branch2a_relu -> res3b_branch2a (in-place)
I0316 15:25:44.308135 30454 net.cpp:122] Setting up res3b_branch2a_relu
I0316 15:25:44.308140 30454 net.cpp:129] Top shape: 64 128 1 1 (8192)
I0316 15:25:44.308142 30454 net.cpp:137] Memory required for data: 10851328
I0316 15:25:44.308145 30454 layer_factory.hpp:77] Creating layer res3b_branch2b
I0316 15:25:44.308151 30454 net.cpp:84] Creating Layer res3b_branch2b
I0316 15:25:44.308156 30454 net.cpp:406] res3b_branch2b <- res3b_branch2a
I0316 15:25:44.308161 30454 net.cpp:380] res3b_branch2b -> res3b_branch2b
I0316 15:25:44.309473 30454 net.cpp:122] Setting up res3b_branch2b
I0316 15:25:44.309480 30454 net.cpp:129] Top shape: 64 128 1 1 (8192)
I0316 15:25:44.309484 30454 net.cpp:137] Memory required for data: 10884096
I0316 15:25:44.309487 30454 layer_factory.hpp:77] Creating layer bn3b_branch2b
I0316 15:25:44.309491 30454 net.cpp:84] Creating Layer bn3b_branch2b
I0316 15:25:44.309495 30454 net.cpp:406] bn3b_branch2b <- res3b_branch2b
I0316 15:25:44.309500 30454 net.cpp:367] bn3b_branch2b -> res3b_branch2b (in-place)
I0316 15:25:44.309511 30454 net.cpp:122] Setting up bn3b_branch2b
I0316 15:25:44.309515 30454 net.cpp:129] Top shape: 64 128 1 1 (8192)
I0316 15:25:44.309518 30454 net.cpp:137] Memory required for data: 10916864
I0316 15:25:44.309525 30454 layer_factory.hpp:77] Creating layer scale3b_branch2b
I0316 15:25:44.309530 30454 net.cpp:84] Creating Layer scale3b_branch2b
I0316 15:25:44.309532 30454 net.cpp:406] scale3b_branch2b <- res3b_branch2b
I0316 15:25:44.309536 30454 net.cpp:367] scale3b_branch2b -> res3b_branch2b (in-place)
I0316 15:25:44.309545 30454 layer_factory.hpp:77] Creating layer scale3b_branch2b
I0316 15:25:44.309553 30454 net.cpp:122] Setting up scale3b_branch2b
I0316 15:25:44.309558 30454 net.cpp:129] Top shape: 64 128 1 1 (8192)
I0316 15:25:44.309561 30454 net.cpp:137] Memory required for data: 10949632
I0316 15:25:44.309566 30454 layer_factory.hpp:77] Creating layer res3b_branch2b_relu
I0316 15:25:44.309571 30454 net.cpp:84] Creating Layer res3b_branch2b_relu
I0316 15:25:44.309573 30454 net.cpp:406] res3b_branch2b_relu <- res3b_branch2b
I0316 15:25:44.309577 30454 net.cpp:367] res3b_branch2b_relu -> res3b_branch2b (in-place)
I0316 15:25:44.309582 30454 net.cpp:122] Setting up res3b_branch2b_relu
I0316 15:25:44.309587 30454 net.cpp:129] Top shape: 64 128 1 1 (8192)
I0316 15:25:44.309589 30454 net.cpp:137] Memory required for data: 10982400
I0316 15:25:44.309592 30454 layer_factory.hpp:77] Creating layer res3b_branch2c
I0316 15:25:44.309598 30454 net.cpp:84] Creating Layer res3b_branch2c
I0316 15:25:44.309602 30454 net.cpp:406] res3b_branch2c <- res3b_branch2b
I0316 15:25:44.309607 30454 net.cpp:380] res3b_branch2c -> res3b_branch2c
I0316 15:25:44.310191 30454 net.cpp:122] Setting up res3b_branch2c
I0316 15:25:44.310197 30454 net.cpp:129] Top shape: 64 512 1 1 (32768)
I0316 15:25:44.310200 30454 net.cpp:137] Memory required for data: 11113472
I0316 15:25:44.310204 30454 layer_factory.hpp:77] Creating layer bn3b_branch2c
I0316 15:25:44.310209 30454 net.cpp:84] Creating Layer bn3b_branch2c
I0316 15:25:44.310212 30454 net.cpp:406] bn3b_branch2c <- res3b_branch2c
I0316 15:25:44.310217 30454 net.cpp:367] bn3b_branch2c -> res3b_branch2c (in-place)
I0316 15:25:44.310228 30454 net.cpp:122] Setting up bn3b_branch2c
I0316 15:25:44.310233 30454 net.cpp:129] Top shape: 64 512 1 1 (32768)
I0316 15:25:44.310237 30454 net.cpp:137] Memory required for data: 11244544
I0316 15:25:44.310242 30454 layer_factory.hpp:77] Creating layer scale3b_branch2c
I0316 15:25:44.310246 30454 net.cpp:84] Creating Layer scale3b_branch2c
I0316 15:25:44.310250 30454 net.cpp:406] scale3b_branch2c <- res3b_branch2c
I0316 15:25:44.310256 30454 net.cpp:367] scale3b_branch2c -> res3b_branch2c (in-place)
I0316 15:25:44.310263 30454 layer_factory.hpp:77] Creating layer scale3b_branch2c
I0316 15:25:44.310273 30454 net.cpp:122] Setting up scale3b_branch2c
I0316 15:25:44.310277 30454 net.cpp:129] Top shape: 64 512 1 1 (32768)
I0316 15:25:44.310281 30454 net.cpp:137] Memory required for data: 11375616
I0316 15:25:44.310286 30454 layer_factory.hpp:77] Creating layer res3b
I0316 15:25:44.310292 30454 net.cpp:84] Creating Layer res3b
I0316 15:25:44.310294 30454 net.cpp:406] res3b <- res3a_res3a_relu_0_split_1
I0316 15:25:44.310298 30454 net.cpp:406] res3b <- res3b_branch2c
I0316 15:25:44.310303 30454 net.cpp:380] res3b -> res3b
I0316 15:25:44.310308 30454 net.cpp:122] Setting up res3b
I0316 15:25:44.310314 30454 net.cpp:129] Top shape: 64 512 1 1 (32768)
I0316 15:25:44.310317 30454 net.cpp:137] Memory required for data: 11506688
I0316 15:25:44.310320 30454 layer_factory.hpp:77] Creating layer res3b_relu
I0316 15:25:44.310325 30454 net.cpp:84] Creating Layer res3b_relu
I0316 15:25:44.310328 30454 net.cpp:406] res3b_relu <- res3b
I0316 15:25:44.310333 30454 net.cpp:367] res3b_relu -> res3b (in-place)
I0316 15:25:44.310338 30454 net.cpp:122] Setting up res3b_relu
I0316 15:25:44.310341 30454 net.cpp:129] Top shape: 64 512 1 1 (32768)
I0316 15:25:44.310344 30454 net.cpp:137] Memory required for data: 11637760
I0316 15:25:44.310348 30454 layer_factory.hpp:77] Creating layer res3b_res3b_relu_0_split
I0316 15:25:44.310351 30454 net.cpp:84] Creating Layer res3b_res3b_relu_0_split
I0316 15:25:44.310355 30454 net.cpp:406] res3b_res3b_relu_0_split <- res3b
I0316 15:25:44.310360 30454 net.cpp:380] res3b_res3b_relu_0_split -> res3b_res3b_relu_0_split_0
I0316 15:25:44.310365 30454 net.cpp:380] res3b_res3b_relu_0_split -> res3b_res3b_relu_0_split_1
I0316 15:25:44.310371 30454 net.cpp:122] Setting up res3b_res3b_relu_0_split
I0316 15:25:44.310375 30454 net.cpp:129] Top shape: 64 512 1 1 (32768)
I0316 15:25:44.310379 30454 net.cpp:129] Top shape: 64 512 1 1 (32768)
I0316 15:25:44.310382 30454 net.cpp:137] Memory required for data: 11899904
I0316 15:25:44.310385 30454 layer_factory.hpp:77] Creating layer res3c_branch2a
I0316 15:25:44.310390 30454 net.cpp:84] Creating Layer res3c_branch2a
I0316 15:25:44.310394 30454 net.cpp:406] res3c_branch2a <- res3b_res3b_relu_0_split_0
I0316 15:25:44.310400 30454 net.cpp:380] res3c_branch2a -> res3c_branch2a
I0316 15:25:44.310977 30454 net.cpp:122] Setting up res3c_branch2a
I0316 15:25:44.310983 30454 net.cpp:129] Top shape: 64 128 1 1 (8192)
I0316 15:25:44.310986 30454 net.cpp:137] Memory required for data: 11932672
I0316 15:25:44.310991 30454 layer_factory.hpp:77] Creating layer bn3c_branch2a
I0316 15:25:44.310994 30454 net.cpp:84] Creating Layer bn3c_branch2a
I0316 15:25:44.310997 30454 net.cpp:406] bn3c_branch2a <- res3c_branch2a
I0316 15:25:44.311002 30454 net.cpp:367] bn3c_branch2a -> res3c_branch2a (in-place)
I0316 15:25:44.311012 30454 net.cpp:122] Setting up bn3c_branch2a
I0316 15:25:44.311017 30454 net.cpp:129] Top shape: 64 128 1 1 (8192)
I0316 15:25:44.311019 30454 net.cpp:137] Memory required for data: 11965440
I0316 15:25:44.311028 30454 layer_factory.hpp:77] Creating layer scale3c_branch2a
I0316 15:25:44.311033 30454 net.cpp:84] Creating Layer scale3c_branch2a
I0316 15:25:44.311036 30454 net.cpp:406] scale3c_branch2a <- res3c_branch2a
I0316 15:25:44.311040 30454 net.cpp:367] scale3c_branch2a -> res3c_branch2a (in-place)
I0316 15:25:44.311048 30454 layer_factory.hpp:77] Creating layer scale3c_branch2a
I0316 15:25:44.311056 30454 net.cpp:122] Setting up scale3c_branch2a
I0316 15:25:44.311061 30454 net.cpp:129] Top shape: 64 128 1 1 (8192)
I0316 15:25:44.311064 30454 net.cpp:137] Memory required for data: 11998208
I0316 15:25:44.311069 30454 layer_factory.hpp:77] Creating layer res3c_branch2a_relu
I0316 15:25:44.311074 30454 net.cpp:84] Creating Layer res3c_branch2a_relu
I0316 15:25:44.311076 30454 net.cpp:406] res3c_branch2a_relu <- res3c_branch2a
I0316 15:25:44.311080 30454 net.cpp:367] res3c_branch2a_relu -> res3c_branch2a (in-place)
I0316 15:25:44.311084 30454 net.cpp:122] Setting up res3c_branch2a_relu
I0316 15:25:44.311089 30454 net.cpp:129] Top shape: 64 128 1 1 (8192)
I0316 15:25:44.311092 30454 net.cpp:137] Memory required for data: 12030976
I0316 15:25:44.311095 30454 layer_factory.hpp:77] Creating layer res3c_branch2b
I0316 15:25:44.311100 30454 net.cpp:84] Creating Layer res3c_branch2b
I0316 15:25:44.311103 30454 net.cpp:406] res3c_branch2b <- res3c_branch2a
I0316 15:25:44.311110 30454 net.cpp:380] res3c_branch2b -> res3c_branch2b
I0316 15:25:44.312351 30454 net.cpp:122] Setting up res3c_branch2b
I0316 15:25:44.312356 30454 net.cpp:129] Top shape: 64 128 1 1 (8192)
I0316 15:25:44.312361 30454 net.cpp:137] Memory required for data: 12063744
I0316 15:25:44.312363 30454 layer_factory.hpp:77] Creating layer bn3c_branch2b
I0316 15:25:44.312367 30454 net.cpp:84] Creating Layer bn3c_branch2b
I0316 15:25:44.312371 30454 net.cpp:406] bn3c_branch2b <- res3c_branch2b
I0316 15:25:44.312376 30454 net.cpp:367] bn3c_branch2b -> res3c_branch2b (in-place)
I0316 15:25:44.312386 30454 net.cpp:122] Setting up bn3c_branch2b
I0316 15:25:44.312391 30454 net.cpp:129] Top shape: 64 128 1 1 (8192)
I0316 15:25:44.312393 30454 net.cpp:137] Memory required for data: 12096512
I0316 15:25:44.312399 30454 layer_factory.hpp:77] Creating layer scale3c_branch2b
I0316 15:25:44.312405 30454 net.cpp:84] Creating Layer scale3c_branch2b
I0316 15:25:44.312409 30454 net.cpp:406] scale3c_branch2b <- res3c_branch2b
I0316 15:25:44.312412 30454 net.cpp:367] scale3c_branch2b -> res3c_branch2b (in-place)
I0316 15:25:44.312420 30454 layer_factory.hpp:77] Creating layer scale3c_branch2b
I0316 15:25:44.312429 30454 net.cpp:122] Setting up scale3c_branch2b
I0316 15:25:44.312433 30454 net.cpp:129] Top shape: 64 128 1 1 (8192)
I0316 15:25:44.312436 30454 net.cpp:137] Memory required for data: 12129280
I0316 15:25:44.312441 30454 layer_factory.hpp:77] Creating layer res3c_branch2b_relu
I0316 15:25:44.312446 30454 net.cpp:84] Creating Layer res3c_branch2b_relu
I0316 15:25:44.312449 30454 net.cpp:406] res3c_branch2b_relu <- res3c_branch2b
I0316 15:25:44.312453 30454 net.cpp:367] res3c_branch2b_relu -> res3c_branch2b (in-place)
I0316 15:25:44.312458 30454 net.cpp:122] Setting up res3c_branch2b_relu
I0316 15:25:44.312461 30454 net.cpp:129] Top shape: 64 128 1 1 (8192)
I0316 15:25:44.312464 30454 net.cpp:137] Memory required for data: 12162048
I0316 15:25:44.312467 30454 layer_factory.hpp:77] Creating layer res3c_branch2c
I0316 15:25:44.312472 30454 net.cpp:84] Creating Layer res3c_branch2c
I0316 15:25:44.312476 30454 net.cpp:406] res3c_branch2c <- res3c_branch2b
I0316 15:25:44.312481 30454 net.cpp:380] res3c_branch2c -> res3c_branch2c
I0316 15:25:44.313035 30454 net.cpp:122] Setting up res3c_branch2c
I0316 15:25:44.313041 30454 net.cpp:129] Top shape: 64 512 1 1 (32768)
I0316 15:25:44.313045 30454 net.cpp:137] Memory required for data: 12293120
I0316 15:25:44.313048 30454 layer_factory.hpp:77] Creating layer bn3c_branch2c
I0316 15:25:44.313052 30454 net.cpp:84] Creating Layer bn3c_branch2c
I0316 15:25:44.313055 30454 net.cpp:406] bn3c_branch2c <- res3c_branch2c
I0316 15:25:44.313063 30454 net.cpp:367] bn3c_branch2c -> res3c_branch2c (in-place)
I0316 15:25:44.313074 30454 net.cpp:122] Setting up bn3c_branch2c
I0316 15:25:44.313081 30454 net.cpp:129] Top shape: 64 512 1 1 (32768)
I0316 15:25:44.313083 30454 net.cpp:137] Memory required for data: 12424192
I0316 15:25:44.313088 30454 layer_factory.hpp:77] Creating layer scale3c_branch2c
I0316 15:25:44.313092 30454 net.cpp:84] Creating Layer scale3c_branch2c
I0316 15:25:44.313096 30454 net.cpp:406] scale3c_branch2c <- res3c_branch2c
I0316 15:25:44.313100 30454 net.cpp:367] scale3c_branch2c -> res3c_branch2c (in-place)
I0316 15:25:44.313108 30454 layer_factory.hpp:77] Creating layer scale3c_branch2c
I0316 15:25:44.313118 30454 net.cpp:122] Setting up scale3c_branch2c
I0316 15:25:44.313123 30454 net.cpp:129] Top shape: 64 512 1 1 (32768)
I0316 15:25:44.313127 30454 net.cpp:137] Memory required for data: 12555264
I0316 15:25:44.313132 30454 layer_factory.hpp:77] Creating layer res3c
I0316 15:25:44.313135 30454 net.cpp:84] Creating Layer res3c
I0316 15:25:44.313138 30454 net.cpp:406] res3c <- res3b_res3b_relu_0_split_1
I0316 15:25:44.313143 30454 net.cpp:406] res3c <- res3c_branch2c
I0316 15:25:44.313146 30454 net.cpp:380] res3c -> res3c
I0316 15:25:44.313151 30454 net.cpp:122] Setting up res3c
I0316 15:25:44.313155 30454 net.cpp:129] Top shape: 64 512 1 1 (32768)
I0316 15:25:44.313158 30454 net.cpp:137] Memory required for data: 12686336
I0316 15:25:44.313161 30454 layer_factory.hpp:77] Creating layer res3c_relu
I0316 15:25:44.313168 30454 net.cpp:84] Creating Layer res3c_relu
I0316 15:25:44.313170 30454 net.cpp:406] res3c_relu <- res3c
I0316 15:25:44.313175 30454 net.cpp:367] res3c_relu -> res3c (in-place)
I0316 15:25:44.313179 30454 net.cpp:122] Setting up res3c_relu
I0316 15:25:44.313184 30454 net.cpp:129] Top shape: 64 512 1 1 (32768)
I0316 15:25:44.313186 30454 net.cpp:137] Memory required for data: 12817408
I0316 15:25:44.313189 30454 layer_factory.hpp:77] Creating layer res3c_res3c_relu_0_split
I0316 15:25:44.313194 30454 net.cpp:84] Creating Layer res3c_res3c_relu_0_split
I0316 15:25:44.313197 30454 net.cpp:406] res3c_res3c_relu_0_split <- res3c
I0316 15:25:44.313202 30454 net.cpp:380] res3c_res3c_relu_0_split -> res3c_res3c_relu_0_split_0
I0316 15:25:44.313207 30454 net.cpp:380] res3c_res3c_relu_0_split -> res3c_res3c_relu_0_split_1
I0316 15:25:44.313212 30454 net.cpp:122] Setting up res3c_res3c_relu_0_split
I0316 15:25:44.313216 30454 net.cpp:129] Top shape: 64 512 1 1 (32768)
I0316 15:25:44.313220 30454 net.cpp:129] Top shape: 64 512 1 1 (32768)
I0316 15:25:44.313223 30454 net.cpp:137] Memory required for data: 13079552
I0316 15:25:44.313225 30454 layer_factory.hpp:77] Creating layer res3d_branch2a
I0316 15:25:44.313232 30454 net.cpp:84] Creating Layer res3d_branch2a
I0316 15:25:44.313235 30454 net.cpp:406] res3d_branch2a <- res3c_res3c_relu_0_split_0
I0316 15:25:44.313246 30454 net.cpp:380] res3d_branch2a -> res3d_branch2a
I0316 15:25:44.313855 30454 net.cpp:122] Setting up res3d_branch2a
I0316 15:25:44.313861 30454 net.cpp:129] Top shape: 64 128 1 1 (8192)
I0316 15:25:44.313864 30454 net.cpp:137] Memory required for data: 13112320
I0316 15:25:44.313868 30454 layer_factory.hpp:77] Creating layer bn3d_branch2a
I0316 15:25:44.313874 30454 net.cpp:84] Creating Layer bn3d_branch2a
I0316 15:25:44.313879 30454 net.cpp:406] bn3d_branch2a <- res3d_branch2a
I0316 15:25:44.313882 30454 net.cpp:367] bn3d_branch2a -> res3d_branch2a (in-place)
I0316 15:25:44.313892 30454 net.cpp:122] Setting up bn3d_branch2a
I0316 15:25:44.313896 30454 net.cpp:129] Top shape: 64 128 1 1 (8192)
I0316 15:25:44.313899 30454 net.cpp:137] Memory required for data: 13145088
I0316 15:25:44.313933 30454 layer_factory.hpp:77] Creating layer scale3d_branch2a
I0316 15:25:44.313953 30454 net.cpp:84] Creating Layer scale3d_branch2a
I0316 15:25:44.313957 30454 net.cpp:406] scale3d_branch2a <- res3d_branch2a
I0316 15:25:44.313961 30454 net.cpp:367] scale3d_branch2a -> res3d_branch2a (in-place)
I0316 15:25:44.313968 30454 layer_factory.hpp:77] Creating layer scale3d_branch2a
I0316 15:25:44.313982 30454 net.cpp:122] Setting up scale3d_branch2a
I0316 15:25:44.313987 30454 net.cpp:129] Top shape: 64 128 1 1 (8192)
I0316 15:25:44.313989 30454 net.cpp:137] Memory required for data: 13177856
I0316 15:25:44.313993 30454 layer_factory.hpp:77] Creating layer res3d_branch2a_relu
I0316 15:25:44.313999 30454 net.cpp:84] Creating Layer res3d_branch2a_relu
I0316 15:25:44.314002 30454 net.cpp:406] res3d_branch2a_relu <- res3d_branch2a
I0316 15:25:44.314007 30454 net.cpp:367] res3d_branch2a_relu -> res3d_branch2a (in-place)
I0316 15:25:44.314010 30454 net.cpp:122] Setting up res3d_branch2a_relu
I0316 15:25:44.314015 30454 net.cpp:129] Top shape: 64 128 1 1 (8192)
I0316 15:25:44.314018 30454 net.cpp:137] Memory required for data: 13210624
I0316 15:25:44.314021 30454 layer_factory.hpp:77] Creating layer res3d_branch2b
I0316 15:25:44.314026 30454 net.cpp:84] Creating Layer res3d_branch2b
I0316 15:25:44.314029 30454 net.cpp:406] res3d_branch2b <- res3d_branch2a
I0316 15:25:44.314035 30454 net.cpp:380] res3d_branch2b -> res3d_branch2b
I0316 15:25:44.315618 30454 net.cpp:122] Setting up res3d_branch2b
I0316 15:25:44.315626 30454 net.cpp:129] Top shape: 64 128 1 1 (8192)
I0316 15:25:44.315630 30454 net.cpp:137] Memory required for data: 13243392
I0316 15:25:44.315634 30454 layer_factory.hpp:77] Creating layer bn3d_branch2b
I0316 15:25:44.315639 30454 net.cpp:84] Creating Layer bn3d_branch2b
I0316 15:25:44.315644 30454 net.cpp:406] bn3d_branch2b <- res3d_branch2b
I0316 15:25:44.315649 30454 net.cpp:367] bn3d_branch2b -> res3d_branch2b (in-place)
I0316 15:25:44.315661 30454 net.cpp:122] Setting up bn3d_branch2b
I0316 15:25:44.315666 30454 net.cpp:129] Top shape: 64 128 1 1 (8192)
I0316 15:25:44.315670 30454 net.cpp:137] Memory required for data: 13276160
I0316 15:25:44.315675 30454 layer_factory.hpp:77] Creating layer scale3d_branch2b
I0316 15:25:44.315697 30454 net.cpp:84] Creating Layer scale3d_branch2b
I0316 15:25:44.315701 30454 net.cpp:406] scale3d_branch2b <- res3d_branch2b
I0316 15:25:44.315704 30454 net.cpp:367] scale3d_branch2b -> res3d_branch2b (in-place)
I0316 15:25:44.315712 30454 layer_factory.hpp:77] Creating layer scale3d_branch2b
I0316 15:25:44.315722 30454 net.cpp:122] Setting up scale3d_branch2b
I0316 15:25:44.315726 30454 net.cpp:129] Top shape: 64 128 1 1 (8192)
I0316 15:25:44.315729 30454 net.cpp:137] Memory required for data: 13308928
I0316 15:25:44.315734 30454 layer_factory.hpp:77] Creating layer res3d_branch2b_relu
I0316 15:25:44.315739 30454 net.cpp:84] Creating Layer res3d_branch2b_relu
I0316 15:25:44.315742 30454 net.cpp:406] res3d_branch2b_relu <- res3d_branch2b
I0316 15:25:44.315747 30454 net.cpp:367] res3d_branch2b_relu -> res3d_branch2b (in-place)
I0316 15:25:44.315752 30454 net.cpp:122] Setting up res3d_branch2b_relu
I0316 15:25:44.315757 30454 net.cpp:129] Top shape: 64 128 1 1 (8192)
I0316 15:25:44.315759 30454 net.cpp:137] Memory required for data: 13341696
I0316 15:25:44.315762 30454 layer_factory.hpp:77] Creating layer res3d_branch2c
I0316 15:25:44.315768 30454 net.cpp:84] Creating Layer res3d_branch2c
I0316 15:25:44.315770 30454 net.cpp:406] res3d_branch2c <- res3d_branch2b
I0316 15:25:44.315776 30454 net.cpp:380] res3d_branch2c -> res3d_branch2c
I0316 15:25:44.316673 30454 net.cpp:122] Setting up res3d_branch2c
I0316 15:25:44.316679 30454 net.cpp:129] Top shape: 64 512 1 1 (32768)
I0316 15:25:44.316682 30454 net.cpp:137] Memory required for data: 13472768
I0316 15:25:44.316686 30454 layer_factory.hpp:77] Creating layer bn3d_branch2c
I0316 15:25:44.316690 30454 net.cpp:84] Creating Layer bn3d_branch2c
I0316 15:25:44.316694 30454 net.cpp:406] bn3d_branch2c <- res3d_branch2c
I0316 15:25:44.316699 30454 net.cpp:367] bn3d_branch2c -> res3d_branch2c (in-place)
I0316 15:25:44.316712 30454 net.cpp:122] Setting up bn3d_branch2c
I0316 15:25:44.316717 30454 net.cpp:129] Top shape: 64 512 1 1 (32768)
I0316 15:25:44.316721 30454 net.cpp:137] Memory required for data: 13603840
I0316 15:25:44.316726 30454 layer_factory.hpp:77] Creating layer scale3d_branch2c
I0316 15:25:44.316737 30454 net.cpp:84] Creating Layer scale3d_branch2c
I0316 15:25:44.316741 30454 net.cpp:406] scale3d_branch2c <- res3d_branch2c
I0316 15:25:44.316746 30454 net.cpp:367] scale3d_branch2c -> res3d_branch2c (in-place)
I0316 15:25:44.316754 30454 layer_factory.hpp:77] Creating layer scale3d_branch2c
I0316 15:25:44.316766 30454 net.cpp:122] Setting up scale3d_branch2c
I0316 15:25:44.316771 30454 net.cpp:129] Top shape: 64 512 1 1 (32768)
I0316 15:25:44.316773 30454 net.cpp:137] Memory required for data: 13734912
I0316 15:25:44.316778 30454 layer_factory.hpp:77] Creating layer res3d
I0316 15:25:44.316782 30454 net.cpp:84] Creating Layer res3d
I0316 15:25:44.316787 30454 net.cpp:406] res3d <- res3c_res3c_relu_0_split_1
I0316 15:25:44.316790 30454 net.cpp:406] res3d <- res3d_branch2c
I0316 15:25:44.316799 30454 net.cpp:380] res3d -> res3d
I0316 15:25:44.316805 30454 net.cpp:122] Setting up res3d
I0316 15:25:44.316809 30454 net.cpp:129] Top shape: 64 512 1 1 (32768)
I0316 15:25:44.316812 30454 net.cpp:137] Memory required for data: 13865984
I0316 15:25:44.316815 30454 layer_factory.hpp:77] Creating layer res3d_relu
I0316 15:25:44.316821 30454 net.cpp:84] Creating Layer res3d_relu
I0316 15:25:44.316824 30454 net.cpp:406] res3d_relu <- res3d
I0316 15:25:44.316828 30454 net.cpp:367] res3d_relu -> res3d (in-place)
I0316 15:25:44.316833 30454 net.cpp:122] Setting up res3d_relu
I0316 15:25:44.316839 30454 net.cpp:129] Top shape: 64 512 1 1 (32768)
I0316 15:25:44.316843 30454 net.cpp:137] Memory required for data: 13997056
I0316 15:25:44.316846 30454 layer_factory.hpp:77] Creating layer res3d_res3d_relu_0_split
I0316 15:25:44.316853 30454 net.cpp:84] Creating Layer res3d_res3d_relu_0_split
I0316 15:25:44.316855 30454 net.cpp:406] res3d_res3d_relu_0_split <- res3d
I0316 15:25:44.316860 30454 net.cpp:380] res3d_res3d_relu_0_split -> res3d_res3d_relu_0_split_0
I0316 15:25:44.316865 30454 net.cpp:380] res3d_res3d_relu_0_split -> res3d_res3d_relu_0_split_1
I0316 15:25:44.316871 30454 net.cpp:122] Setting up res3d_res3d_relu_0_split
I0316 15:25:44.316875 30454 net.cpp:129] Top shape: 64 512 1 1 (32768)
I0316 15:25:44.316879 30454 net.cpp:129] Top shape: 64 512 1 1 (32768)
I0316 15:25:44.316882 30454 net.cpp:137] Memory required for data: 14259200
I0316 15:25:44.316885 30454 layer_factory.hpp:77] Creating layer res4a_branch1
I0316 15:25:44.316892 30454 net.cpp:84] Creating Layer res4a_branch1
I0316 15:25:44.316895 30454 net.cpp:406] res4a_branch1 <- res3d_res3d_relu_0_split_0
I0316 15:25:44.316900 30454 net.cpp:380] res4a_branch1 -> res4a_branch1
I0316 15:25:44.321758 30454 net.cpp:122] Setting up res4a_branch1
I0316 15:25:44.321782 30454 net.cpp:129] Top shape: 64 1024 1 1 (65536)
I0316 15:25:44.321785 30454 net.cpp:137] Memory required for data: 14521344
I0316 15:25:44.321794 30454 layer_factory.hpp:77] Creating layer bn4a_branch1
I0316 15:25:44.321805 30454 net.cpp:84] Creating Layer bn4a_branch1
I0316 15:25:44.321810 30454 net.cpp:406] bn4a_branch1 <- res4a_branch1
I0316 15:25:44.321815 30454 net.cpp:367] bn4a_branch1 -> res4a_branch1 (in-place)
I0316 15:25:44.321840 30454 net.cpp:122] Setting up bn4a_branch1
I0316 15:25:44.321844 30454 net.cpp:129] Top shape: 64 1024 1 1 (65536)
I0316 15:25:44.321847 30454 net.cpp:137] Memory required for data: 14783488
I0316 15:25:44.321854 30454 layer_factory.hpp:77] Creating layer scale4a_branch1
I0316 15:25:44.321861 30454 net.cpp:84] Creating Layer scale4a_branch1
I0316 15:25:44.321863 30454 net.cpp:406] scale4a_branch1 <- res4a_branch1
I0316 15:25:44.321871 30454 net.cpp:367] scale4a_branch1 -> res4a_branch1 (in-place)
I0316 15:25:44.321884 30454 layer_factory.hpp:77] Creating layer scale4a_branch1
I0316 15:25:44.321904 30454 net.cpp:122] Setting up scale4a_branch1
I0316 15:25:44.321909 30454 net.cpp:129] Top shape: 64 1024 1 1 (65536)
I0316 15:25:44.321913 30454 net.cpp:137] Memory required for data: 15045632
I0316 15:25:44.321918 30454 layer_factory.hpp:77] Creating layer res4a_branch2a
I0316 15:25:44.321928 30454 net.cpp:84] Creating Layer res4a_branch2a
I0316 15:25:44.321941 30454 net.cpp:406] res4a_branch2a <- res3d_res3d_relu_0_split_1
I0316 15:25:44.321947 30454 net.cpp:380] res4a_branch2a -> res4a_branch2a
I0316 15:25:44.323247 30454 net.cpp:122] Setting up res4a_branch2a
I0316 15:25:44.323263 30454 net.cpp:129] Top shape: 64 256 1 1 (16384)
I0316 15:25:44.323266 30454 net.cpp:137] Memory required for data: 15111168
I0316 15:25:44.323271 30454 layer_factory.hpp:77] Creating layer bn4a_branch2a
I0316 15:25:44.323278 30454 net.cpp:84] Creating Layer bn4a_branch2a
I0316 15:25:44.323283 30454 net.cpp:406] bn4a_branch2a <- res4a_branch2a
I0316 15:25:44.323288 30454 net.cpp:367] bn4a_branch2a -> res4a_branch2a (in-place)
I0316 15:25:44.323300 30454 net.cpp:122] Setting up bn4a_branch2a
I0316 15:25:44.323304 30454 net.cpp:129] Top shape: 64 256 1 1 (16384)
I0316 15:25:44.323308 30454 net.cpp:137] Memory required for data: 15176704
I0316 15:25:44.323313 30454 layer_factory.hpp:77] Creating layer scale4a_branch2a
I0316 15:25:44.323319 30454 net.cpp:84] Creating Layer scale4a_branch2a
I0316 15:25:44.323323 30454 net.cpp:406] scale4a_branch2a <- res4a_branch2a
I0316 15:25:44.323326 30454 net.cpp:367] scale4a_branch2a -> res4a_branch2a (in-place)
I0316 15:25:44.323336 30454 layer_factory.hpp:77] Creating layer scale4a_branch2a
I0316 15:25:44.323349 30454 net.cpp:122] Setting up scale4a_branch2a
I0316 15:25:44.323354 30454 net.cpp:129] Top shape: 64 256 1 1 (16384)
I0316 15:25:44.323357 30454 net.cpp:137] Memory required for data: 15242240
I0316 15:25:44.323361 30454 layer_factory.hpp:77] Creating layer res4a_branch2a_relu
I0316 15:25:44.323365 30454 net.cpp:84] Creating Layer res4a_branch2a_relu
I0316 15:25:44.323369 30454 net.cpp:406] res4a_branch2a_relu <- res4a_branch2a
I0316 15:25:44.323374 30454 net.cpp:367] res4a_branch2a_relu -> res4a_branch2a (in-place)
I0316 15:25:44.323379 30454 net.cpp:122] Setting up res4a_branch2a_relu
I0316 15:25:44.323384 30454 net.cpp:129] Top shape: 64 256 1 1 (16384)
I0316 15:25:44.323386 30454 net.cpp:137] Memory required for data: 15307776
I0316 15:25:44.323390 30454 layer_factory.hpp:77] Creating layer res4a_branch2b
I0316 15:25:44.323395 30454 net.cpp:84] Creating Layer res4a_branch2b
I0316 15:25:44.323398 30454 net.cpp:406] res4a_branch2b <- res4a_branch2a
I0316 15:25:44.323405 30454 net.cpp:380] res4a_branch2b -> res4a_branch2b
I0316 15:25:44.328603 30454 net.cpp:122] Setting up res4a_branch2b
I0316 15:25:44.328615 30454 net.cpp:129] Top shape: 64 256 1 1 (16384)
I0316 15:25:44.328619 30454 net.cpp:137] Memory required for data: 15373312
I0316 15:25:44.328624 30454 layer_factory.hpp:77] Creating layer bn4a_branch2b
I0316 15:25:44.328629 30454 net.cpp:84] Creating Layer bn4a_branch2b
I0316 15:25:44.328634 30454 net.cpp:406] bn4a_branch2b <- res4a_branch2b
I0316 15:25:44.328637 30454 net.cpp:367] bn4a_branch2b -> res4a_branch2b (in-place)
I0316 15:25:44.328649 30454 net.cpp:122] Setting up bn4a_branch2b
I0316 15:25:44.328655 30454 net.cpp:129] Top shape: 64 256 1 1 (16384)
I0316 15:25:44.328657 30454 net.cpp:137] Memory required for data: 15438848
I0316 15:25:44.328662 30454 layer_factory.hpp:77] Creating layer scale4a_branch2b
I0316 15:25:44.328668 30454 net.cpp:84] Creating Layer scale4a_branch2b
I0316 15:25:44.328671 30454 net.cpp:406] scale4a_branch2b <- res4a_branch2b
I0316 15:25:44.328675 30454 net.cpp:367] scale4a_branch2b -> res4a_branch2b (in-place)
I0316 15:25:44.328685 30454 layer_factory.hpp:77] Creating layer scale4a_branch2b
I0316 15:25:44.328694 30454 net.cpp:122] Setting up scale4a_branch2b
I0316 15:25:44.328699 30454 net.cpp:129] Top shape: 64 256 1 1 (16384)
I0316 15:25:44.328702 30454 net.cpp:137] Memory required for data: 15504384
I0316 15:25:44.328707 30454 layer_factory.hpp:77] Creating layer res4a_branch2b_relu
I0316 15:25:44.328711 30454 net.cpp:84] Creating Layer res4a_branch2b_relu
I0316 15:25:44.328714 30454 net.cpp:406] res4a_branch2b_relu <- res4a_branch2b
I0316 15:25:44.328719 30454 net.cpp:367] res4a_branch2b_relu -> res4a_branch2b (in-place)
I0316 15:25:44.328724 30454 net.cpp:122] Setting up res4a_branch2b_relu
I0316 15:25:44.328734 30454 net.cpp:129] Top shape: 64 256 1 1 (16384)
I0316 15:25:44.328737 30454 net.cpp:137] Memory required for data: 15569920
I0316 15:25:44.328740 30454 layer_factory.hpp:77] Creating layer res4a_branch2c
I0316 15:25:44.328745 30454 net.cpp:84] Creating Layer res4a_branch2c
I0316 15:25:44.328749 30454 net.cpp:406] res4a_branch2c <- res4a_branch2b
I0316 15:25:44.328757 30454 net.cpp:380] res4a_branch2c -> res4a_branch2c
I0316 15:25:44.331099 30454 net.cpp:122] Setting up res4a_branch2c
I0316 15:25:44.331109 30454 net.cpp:129] Top shape: 64 1024 1 1 (65536)
I0316 15:25:44.331111 30454 net.cpp:137] Memory required for data: 15832064
I0316 15:25:44.331116 30454 layer_factory.hpp:77] Creating layer bn4a_branch2c
I0316 15:25:44.331123 30454 net.cpp:84] Creating Layer bn4a_branch2c
I0316 15:25:44.331126 30454 net.cpp:406] bn4a_branch2c <- res4a_branch2c
I0316 15:25:44.331131 30454 net.cpp:367] bn4a_branch2c -> res4a_branch2c (in-place)
I0316 15:25:44.331145 30454 net.cpp:122] Setting up bn4a_branch2c
I0316 15:25:44.331149 30454 net.cpp:129] Top shape: 64 1024 1 1 (65536)
I0316 15:25:44.331152 30454 net.cpp:137] Memory required for data: 16094208
I0316 15:25:44.331157 30454 layer_factory.hpp:77] Creating layer scale4a_branch2c
I0316 15:25:44.331162 30454 net.cpp:84] Creating Layer scale4a_branch2c
I0316 15:25:44.331166 30454 net.cpp:406] scale4a_branch2c <- res4a_branch2c
I0316 15:25:44.331171 30454 net.cpp:367] scale4a_branch2c -> res4a_branch2c (in-place)
I0316 15:25:44.331200 30454 layer_factory.hpp:77] Creating layer scale4a_branch2c
I0316 15:25:44.331215 30454 net.cpp:122] Setting up scale4a_branch2c
I0316 15:25:44.331219 30454 net.cpp:129] Top shape: 64 1024 1 1 (65536)
I0316 15:25:44.331223 30454 net.cpp:137] Memory required for data: 16356352
I0316 15:25:44.331241 30454 layer_factory.hpp:77] Creating layer res4a
I0316 15:25:44.331248 30454 net.cpp:84] Creating Layer res4a
I0316 15:25:44.331251 30454 net.cpp:406] res4a <- res4a_branch1
I0316 15:25:44.331255 30454 net.cpp:406] res4a <- res4a_branch2c
I0316 15:25:44.331260 30454 net.cpp:380] res4a -> res4a
I0316 15:25:44.331286 30454 net.cpp:122] Setting up res4a
I0316 15:25:44.331291 30454 net.cpp:129] Top shape: 64 1024 1 1 (65536)
I0316 15:25:44.331295 30454 net.cpp:137] Memory required for data: 16618496
I0316 15:25:44.331297 30454 layer_factory.hpp:77] Creating layer res4a_relu
I0316 15:25:44.331302 30454 net.cpp:84] Creating Layer res4a_relu
I0316 15:25:44.331305 30454 net.cpp:406] res4a_relu <- res4a
I0316 15:25:44.331310 30454 net.cpp:367] res4a_relu -> res4a (in-place)
I0316 15:25:44.331315 30454 net.cpp:122] Setting up res4a_relu
I0316 15:25:44.331320 30454 net.cpp:129] Top shape: 64 1024 1 1 (65536)
I0316 15:25:44.331322 30454 net.cpp:137] Memory required for data: 16880640
I0316 15:25:44.331326 30454 layer_factory.hpp:77] Creating layer res4a_res4a_relu_0_split
I0316 15:25:44.331332 30454 net.cpp:84] Creating Layer res4a_res4a_relu_0_split
I0316 15:25:44.331336 30454 net.cpp:406] res4a_res4a_relu_0_split <- res4a
I0316 15:25:44.331354 30454 net.cpp:380] res4a_res4a_relu_0_split -> res4a_res4a_relu_0_split_0
I0316 15:25:44.331380 30454 net.cpp:380] res4a_res4a_relu_0_split -> res4a_res4a_relu_0_split_1
I0316 15:25:44.331387 30454 net.cpp:122] Setting up res4a_res4a_relu_0_split
I0316 15:25:44.331392 30454 net.cpp:129] Top shape: 64 1024 1 1 (65536)
I0316 15:25:44.331409 30454 net.cpp:129] Top shape: 64 1024 1 1 (65536)
I0316 15:25:44.331413 30454 net.cpp:137] Memory required for data: 17404928
I0316 15:25:44.331434 30454 layer_factory.hpp:77] Creating layer res4b_branch2a
I0316 15:25:44.331472 30454 net.cpp:84] Creating Layer res4b_branch2a
I0316 15:25:44.331477 30454 net.cpp:406] res4b_branch2a <- res4a_res4a_relu_0_split_0
I0316 15:25:44.331482 30454 net.cpp:380] res4b_branch2a -> res4b_branch2a
I0316 15:25:44.334453 30454 net.cpp:122] Setting up res4b_branch2a
I0316 15:25:44.334467 30454 net.cpp:129] Top shape: 64 256 1 1 (16384)
I0316 15:25:44.334471 30454 net.cpp:137] Memory required for data: 17470464
I0316 15:25:44.334477 30454 layer_factory.hpp:77] Creating layer bn4b_branch2a
I0316 15:25:44.334487 30454 net.cpp:84] Creating Layer bn4b_branch2a
I0316 15:25:44.334492 30454 net.cpp:406] bn4b_branch2a <- res4b_branch2a
I0316 15:25:44.334496 30454 net.cpp:367] bn4b_branch2a -> res4b_branch2a (in-place)
I0316 15:25:44.334509 30454 net.cpp:122] Setting up bn4b_branch2a
I0316 15:25:44.334514 30454 net.cpp:129] Top shape: 64 256 1 1 (16384)
I0316 15:25:44.334517 30454 net.cpp:137] Memory required for data: 17536000
I0316 15:25:44.334522 30454 layer_factory.hpp:77] Creating layer scale4b_branch2a
I0316 15:25:44.334528 30454 net.cpp:84] Creating Layer scale4b_branch2a
I0316 15:25:44.334532 30454 net.cpp:406] scale4b_branch2a <- res4b_branch2a
I0316 15:25:44.334537 30454 net.cpp:367] scale4b_branch2a -> res4b_branch2a (in-place)
I0316 15:25:44.334545 30454 layer_factory.hpp:77] Creating layer scale4b_branch2a
I0316 15:25:44.334556 30454 net.cpp:122] Setting up scale4b_branch2a
I0316 15:25:44.334561 30454 net.cpp:129] Top shape: 64 256 1 1 (16384)
I0316 15:25:44.334564 30454 net.cpp:137] Memory required for data: 17601536
I0316 15:25:44.334568 30454 layer_factory.hpp:77] Creating layer res4b_branch2a_relu
I0316 15:25:44.334573 30454 net.cpp:84] Creating Layer res4b_branch2a_relu
I0316 15:25:44.334576 30454 net.cpp:406] res4b_branch2a_relu <- res4b_branch2a
I0316 15:25:44.334581 30454 net.cpp:367] res4b_branch2a_relu -> res4b_branch2a (in-place)
I0316 15:25:44.334586 30454 net.cpp:122] Setting up res4b_branch2a_relu
I0316 15:25:44.334590 30454 net.cpp:129] Top shape: 64 256 1 1 (16384)
I0316 15:25:44.334594 30454 net.cpp:137] Memory required for data: 17667072
I0316 15:25:44.334596 30454 layer_factory.hpp:77] Creating layer res4b_branch2b
I0316 15:25:44.334602 30454 net.cpp:84] Creating Layer res4b_branch2b
I0316 15:25:44.334605 30454 net.cpp:406] res4b_branch2b <- res4b_branch2a
I0316 15:25:44.334611 30454 net.cpp:380] res4b_branch2b -> res4b_branch2b
I0316 15:25:44.340067 30454 net.cpp:122] Setting up res4b_branch2b
I0316 15:25:44.340090 30454 net.cpp:129] Top shape: 64 256 1 1 (16384)
I0316 15:25:44.340092 30454 net.cpp:137] Memory required for data: 17732608
I0316 15:25:44.340098 30454 layer_factory.hpp:77] Creating layer bn4b_branch2b
I0316 15:25:44.340106 30454 net.cpp:84] Creating Layer bn4b_branch2b
I0316 15:25:44.340111 30454 net.cpp:406] bn4b_branch2b <- res4b_branch2b
I0316 15:25:44.340116 30454 net.cpp:367] bn4b_branch2b -> res4b_branch2b (in-place)
I0316 15:25:44.340131 30454 net.cpp:122] Setting up bn4b_branch2b
I0316 15:25:44.340135 30454 net.cpp:129] Top shape: 64 256 1 1 (16384)
I0316 15:25:44.340138 30454 net.cpp:137] Memory required for data: 17798144
I0316 15:25:44.340143 30454 layer_factory.hpp:77] Creating layer scale4b_branch2b
I0316 15:25:44.340149 30454 net.cpp:84] Creating Layer scale4b_branch2b
I0316 15:25:44.340153 30454 net.cpp:406] scale4b_branch2b <- res4b_branch2b
I0316 15:25:44.340157 30454 net.cpp:367] scale4b_branch2b -> res4b_branch2b (in-place)
I0316 15:25:44.340167 30454 layer_factory.hpp:77] Creating layer scale4b_branch2b
I0316 15:25:44.340179 30454 net.cpp:122] Setting up scale4b_branch2b
I0316 15:25:44.340184 30454 net.cpp:129] Top shape: 64 256 1 1 (16384)
I0316 15:25:44.340188 30454 net.cpp:137] Memory required for data: 17863680
I0316 15:25:44.340191 30454 layer_factory.hpp:77] Creating layer res4b_branch2b_relu
I0316 15:25:44.340196 30454 net.cpp:84] Creating Layer res4b_branch2b_relu
I0316 15:25:44.340199 30454 net.cpp:406] res4b_branch2b_relu <- res4b_branch2b
I0316 15:25:44.340204 30454 net.cpp:367] res4b_branch2b_relu -> res4b_branch2b (in-place)
I0316 15:25:44.340209 30454 net.cpp:122] Setting up res4b_branch2b_relu
I0316 15:25:44.340214 30454 net.cpp:129] Top shape: 64 256 1 1 (16384)
I0316 15:25:44.340216 30454 net.cpp:137] Memory required for data: 17929216
I0316 15:25:44.340219 30454 layer_factory.hpp:77] Creating layer res4b_branch2c
I0316 15:25:44.340226 30454 net.cpp:84] Creating Layer res4b_branch2c
I0316 15:25:44.340230 30454 net.cpp:406] res4b_branch2c <- res4b_branch2b
I0316 15:25:44.340235 30454 net.cpp:380] res4b_branch2c -> res4b_branch2c
I0316 15:25:44.342614 30454 net.cpp:122] Setting up res4b_branch2c
I0316 15:25:44.342623 30454 net.cpp:129] Top shape: 64 1024 1 1 (65536)
I0316 15:25:44.342627 30454 net.cpp:137] Memory required for data: 18191360
I0316 15:25:44.342631 30454 layer_factory.hpp:77] Creating layer bn4b_branch2c
I0316 15:25:44.342638 30454 net.cpp:84] Creating Layer bn4b_branch2c
I0316 15:25:44.342641 30454 net.cpp:406] bn4b_branch2c <- res4b_branch2c
I0316 15:25:44.342645 30454 net.cpp:367] bn4b_branch2c -> res4b_branch2c (in-place)
I0316 15:25:44.342659 30454 net.cpp:122] Setting up bn4b_branch2c
I0316 15:25:44.342664 30454 net.cpp:129] Top shape: 64 1024 1 1 (65536)
I0316 15:25:44.342666 30454 net.cpp:137] Memory required for data: 18453504
I0316 15:25:44.342672 30454 layer_factory.hpp:77] Creating layer scale4b_branch2c
I0316 15:25:44.342677 30454 net.cpp:84] Creating Layer scale4b_branch2c
I0316 15:25:44.342681 30454 net.cpp:406] scale4b_branch2c <- res4b_branch2c
I0316 15:25:44.342685 30454 net.cpp:367] scale4b_branch2c -> res4b_branch2c (in-place)
I0316 15:25:44.342694 30454 layer_factory.hpp:77] Creating layer scale4b_branch2c
I0316 15:25:44.342708 30454 net.cpp:122] Setting up scale4b_branch2c
I0316 15:25:44.342712 30454 net.cpp:129] Top shape: 64 1024 1 1 (65536)
I0316 15:25:44.342715 30454 net.cpp:137] Memory required for data: 18715648
I0316 15:25:44.342720 30454 layer_factory.hpp:77] Creating layer res4b
I0316 15:25:44.342725 30454 net.cpp:84] Creating Layer res4b
I0316 15:25:44.342730 30454 net.cpp:406] res4b <- res4a_res4a_relu_0_split_1
I0316 15:25:44.342733 30454 net.cpp:406] res4b <- res4b_branch2c
I0316 15:25:44.342737 30454 net.cpp:380] res4b -> res4b
I0316 15:25:44.342744 30454 net.cpp:122] Setting up res4b
I0316 15:25:44.342748 30454 net.cpp:129] Top shape: 64 1024 1 1 (65536)
I0316 15:25:44.342751 30454 net.cpp:137] Memory required for data: 18977792
I0316 15:25:44.342754 30454 layer_factory.hpp:77] Creating layer res4b_relu
I0316 15:25:44.342759 30454 net.cpp:84] Creating Layer res4b_relu
I0316 15:25:44.342763 30454 net.cpp:406] res4b_relu <- res4b
I0316 15:25:44.342767 30454 net.cpp:367] res4b_relu -> res4b (in-place)
I0316 15:25:44.342772 30454 net.cpp:122] Setting up res4b_relu
I0316 15:25:44.342777 30454 net.cpp:129] Top shape: 64 1024 1 1 (65536)
I0316 15:25:44.342780 30454 net.cpp:137] Memory required for data: 19239936
I0316 15:25:44.342783 30454 layer_factory.hpp:77] Creating layer res4b_res4b_relu_0_split
I0316 15:25:44.342788 30454 net.cpp:84] Creating Layer res4b_res4b_relu_0_split
I0316 15:25:44.342792 30454 net.cpp:406] res4b_res4b_relu_0_split <- res4b
I0316 15:25:44.342797 30454 net.cpp:380] res4b_res4b_relu_0_split -> res4b_res4b_relu_0_split_0
I0316 15:25:44.342803 30454 net.cpp:380] res4b_res4b_relu_0_split -> res4b_res4b_relu_0_split_1
I0316 15:25:44.342808 30454 net.cpp:122] Setting up res4b_res4b_relu_0_split
I0316 15:25:44.342813 30454 net.cpp:129] Top shape: 64 1024 1 1 (65536)
I0316 15:25:44.342816 30454 net.cpp:129] Top shape: 64 1024 1 1 (65536)
I0316 15:25:44.342819 30454 net.cpp:137] Memory required for data: 19764224
I0316 15:25:44.342823 30454 layer_factory.hpp:77] Creating layer res4c_branch2a
I0316 15:25:44.342829 30454 net.cpp:84] Creating Layer res4c_branch2a
I0316 15:25:44.342833 30454 net.cpp:406] res4c_branch2a <- res4b_res4b_relu_0_split_0
I0316 15:25:44.342838 30454 net.cpp:380] res4c_branch2a -> res4c_branch2a
I0316 15:25:44.345093 30454 net.cpp:122] Setting up res4c_branch2a
I0316 15:25:44.345099 30454 net.cpp:129] Top shape: 64 256 1 1 (16384)
I0316 15:25:44.345103 30454 net.cpp:137] Memory required for data: 19829760
I0316 15:25:44.345106 30454 layer_factory.hpp:77] Creating layer bn4c_branch2a
I0316 15:25:44.345113 30454 net.cpp:84] Creating Layer bn4c_branch2a
I0316 15:25:44.345116 30454 net.cpp:406] bn4c_branch2a <- res4c_branch2a
I0316 15:25:44.345120 30454 net.cpp:367] bn4c_branch2a -> res4c_branch2a (in-place)
I0316 15:25:44.345131 30454 net.cpp:122] Setting up bn4c_branch2a
I0316 15:25:44.345136 30454 net.cpp:129] Top shape: 64 256 1 1 (16384)
I0316 15:25:44.345142 30454 net.cpp:137] Memory required for data: 19895296
I0316 15:25:44.345147 30454 layer_factory.hpp:77] Creating layer scale4c_branch2a
I0316 15:25:44.345154 30454 net.cpp:84] Creating Layer scale4c_branch2a
I0316 15:25:44.345156 30454 net.cpp:406] scale4c_branch2a <- res4c_branch2a
I0316 15:25:44.345160 30454 net.cpp:367] scale4c_branch2a -> res4c_branch2a (in-place)
I0316 15:25:44.345170 30454 layer_factory.hpp:77] Creating layer scale4c_branch2a
I0316 15:25:44.345180 30454 net.cpp:122] Setting up scale4c_branch2a
I0316 15:25:44.345185 30454 net.cpp:129] Top shape: 64 256 1 1 (16384)
I0316 15:25:44.345187 30454 net.cpp:137] Memory required for data: 19960832
I0316 15:25:44.345192 30454 layer_factory.hpp:77] Creating layer res4c_branch2a_relu
I0316 15:25:44.345196 30454 net.cpp:84] Creating Layer res4c_branch2a_relu
I0316 15:25:44.345199 30454 net.cpp:406] res4c_branch2a_relu <- res4c_branch2a
I0316 15:25:44.345204 30454 net.cpp:367] res4c_branch2a_relu -> res4c_branch2a (in-place)
I0316 15:25:44.345209 30454 net.cpp:122] Setting up res4c_branch2a_relu
I0316 15:25:44.345213 30454 net.cpp:129] Top shape: 64 256 1 1 (16384)
I0316 15:25:44.345216 30454 net.cpp:137] Memory required for data: 20026368
I0316 15:25:44.345219 30454 layer_factory.hpp:77] Creating layer res4c_branch2b
I0316 15:25:44.345226 30454 net.cpp:84] Creating Layer res4c_branch2b
I0316 15:25:44.345229 30454 net.cpp:406] res4c_branch2b <- res4c_branch2a
I0316 15:25:44.345233 30454 net.cpp:380] res4c_branch2b -> res4c_branch2b
I0316 15:25:44.351094 30454 net.cpp:122] Setting up res4c_branch2b
I0316 15:25:44.351107 30454 net.cpp:129] Top shape: 64 256 1 1 (16384)
I0316 15:25:44.351111 30454 net.cpp:137] Memory required for data: 20091904
I0316 15:25:44.351116 30454 layer_factory.hpp:77] Creating layer bn4c_branch2b
I0316 15:25:44.351125 30454 net.cpp:84] Creating Layer bn4c_branch2b
I0316 15:25:44.351128 30454 net.cpp:406] bn4c_branch2b <- res4c_branch2b
I0316 15:25:44.351133 30454 net.cpp:367] bn4c_branch2b -> res4c_branch2b (in-place)
I0316 15:25:44.351146 30454 net.cpp:122] Setting up bn4c_branch2b
I0316 15:25:44.351152 30454 net.cpp:129] Top shape: 64 256 1 1 (16384)
I0316 15:25:44.351155 30454 net.cpp:137] Memory required for data: 20157440
I0316 15:25:44.351161 30454 layer_factory.hpp:77] Creating layer scale4c_branch2b
I0316 15:25:44.351166 30454 net.cpp:84] Creating Layer scale4c_branch2b
I0316 15:25:44.351169 30454 net.cpp:406] scale4c_branch2b <- res4c_branch2b
I0316 15:25:44.351174 30454 net.cpp:367] scale4c_branch2b -> res4c_branch2b (in-place)
I0316 15:25:44.351182 30454 layer_factory.hpp:77] Creating layer scale4c_branch2b
I0316 15:25:44.351193 30454 net.cpp:122] Setting up scale4c_branch2b
I0316 15:25:44.351198 30454 net.cpp:129] Top shape: 64 256 1 1 (16384)
I0316 15:25:44.351202 30454 net.cpp:137] Memory required for data: 20222976
I0316 15:25:44.351207 30454 layer_factory.hpp:77] Creating layer res4c_branch2b_relu
I0316 15:25:44.351212 30454 net.cpp:84] Creating Layer res4c_branch2b_relu
I0316 15:25:44.351215 30454 net.cpp:406] res4c_branch2b_relu <- res4c_branch2b
I0316 15:25:44.351219 30454 net.cpp:367] res4c_branch2b_relu -> res4c_branch2b (in-place)
I0316 15:25:44.351223 30454 net.cpp:122] Setting up res4c_branch2b_relu
I0316 15:25:44.351229 30454 net.cpp:129] Top shape: 64 256 1 1 (16384)
I0316 15:25:44.351233 30454 net.cpp:137] Memory required for data: 20288512
I0316 15:25:44.351235 30454 layer_factory.hpp:77] Creating layer res4c_branch2c
I0316 15:25:44.351241 30454 net.cpp:84] Creating Layer res4c_branch2c
I0316 15:25:44.351244 30454 net.cpp:406] res4c_branch2c <- res4c_branch2b
I0316 15:25:44.351251 30454 net.cpp:380] res4c_branch2c -> res4c_branch2c
I0316 15:25:44.353628 30454 net.cpp:122] Setting up res4c_branch2c
I0316 15:25:44.353636 30454 net.cpp:129] Top shape: 64 1024 1 1 (65536)
I0316 15:25:44.353639 30454 net.cpp:137] Memory required for data: 20550656
I0316 15:25:44.353644 30454 layer_factory.hpp:77] Creating layer bn4c_branch2c
I0316 15:25:44.353648 30454 net.cpp:84] Creating Layer bn4c_branch2c
I0316 15:25:44.353657 30454 net.cpp:406] bn4c_branch2c <- res4c_branch2c
I0316 15:25:44.353662 30454 net.cpp:367] bn4c_branch2c -> res4c_branch2c (in-place)
I0316 15:25:44.353675 30454 net.cpp:122] Setting up bn4c_branch2c
I0316 15:25:44.353680 30454 net.cpp:129] Top shape: 64 1024 1 1 (65536)
I0316 15:25:44.353683 30454 net.cpp:137] Memory required for data: 20812800
I0316 15:25:44.353688 30454 layer_factory.hpp:77] Creating layer scale4c_branch2c
I0316 15:25:44.353693 30454 net.cpp:84] Creating Layer scale4c_branch2c
I0316 15:25:44.353696 30454 net.cpp:406] scale4c_branch2c <- res4c_branch2c
I0316 15:25:44.353701 30454 net.cpp:367] scale4c_branch2c -> res4c_branch2c (in-place)
I0316 15:25:44.353713 30454 layer_factory.hpp:77] Creating layer scale4c_branch2c
I0316 15:25:44.353724 30454 net.cpp:122] Setting up scale4c_branch2c
I0316 15:25:44.353727 30454 net.cpp:129] Top shape: 64 1024 1 1 (65536)
I0316 15:25:44.353730 30454 net.cpp:137] Memory required for data: 21074944
I0316 15:25:44.353735 30454 layer_factory.hpp:77] Creating layer res4c
I0316 15:25:44.353740 30454 net.cpp:84] Creating Layer res4c
I0316 15:25:44.353744 30454 net.cpp:406] res4c <- res4b_res4b_relu_0_split_1
I0316 15:25:44.353749 30454 net.cpp:406] res4c <- res4c_branch2c
I0316 15:25:44.353752 30454 net.cpp:380] res4c -> res4c
I0316 15:25:44.353760 30454 net.cpp:122] Setting up res4c
I0316 15:25:44.353765 30454 net.cpp:129] Top shape: 64 1024 1 1 (65536)
I0316 15:25:44.353767 30454 net.cpp:137] Memory required for data: 21337088
I0316 15:25:44.353770 30454 layer_factory.hpp:77] Creating layer res4c_relu
I0316 15:25:44.353775 30454 net.cpp:84] Creating Layer res4c_relu
I0316 15:25:44.353777 30454 net.cpp:406] res4c_relu <- res4c
I0316 15:25:44.353781 30454 net.cpp:367] res4c_relu -> res4c (in-place)
I0316 15:25:44.353786 30454 net.cpp:122] Setting up res4c_relu
I0316 15:25:44.353790 30454 net.cpp:129] Top shape: 64 1024 1 1 (65536)
I0316 15:25:44.353793 30454 net.cpp:137] Memory required for data: 21599232
I0316 15:25:44.353796 30454 layer_factory.hpp:77] Creating layer res4c_res4c_relu_0_split
I0316 15:25:44.353801 30454 net.cpp:84] Creating Layer res4c_res4c_relu_0_split
I0316 15:25:44.353804 30454 net.cpp:406] res4c_res4c_relu_0_split <- res4c
I0316 15:25:44.353808 30454 net.cpp:380] res4c_res4c_relu_0_split -> res4c_res4c_relu_0_split_0
I0316 15:25:44.353813 30454 net.cpp:380] res4c_res4c_relu_0_split -> res4c_res4c_relu_0_split_1
I0316 15:25:44.353819 30454 net.cpp:122] Setting up res4c_res4c_relu_0_split
I0316 15:25:44.353823 30454 net.cpp:129] Top shape: 64 1024 1 1 (65536)
I0316 15:25:44.353827 30454 net.cpp:129] Top shape: 64 1024 1 1 (65536)
I0316 15:25:44.353830 30454 net.cpp:137] Memory required for data: 22123520
I0316 15:25:44.353833 30454 layer_factory.hpp:77] Creating layer res4d_branch2a
I0316 15:25:44.353840 30454 net.cpp:84] Creating Layer res4d_branch2a
I0316 15:25:44.353843 30454 net.cpp:406] res4d_branch2a <- res4c_res4c_relu_0_split_0
I0316 15:25:44.353849 30454 net.cpp:380] res4d_branch2a -> res4d_branch2a
I0316 15:25:44.356403 30454 net.cpp:122] Setting up res4d_branch2a
I0316 15:25:44.356447 30454 net.cpp:129] Top shape: 64 256 1 1 (16384)
I0316 15:25:44.356452 30454 net.cpp:137] Memory required for data: 22189056
I0316 15:25:44.356462 30454 layer_factory.hpp:77] Creating layer bn4d_branch2a
I0316 15:25:44.356478 30454 net.cpp:84] Creating Layer bn4d_branch2a
I0316 15:25:44.356485 30454 net.cpp:406] bn4d_branch2a <- res4d_branch2a
I0316 15:25:44.356492 30454 net.cpp:367] bn4d_branch2a -> res4d_branch2a (in-place)
I0316 15:25:44.356518 30454 net.cpp:122] Setting up bn4d_branch2a
I0316 15:25:44.356523 30454 net.cpp:129] Top shape: 64 256 1 1 (16384)
I0316 15:25:44.356526 30454 net.cpp:137] Memory required for data: 22254592
I0316 15:25:44.356534 30454 layer_factory.hpp:77] Creating layer scale4d_branch2a
I0316 15:25:44.356541 30454 net.cpp:84] Creating Layer scale4d_branch2a
I0316 15:25:44.356544 30454 net.cpp:406] scale4d_branch2a <- res4d_branch2a
I0316 15:25:44.356551 30454 net.cpp:367] scale4d_branch2a -> res4d_branch2a (in-place)
I0316 15:25:44.356575 30454 layer_factory.hpp:77] Creating layer scale4d_branch2a
I0316 15:25:44.356595 30454 net.cpp:122] Setting up scale4d_branch2a
I0316 15:25:44.356600 30454 net.cpp:129] Top shape: 64 256 1 1 (16384)
I0316 15:25:44.356603 30454 net.cpp:137] Memory required for data: 22320128
I0316 15:25:44.356608 30454 layer_factory.hpp:77] Creating layer res4d_branch2a_relu
I0316 15:25:44.356613 30454 net.cpp:84] Creating Layer res4d_branch2a_relu
I0316 15:25:44.356617 30454 net.cpp:406] res4d_branch2a_relu <- res4d_branch2a
I0316 15:25:44.356623 30454 net.cpp:367] res4d_branch2a_relu -> res4d_branch2a (in-place)
I0316 15:25:44.356629 30454 net.cpp:122] Setting up res4d_branch2a_relu
I0316 15:25:44.356633 30454 net.cpp:129] Top shape: 64 256 1 1 (16384)
I0316 15:25:44.356637 30454 net.cpp:137] Memory required for data: 22385664
I0316 15:25:44.356639 30454 layer_factory.hpp:77] Creating layer res4d_branch2b
I0316 15:25:44.356667 30454 net.cpp:84] Creating Layer res4d_branch2b
I0316 15:25:44.356672 30454 net.cpp:406] res4d_branch2b <- res4d_branch2a
I0316 15:25:44.356679 30454 net.cpp:380] res4d_branch2b -> res4d_branch2b
I0316 15:25:44.362186 30454 net.cpp:122] Setting up res4d_branch2b
I0316 15:25:44.362206 30454 net.cpp:129] Top shape: 64 256 1 1 (16384)
I0316 15:25:44.362210 30454 net.cpp:137] Memory required for data: 22451200
I0316 15:25:44.362236 30454 layer_factory.hpp:77] Creating layer bn4d_branch2b
I0316 15:25:44.362242 30454 net.cpp:84] Creating Layer bn4d_branch2b
I0316 15:25:44.362246 30454 net.cpp:406] bn4d_branch2b <- res4d_branch2b
I0316 15:25:44.362252 30454 net.cpp:367] bn4d_branch2b -> res4d_branch2b (in-place)
I0316 15:25:44.362291 30454 net.cpp:122] Setting up bn4d_branch2b
I0316 15:25:44.362296 30454 net.cpp:129] Top shape: 64 256 1 1 (16384)
I0316 15:25:44.362299 30454 net.cpp:137] Memory required for data: 22516736
I0316 15:25:44.362305 30454 layer_factory.hpp:77] Creating layer scale4d_branch2b
I0316 15:25:44.362310 30454 net.cpp:84] Creating Layer scale4d_branch2b
I0316 15:25:44.362313 30454 net.cpp:406] scale4d_branch2b <- res4d_branch2b
I0316 15:25:44.362318 30454 net.cpp:367] scale4d_branch2b -> res4d_branch2b (in-place)
I0316 15:25:44.362327 30454 layer_factory.hpp:77] Creating layer scale4d_branch2b
I0316 15:25:44.362340 30454 net.cpp:122] Setting up scale4d_branch2b
I0316 15:25:44.362344 30454 net.cpp:129] Top shape: 64 256 1 1 (16384)
I0316 15:25:44.362347 30454 net.cpp:137] Memory required for data: 22582272
I0316 15:25:44.362352 30454 layer_factory.hpp:77] Creating layer res4d_branch2b_relu
I0316 15:25:44.362356 30454 net.cpp:84] Creating Layer res4d_branch2b_relu
I0316 15:25:44.362360 30454 net.cpp:406] res4d_branch2b_relu <- res4d_branch2b
I0316 15:25:44.362363 30454 net.cpp:367] res4d_branch2b_relu -> res4d_branch2b (in-place)
I0316 15:25:44.362368 30454 net.cpp:122] Setting up res4d_branch2b_relu
I0316 15:25:44.362372 30454 net.cpp:129] Top shape: 64 256 1 1 (16384)
I0316 15:25:44.362375 30454 net.cpp:137] Memory required for data: 22647808
I0316 15:25:44.362378 30454 layer_factory.hpp:77] Creating layer res4d_branch2c
I0316 15:25:44.362385 30454 net.cpp:84] Creating Layer res4d_branch2c
I0316 15:25:44.362390 30454 net.cpp:406] res4d_branch2c <- res4d_branch2b
I0316 15:25:44.362396 30454 net.cpp:380] res4d_branch2c -> res4d_branch2c
I0316 15:25:44.364696 30454 net.cpp:122] Setting up res4d_branch2c
I0316 15:25:44.364703 30454 net.cpp:129] Top shape: 64 1024 1 1 (65536)
I0316 15:25:44.364706 30454 net.cpp:137] Memory required for data: 22909952
I0316 15:25:44.364711 30454 layer_factory.hpp:77] Creating layer bn4d_branch2c
I0316 15:25:44.364717 30454 net.cpp:84] Creating Layer bn4d_branch2c
I0316 15:25:44.364720 30454 net.cpp:406] bn4d_branch2c <- res4d_branch2c
I0316 15:25:44.364724 30454 net.cpp:367] bn4d_branch2c -> res4d_branch2c (in-place)
I0316 15:25:44.364738 30454 net.cpp:122] Setting up bn4d_branch2c
I0316 15:25:44.364742 30454 net.cpp:129] Top shape: 64 1024 1 1 (65536)
I0316 15:25:44.364745 30454 net.cpp:137] Memory required for data: 23172096
I0316 15:25:44.364756 30454 layer_factory.hpp:77] Creating layer scale4d_branch2c
I0316 15:25:44.364763 30454 net.cpp:84] Creating Layer scale4d_branch2c
I0316 15:25:44.364765 30454 net.cpp:406] scale4d_branch2c <- res4d_branch2c
I0316 15:25:44.364771 30454 net.cpp:367] scale4d_branch2c -> res4d_branch2c (in-place)
I0316 15:25:44.364780 30454 layer_factory.hpp:77] Creating layer scale4d_branch2c
I0316 15:25:44.364792 30454 net.cpp:122] Setting up scale4d_branch2c
I0316 15:25:44.364796 30454 net.cpp:129] Top shape: 64 1024 1 1 (65536)
I0316 15:25:44.364799 30454 net.cpp:137] Memory required for data: 23434240
I0316 15:25:44.364804 30454 layer_factory.hpp:77] Creating layer res4d
I0316 15:25:44.364814 30454 net.cpp:84] Creating Layer res4d
I0316 15:25:44.364817 30454 net.cpp:406] res4d <- res4c_res4c_relu_0_split_1
I0316 15:25:44.364821 30454 net.cpp:406] res4d <- res4d_branch2c
I0316 15:25:44.364825 30454 net.cpp:380] res4d -> res4d
I0316 15:25:44.364832 30454 net.cpp:122] Setting up res4d
I0316 15:25:44.364836 30454 net.cpp:129] Top shape: 64 1024 1 1 (65536)
I0316 15:25:44.364840 30454 net.cpp:137] Memory required for data: 23696384
I0316 15:25:44.364842 30454 layer_factory.hpp:77] Creating layer res4d_relu
I0316 15:25:44.364847 30454 net.cpp:84] Creating Layer res4d_relu
I0316 15:25:44.364850 30454 net.cpp:406] res4d_relu <- res4d
I0316 15:25:44.364854 30454 net.cpp:367] res4d_relu -> res4d (in-place)
I0316 15:25:44.364859 30454 net.cpp:122] Setting up res4d_relu
I0316 15:25:44.364863 30454 net.cpp:129] Top shape: 64 1024 1 1 (65536)
I0316 15:25:44.364866 30454 net.cpp:137] Memory required for data: 23958528
I0316 15:25:44.364869 30454 layer_factory.hpp:77] Creating layer res4d_res4d_relu_0_split
I0316 15:25:44.364876 30454 net.cpp:84] Creating Layer res4d_res4d_relu_0_split
I0316 15:25:44.364881 30454 net.cpp:406] res4d_res4d_relu_0_split <- res4d
I0316 15:25:44.364884 30454 net.cpp:380] res4d_res4d_relu_0_split -> res4d_res4d_relu_0_split_0
I0316 15:25:44.364890 30454 net.cpp:380] res4d_res4d_relu_0_split -> res4d_res4d_relu_0_split_1
I0316 15:25:44.364897 30454 net.cpp:122] Setting up res4d_res4d_relu_0_split
I0316 15:25:44.364902 30454 net.cpp:129] Top shape: 64 1024 1 1 (65536)
I0316 15:25:44.364905 30454 net.cpp:129] Top shape: 64 1024 1 1 (65536)
I0316 15:25:44.364908 30454 net.cpp:137] Memory required for data: 24482816
I0316 15:25:44.364912 30454 layer_factory.hpp:77] Creating layer res4e_branch2a
I0316 15:25:44.364919 30454 net.cpp:84] Creating Layer res4e_branch2a
I0316 15:25:44.364923 30454 net.cpp:406] res4e_branch2a <- res4d_res4d_relu_0_split_0
I0316 15:25:44.364929 30454 net.cpp:380] res4e_branch2a -> res4e_branch2a
I0316 15:25:44.367938 30454 net.cpp:122] Setting up res4e_branch2a
I0316 15:25:44.367949 30454 net.cpp:129] Top shape: 64 256 1 1 (16384)
I0316 15:25:44.367952 30454 net.cpp:137] Memory required for data: 24548352
I0316 15:25:44.367956 30454 layer_factory.hpp:77] Creating layer bn4e_branch2a
I0316 15:25:44.367962 30454 net.cpp:84] Creating Layer bn4e_branch2a
I0316 15:25:44.367966 30454 net.cpp:406] bn4e_branch2a <- res4e_branch2a
I0316 15:25:44.367971 30454 net.cpp:367] bn4e_branch2a -> res4e_branch2a (in-place)
I0316 15:25:44.367983 30454 net.cpp:122] Setting up bn4e_branch2a
I0316 15:25:44.367987 30454 net.cpp:129] Top shape: 64 256 1 1 (16384)
I0316 15:25:44.367991 30454 net.cpp:137] Memory required for data: 24613888
I0316 15:25:44.367996 30454 layer_factory.hpp:77] Creating layer scale4e_branch2a
I0316 15:25:44.368001 30454 net.cpp:84] Creating Layer scale4e_branch2a
I0316 15:25:44.368005 30454 net.cpp:406] scale4e_branch2a <- res4e_branch2a
I0316 15:25:44.368010 30454 net.cpp:367] scale4e_branch2a -> res4e_branch2a (in-place)
I0316 15:25:44.368018 30454 layer_factory.hpp:77] Creating layer scale4e_branch2a
I0316 15:25:44.368028 30454 net.cpp:122] Setting up scale4e_branch2a
I0316 15:25:44.368033 30454 net.cpp:129] Top shape: 64 256 1 1 (16384)
I0316 15:25:44.368036 30454 net.cpp:137] Memory required for data: 24679424
I0316 15:25:44.368041 30454 layer_factory.hpp:77] Creating layer res4e_branch2a_relu
I0316 15:25:44.368048 30454 net.cpp:84] Creating Layer res4e_branch2a_relu
I0316 15:25:44.368052 30454 net.cpp:406] res4e_branch2a_relu <- res4e_branch2a
I0316 15:25:44.368057 30454 net.cpp:367] res4e_branch2a_relu -> res4e_branch2a (in-place)
I0316 15:25:44.368062 30454 net.cpp:122] Setting up res4e_branch2a_relu
I0316 15:25:44.368067 30454 net.cpp:129] Top shape: 64 256 1 1 (16384)
I0316 15:25:44.368069 30454 net.cpp:137] Memory required for data: 24744960
I0316 15:25:44.368072 30454 layer_factory.hpp:77] Creating layer res4e_branch2b
I0316 15:25:44.368077 30454 net.cpp:84] Creating Layer res4e_branch2b
I0316 15:25:44.368080 30454 net.cpp:406] res4e_branch2b <- res4e_branch2a
I0316 15:25:44.368086 30454 net.cpp:380] res4e_branch2b -> res4e_branch2b
I0316 15:25:44.373551 30454 net.cpp:122] Setting up res4e_branch2b
I0316 15:25:44.373572 30454 net.cpp:129] Top shape: 64 256 1 1 (16384)
I0316 15:25:44.373576 30454 net.cpp:137] Memory required for data: 24810496
I0316 15:25:44.373582 30454 layer_factory.hpp:77] Creating layer bn4e_branch2b
I0316 15:25:44.373590 30454 net.cpp:84] Creating Layer bn4e_branch2b
I0316 15:25:44.373594 30454 net.cpp:406] bn4e_branch2b <- res4e_branch2b
I0316 15:25:44.373600 30454 net.cpp:367] bn4e_branch2b -> res4e_branch2b (in-place)
I0316 15:25:44.373615 30454 net.cpp:122] Setting up bn4e_branch2b
I0316 15:25:44.373618 30454 net.cpp:129] Top shape: 64 256 1 1 (16384)
I0316 15:25:44.373621 30454 net.cpp:137] Memory required for data: 24876032
I0316 15:25:44.373627 30454 layer_factory.hpp:77] Creating layer scale4e_branch2b
I0316 15:25:44.373632 30454 net.cpp:84] Creating Layer scale4e_branch2b
I0316 15:25:44.373636 30454 net.cpp:406] scale4e_branch2b <- res4e_branch2b
I0316 15:25:44.373641 30454 net.cpp:367] scale4e_branch2b -> res4e_branch2b (in-place)
I0316 15:25:44.373651 30454 layer_factory.hpp:77] Creating layer scale4e_branch2b
I0316 15:25:44.373664 30454 net.cpp:122] Setting up scale4e_branch2b
I0316 15:25:44.373668 30454 net.cpp:129] Top shape: 64 256 1 1 (16384)
I0316 15:25:44.373672 30454 net.cpp:137] Memory required for data: 24941568
I0316 15:25:44.373677 30454 layer_factory.hpp:77] Creating layer res4e_branch2b_relu
I0316 15:25:44.373680 30454 net.cpp:84] Creating Layer res4e_branch2b_relu
I0316 15:25:44.373684 30454 net.cpp:406] res4e_branch2b_relu <- res4e_branch2b
I0316 15:25:44.373688 30454 net.cpp:367] res4e_branch2b_relu -> res4e_branch2b (in-place)
I0316 15:25:44.373693 30454 net.cpp:122] Setting up res4e_branch2b_relu
I0316 15:25:44.373697 30454 net.cpp:129] Top shape: 64 256 1 1 (16384)
I0316 15:25:44.373700 30454 net.cpp:137] Memory required for data: 25007104
I0316 15:25:44.373703 30454 layer_factory.hpp:77] Creating layer res4e_branch2c
I0316 15:25:44.373709 30454 net.cpp:84] Creating Layer res4e_branch2c
I0316 15:25:44.373713 30454 net.cpp:406] res4e_branch2c <- res4e_branch2b
I0316 15:25:44.373719 30454 net.cpp:380] res4e_branch2c -> res4e_branch2c
I0316 15:25:44.376039 30454 net.cpp:122] Setting up res4e_branch2c
I0316 15:25:44.376046 30454 net.cpp:129] Top shape: 64 1024 1 1 (65536)
I0316 15:25:44.376049 30454 net.cpp:137] Memory required for data: 25269248
I0316 15:25:44.376055 30454 layer_factory.hpp:77] Creating layer bn4e_branch2c
I0316 15:25:44.376058 30454 net.cpp:84] Creating Layer bn4e_branch2c
I0316 15:25:44.376062 30454 net.cpp:406] bn4e_branch2c <- res4e_branch2c
I0316 15:25:44.376067 30454 net.cpp:367] bn4e_branch2c -> res4e_branch2c (in-place)
I0316 15:25:44.376080 30454 net.cpp:122] Setting up bn4e_branch2c
I0316 15:25:44.376085 30454 net.cpp:129] Top shape: 64 1024 1 1 (65536)
I0316 15:25:44.376088 30454 net.cpp:137] Memory required for data: 25531392
I0316 15:25:44.376093 30454 layer_factory.hpp:77] Creating layer scale4e_branch2c
I0316 15:25:44.376097 30454 net.cpp:84] Creating Layer scale4e_branch2c
I0316 15:25:44.376101 30454 net.cpp:406] scale4e_branch2c <- res4e_branch2c
I0316 15:25:44.376106 30454 net.cpp:367] scale4e_branch2c -> res4e_branch2c (in-place)
I0316 15:25:44.376116 30454 layer_factory.hpp:77] Creating layer scale4e_branch2c
I0316 15:25:44.376132 30454 net.cpp:122] Setting up scale4e_branch2c
I0316 15:25:44.376137 30454 net.cpp:129] Top shape: 64 1024 1 1 (65536)
I0316 15:25:44.376139 30454 net.cpp:137] Memory required for data: 25793536
I0316 15:25:44.376143 30454 layer_factory.hpp:77] Creating layer res4e
I0316 15:25:44.376149 30454 net.cpp:84] Creating Layer res4e
I0316 15:25:44.376152 30454 net.cpp:406] res4e <- res4d_res4d_relu_0_split_1
I0316 15:25:44.376157 30454 net.cpp:406] res4e <- res4e_branch2c
I0316 15:25:44.376161 30454 net.cpp:380] res4e -> res4e
I0316 15:25:44.376169 30454 net.cpp:122] Setting up res4e
I0316 15:25:44.376174 30454 net.cpp:129] Top shape: 64 1024 1 1 (65536)
I0316 15:25:44.376178 30454 net.cpp:137] Memory required for data: 26055680
I0316 15:25:44.376180 30454 layer_factory.hpp:77] Creating layer res4e_relu
I0316 15:25:44.376184 30454 net.cpp:84] Creating Layer res4e_relu
I0316 15:25:44.376188 30454 net.cpp:406] res4e_relu <- res4e
I0316 15:25:44.376191 30454 net.cpp:367] res4e_relu -> res4e (in-place)
I0316 15:25:44.376196 30454 net.cpp:122] Setting up res4e_relu
I0316 15:25:44.376200 30454 net.cpp:129] Top shape: 64 1024 1 1 (65536)
I0316 15:25:44.376204 30454 net.cpp:137] Memory required for data: 26317824
I0316 15:25:44.376206 30454 layer_factory.hpp:77] Creating layer res4e_res4e_relu_0_split
I0316 15:25:44.376211 30454 net.cpp:84] Creating Layer res4e_res4e_relu_0_split
I0316 15:25:44.376214 30454 net.cpp:406] res4e_res4e_relu_0_split <- res4e
I0316 15:25:44.376219 30454 net.cpp:380] res4e_res4e_relu_0_split -> res4e_res4e_relu_0_split_0
I0316 15:25:44.376224 30454 net.cpp:380] res4e_res4e_relu_0_split -> res4e_res4e_relu_0_split_1
I0316 15:25:44.376230 30454 net.cpp:122] Setting up res4e_res4e_relu_0_split
I0316 15:25:44.376235 30454 net.cpp:129] Top shape: 64 1024 1 1 (65536)
I0316 15:25:44.376237 30454 net.cpp:129] Top shape: 64 1024 1 1 (65536)
I0316 15:25:44.376240 30454 net.cpp:137] Memory required for data: 26842112
I0316 15:25:44.376243 30454 layer_factory.hpp:77] Creating layer res4f_branch2a
I0316 15:25:44.376250 30454 net.cpp:84] Creating Layer res4f_branch2a
I0316 15:25:44.376253 30454 net.cpp:406] res4f_branch2a <- res4e_res4e_relu_0_split_0
I0316 15:25:44.376260 30454 net.cpp:380] res4f_branch2a -> res4f_branch2a
I0316 15:25:44.378487 30454 net.cpp:122] Setting up res4f_branch2a
I0316 15:25:44.378495 30454 net.cpp:129] Top shape: 64 256 1 1 (16384)
I0316 15:25:44.378499 30454 net.cpp:137] Memory required for data: 26907648
I0316 15:25:44.378502 30454 layer_factory.hpp:77] Creating layer bn4f_branch2a
I0316 15:25:44.378509 30454 net.cpp:84] Creating Layer bn4f_branch2a
I0316 15:25:44.378512 30454 net.cpp:406] bn4f_branch2a <- res4f_branch2a
I0316 15:25:44.378516 30454 net.cpp:367] bn4f_branch2a -> res4f_branch2a (in-place)
I0316 15:25:44.378528 30454 net.cpp:122] Setting up bn4f_branch2a
I0316 15:25:44.378532 30454 net.cpp:129] Top shape: 64 256 1 1 (16384)
I0316 15:25:44.378536 30454 net.cpp:137] Memory required for data: 26973184
I0316 15:25:44.378541 30454 layer_factory.hpp:77] Creating layer scale4f_branch2a
I0316 15:25:44.378546 30454 net.cpp:84] Creating Layer scale4f_branch2a
I0316 15:25:44.378549 30454 net.cpp:406] scale4f_branch2a <- res4f_branch2a
I0316 15:25:44.378553 30454 net.cpp:367] scale4f_branch2a -> res4f_branch2a (in-place)
I0316 15:25:44.378561 30454 layer_factory.hpp:77] Creating layer scale4f_branch2a
I0316 15:25:44.378571 30454 net.cpp:122] Setting up scale4f_branch2a
I0316 15:25:44.378576 30454 net.cpp:129] Top shape: 64 256 1 1 (16384)
I0316 15:25:44.378579 30454 net.cpp:137] Memory required for data: 27038720
I0316 15:25:44.378583 30454 layer_factory.hpp:77] Creating layer res4f_branch2a_relu
I0316 15:25:44.378588 30454 net.cpp:84] Creating Layer res4f_branch2a_relu
I0316 15:25:44.378592 30454 net.cpp:406] res4f_branch2a_relu <- res4f_branch2a
I0316 15:25:44.378597 30454 net.cpp:367] res4f_branch2a_relu -> res4f_branch2a (in-place)
I0316 15:25:44.378602 30454 net.cpp:122] Setting up res4f_branch2a_relu
I0316 15:25:44.378605 30454 net.cpp:129] Top shape: 64 256 1 1 (16384)
I0316 15:25:44.378612 30454 net.cpp:137] Memory required for data: 27104256
I0316 15:25:44.378615 30454 layer_factory.hpp:77] Creating layer res4f_branch2b
I0316 15:25:44.378620 30454 net.cpp:84] Creating Layer res4f_branch2b
I0316 15:25:44.378623 30454 net.cpp:406] res4f_branch2b <- res4f_branch2a
I0316 15:25:44.378629 30454 net.cpp:380] res4f_branch2b -> res4f_branch2b
I0316 15:25:44.383486 30454 net.cpp:122] Setting up res4f_branch2b
I0316 15:25:44.383493 30454 net.cpp:129] Top shape: 64 256 1 1 (16384)
I0316 15:25:44.383497 30454 net.cpp:137] Memory required for data: 27169792
I0316 15:25:44.383502 30454 layer_factory.hpp:77] Creating layer bn4f_branch2b
I0316 15:25:44.383507 30454 net.cpp:84] Creating Layer bn4f_branch2b
I0316 15:25:44.383512 30454 net.cpp:406] bn4f_branch2b <- res4f_branch2b
I0316 15:25:44.383515 30454 net.cpp:367] bn4f_branch2b -> res4f_branch2b (in-place)
I0316 15:25:44.383527 30454 net.cpp:122] Setting up bn4f_branch2b
I0316 15:25:44.383533 30454 net.cpp:129] Top shape: 64 256 1 1 (16384)
I0316 15:25:44.383535 30454 net.cpp:137] Memory required for data: 27235328
I0316 15:25:44.383554 30454 layer_factory.hpp:77] Creating layer scale4f_branch2b
I0316 15:25:44.383558 30454 net.cpp:84] Creating Layer scale4f_branch2b
I0316 15:25:44.383580 30454 net.cpp:406] scale4f_branch2b <- res4f_branch2b
I0316 15:25:44.383585 30454 net.cpp:367] scale4f_branch2b -> res4f_branch2b (in-place)
I0316 15:25:44.383594 30454 layer_factory.hpp:77] Creating layer scale4f_branch2b
I0316 15:25:44.383620 30454 net.cpp:122] Setting up scale4f_branch2b
I0316 15:25:44.383642 30454 net.cpp:129] Top shape: 64 256 1 1 (16384)
I0316 15:25:44.383646 30454 net.cpp:137] Memory required for data: 27300864
I0316 15:25:44.383663 30454 layer_factory.hpp:77] Creating layer res4f_branch2b_relu
I0316 15:25:44.383667 30454 net.cpp:84] Creating Layer res4f_branch2b_relu
I0316 15:25:44.383671 30454 net.cpp:406] res4f_branch2b_relu <- res4f_branch2b
I0316 15:25:44.383674 30454 net.cpp:367] res4f_branch2b_relu -> res4f_branch2b (in-place)
I0316 15:25:44.383680 30454 net.cpp:122] Setting up res4f_branch2b_relu
I0316 15:25:44.383703 30454 net.cpp:129] Top shape: 64 256 1 1 (16384)
I0316 15:25:44.383707 30454 net.cpp:137] Memory required for data: 27366400
I0316 15:25:44.383709 30454 layer_factory.hpp:77] Creating layer res4f_branch2c
I0316 15:25:44.383715 30454 net.cpp:84] Creating Layer res4f_branch2c
I0316 15:25:44.383718 30454 net.cpp:406] res4f_branch2c <- res4f_branch2b
I0316 15:25:44.383724 30454 net.cpp:380] res4f_branch2c -> res4f_branch2c
I0316 15:25:44.386405 30454 net.cpp:122] Setting up res4f_branch2c
I0316 15:25:44.386415 30454 net.cpp:129] Top shape: 64 1024 1 1 (65536)
I0316 15:25:44.386418 30454 net.cpp:137] Memory required for data: 27628544
I0316 15:25:44.386422 30454 layer_factory.hpp:77] Creating layer bn4f_branch2c
I0316 15:25:44.386428 30454 net.cpp:84] Creating Layer bn4f_branch2c
I0316 15:25:44.386432 30454 net.cpp:406] bn4f_branch2c <- res4f_branch2c
I0316 15:25:44.386436 30454 net.cpp:367] bn4f_branch2c -> res4f_branch2c (in-place)
I0316 15:25:44.386451 30454 net.cpp:122] Setting up bn4f_branch2c
I0316 15:25:44.386454 30454 net.cpp:129] Top shape: 64 1024 1 1 (65536)
I0316 15:25:44.386457 30454 net.cpp:137] Memory required for data: 27890688
I0316 15:25:44.386507 30454 layer_factory.hpp:77] Creating layer scale4f_branch2c
I0316 15:25:44.386512 30454 net.cpp:84] Creating Layer scale4f_branch2c
I0316 15:25:44.386515 30454 net.cpp:406] scale4f_branch2c <- res4f_branch2c
I0316 15:25:44.386536 30454 net.cpp:367] scale4f_branch2c -> res4f_branch2c (in-place)
I0316 15:25:44.386545 30454 layer_factory.hpp:77] Creating layer scale4f_branch2c
I0316 15:25:44.386559 30454 net.cpp:122] Setting up scale4f_branch2c
I0316 15:25:44.386562 30454 net.cpp:129] Top shape: 64 1024 1 1 (65536)
I0316 15:25:44.386565 30454 net.cpp:137] Memory required for data: 28152832
I0316 15:25:44.386569 30454 layer_factory.hpp:77] Creating layer res4f
I0316 15:25:44.386574 30454 net.cpp:84] Creating Layer res4f
I0316 15:25:44.386579 30454 net.cpp:406] res4f <- res4e_res4e_relu_0_split_1
I0316 15:25:44.386585 30454 net.cpp:406] res4f <- res4f_branch2c
I0316 15:25:44.386591 30454 net.cpp:380] res4f -> res4f
I0316 15:25:44.386597 30454 net.cpp:122] Setting up res4f
I0316 15:25:44.386601 30454 net.cpp:129] Top shape: 64 1024 1 1 (65536)
I0316 15:25:44.386605 30454 net.cpp:137] Memory required for data: 28414976
I0316 15:25:44.386607 30454 layer_factory.hpp:77] Creating layer res4f_relu
I0316 15:25:44.386611 30454 net.cpp:84] Creating Layer res4f_relu
I0316 15:25:44.386615 30454 net.cpp:406] res4f_relu <- res4f
I0316 15:25:44.386618 30454 net.cpp:367] res4f_relu -> res4f (in-place)
I0316 15:25:44.386622 30454 net.cpp:122] Setting up res4f_relu
I0316 15:25:44.386626 30454 net.cpp:129] Top shape: 64 1024 1 1 (65536)
I0316 15:25:44.386629 30454 net.cpp:137] Memory required for data: 28677120
I0316 15:25:44.386632 30454 layer_factory.hpp:77] Creating layer res4f_res4f_relu_0_split
I0316 15:25:44.386637 30454 net.cpp:84] Creating Layer res4f_res4f_relu_0_split
I0316 15:25:44.386641 30454 net.cpp:406] res4f_res4f_relu_0_split <- res4f
I0316 15:25:44.386646 30454 net.cpp:380] res4f_res4f_relu_0_split -> res4f_res4f_relu_0_split_0
I0316 15:25:44.386651 30454 net.cpp:380] res4f_res4f_relu_0_split -> res4f_res4f_relu_0_split_1
I0316 15:25:44.386656 30454 net.cpp:122] Setting up res4f_res4f_relu_0_split
I0316 15:25:44.386662 30454 net.cpp:129] Top shape: 64 1024 1 1 (65536)
I0316 15:25:44.386664 30454 net.cpp:129] Top shape: 64 1024 1 1 (65536)
I0316 15:25:44.386667 30454 net.cpp:137] Memory required for data: 29201408
I0316 15:25:44.386670 30454 layer_factory.hpp:77] Creating layer res5a_branch1
I0316 15:25:44.386675 30454 net.cpp:84] Creating Layer res5a_branch1
I0316 15:25:44.386679 30454 net.cpp:406] res5a_branch1 <- res4f_res4f_relu_0_split_0
I0316 15:25:44.386684 30454 net.cpp:380] res5a_branch1 -> res5a_branch1
I0316 15:25:44.404989 30454 net.cpp:122] Setting up res5a_branch1
I0316 15:25:44.405046 30454 net.cpp:129] Top shape: 64 2048 1 1 (131072)
I0316 15:25:44.405051 30454 net.cpp:137] Memory required for data: 29725696
I0316 15:25:44.405063 30454 layer_factory.hpp:77] Creating layer bn5a_branch1
I0316 15:25:44.405079 30454 net.cpp:84] Creating Layer bn5a_branch1
I0316 15:25:44.405087 30454 net.cpp:406] bn5a_branch1 <- res5a_branch1
I0316 15:25:44.405097 30454 net.cpp:367] bn5a_branch1 -> res5a_branch1 (in-place)
I0316 15:25:44.405127 30454 net.cpp:122] Setting up bn5a_branch1
I0316 15:25:44.405133 30454 net.cpp:129] Top shape: 64 2048 1 1 (131072)
I0316 15:25:44.405135 30454 net.cpp:137] Memory required for data: 30249984
I0316 15:25:44.405143 30454 layer_factory.hpp:77] Creating layer scale5a_branch1
I0316 15:25:44.405150 30454 net.cpp:84] Creating Layer scale5a_branch1
I0316 15:25:44.405154 30454 net.cpp:406] scale5a_branch1 <- res5a_branch1
I0316 15:25:44.405159 30454 net.cpp:367] scale5a_branch1 -> res5a_branch1 (in-place)
I0316 15:25:44.405179 30454 layer_factory.hpp:77] Creating layer scale5a_branch1
I0316 15:25:44.405216 30454 net.cpp:122] Setting up scale5a_branch1
I0316 15:25:44.405222 30454 net.cpp:129] Top shape: 64 2048 1 1 (131072)
I0316 15:25:44.405225 30454 net.cpp:137] Memory required for data: 30774272
I0316 15:25:44.405231 30454 layer_factory.hpp:77] Creating layer res5a_branch2a
I0316 15:25:44.405256 30454 net.cpp:84] Creating Layer res5a_branch2a
I0316 15:25:44.405261 30454 net.cpp:406] res5a_branch2a <- res4f_res4f_relu_0_split_1
I0316 15:25:44.405267 30454 net.cpp:380] res5a_branch2a -> res5a_branch2a
I0316 15:25:44.410051 30454 net.cpp:122] Setting up res5a_branch2a
I0316 15:25:44.410070 30454 net.cpp:129] Top shape: 64 512 1 1 (32768)
I0316 15:25:44.410073 30454 net.cpp:137] Memory required for data: 30905344
I0316 15:25:44.410079 30454 layer_factory.hpp:77] Creating layer bn5a_branch2a
I0316 15:25:44.410089 30454 net.cpp:84] Creating Layer bn5a_branch2a
I0316 15:25:44.410094 30454 net.cpp:406] bn5a_branch2a <- res5a_branch2a
I0316 15:25:44.410099 30454 net.cpp:367] bn5a_branch2a -> res5a_branch2a (in-place)
I0316 15:25:44.410114 30454 net.cpp:122] Setting up bn5a_branch2a
I0316 15:25:44.410122 30454 net.cpp:129] Top shape: 64 512 1 1 (32768)
I0316 15:25:44.410126 30454 net.cpp:137] Memory required for data: 31036416
I0316 15:25:44.410131 30454 layer_factory.hpp:77] Creating layer scale5a_branch2a
I0316 15:25:44.410138 30454 net.cpp:84] Creating Layer scale5a_branch2a
I0316 15:25:44.410141 30454 net.cpp:406] scale5a_branch2a <- res5a_branch2a
I0316 15:25:44.410145 30454 net.cpp:367] scale5a_branch2a -> res5a_branch2a (in-place)
I0316 15:25:44.410156 30454 layer_factory.hpp:77] Creating layer scale5a_branch2a
I0316 15:25:44.410171 30454 net.cpp:122] Setting up scale5a_branch2a
I0316 15:25:44.410176 30454 net.cpp:129] Top shape: 64 512 1 1 (32768)
I0316 15:25:44.410178 30454 net.cpp:137] Memory required for data: 31167488
I0316 15:25:44.410182 30454 layer_factory.hpp:77] Creating layer res5a_branch2a_relu
I0316 15:25:44.410187 30454 net.cpp:84] Creating Layer res5a_branch2a_relu
I0316 15:25:44.410190 30454 net.cpp:406] res5a_branch2a_relu <- res5a_branch2a
I0316 15:25:44.410195 30454 net.cpp:367] res5a_branch2a_relu -> res5a_branch2a (in-place)
I0316 15:25:44.410200 30454 net.cpp:122] Setting up res5a_branch2a_relu
I0316 15:25:44.410205 30454 net.cpp:129] Top shape: 64 512 1 1 (32768)
I0316 15:25:44.410208 30454 net.cpp:137] Memory required for data: 31298560
I0316 15:25:44.410210 30454 layer_factory.hpp:77] Creating layer res5a_branch2b
I0316 15:25:44.410218 30454 net.cpp:84] Creating Layer res5a_branch2b
I0316 15:25:44.410221 30454 net.cpp:406] res5a_branch2b <- res5a_branch2a
I0316 15:25:44.410225 30454 net.cpp:380] res5a_branch2b -> res5a_branch2b
I0316 15:25:44.430449 30454 net.cpp:122] Setting up res5a_branch2b
I0316 15:25:44.430472 30454 net.cpp:129] Top shape: 64 512 1 1 (32768)
I0316 15:25:44.430476 30454 net.cpp:137] Memory required for data: 31429632
I0316 15:25:44.430482 30454 layer_factory.hpp:77] Creating layer bn5a_branch2b
I0316 15:25:44.430490 30454 net.cpp:84] Creating Layer bn5a_branch2b
I0316 15:25:44.430495 30454 net.cpp:406] bn5a_branch2b <- res5a_branch2b
I0316 15:25:44.430500 30454 net.cpp:367] bn5a_branch2b -> res5a_branch2b (in-place)
I0316 15:25:44.430513 30454 net.cpp:122] Setting up bn5a_branch2b
I0316 15:25:44.430518 30454 net.cpp:129] Top shape: 64 512 1 1 (32768)
I0316 15:25:44.430521 30454 net.cpp:137] Memory required for data: 31560704
I0316 15:25:44.430526 30454 layer_factory.hpp:77] Creating layer scale5a_branch2b
I0316 15:25:44.430532 30454 net.cpp:84] Creating Layer scale5a_branch2b
I0316 15:25:44.430536 30454 net.cpp:406] scale5a_branch2b <- res5a_branch2b
I0316 15:25:44.430539 30454 net.cpp:367] scale5a_branch2b -> res5a_branch2b (in-place)
I0316 15:25:44.430549 30454 layer_factory.hpp:77] Creating layer scale5a_branch2b
I0316 15:25:44.430560 30454 net.cpp:122] Setting up scale5a_branch2b
I0316 15:25:44.430565 30454 net.cpp:129] Top shape: 64 512 1 1 (32768)
I0316 15:25:44.430568 30454 net.cpp:137] Memory required for data: 31691776
I0316 15:25:44.430572 30454 layer_factory.hpp:77] Creating layer res5a_branch2b_relu
I0316 15:25:44.430577 30454 net.cpp:84] Creating Layer res5a_branch2b_relu
I0316 15:25:44.430579 30454 net.cpp:406] res5a_branch2b_relu <- res5a_branch2b
I0316 15:25:44.430583 30454 net.cpp:367] res5a_branch2b_relu -> res5a_branch2b (in-place)
I0316 15:25:44.430588 30454 net.cpp:122] Setting up res5a_branch2b_relu
I0316 15:25:44.430591 30454 net.cpp:129] Top shape: 64 512 1 1 (32768)
I0316 15:25:44.430594 30454 net.cpp:137] Memory required for data: 31822848
I0316 15:25:44.430598 30454 layer_factory.hpp:77] Creating layer res5a_branch2c
I0316 15:25:44.430603 30454 net.cpp:84] Creating Layer res5a_branch2c
I0316 15:25:44.430606 30454 net.cpp:406] res5a_branch2c <- res5a_branch2b
I0316 15:25:44.430611 30454 net.cpp:380] res5a_branch2c -> res5a_branch2c
I0316 15:25:44.440073 30454 net.cpp:122] Setting up res5a_branch2c
I0316 15:25:44.440135 30454 net.cpp:129] Top shape: 64 2048 1 1 (131072)
I0316 15:25:44.440140 30454 net.cpp:137] Memory required for data: 32347136
I0316 15:25:44.440151 30454 layer_factory.hpp:77] Creating layer bn5a_branch2c
I0316 15:25:44.440181 30454 net.cpp:84] Creating Layer bn5a_branch2c
I0316 15:25:44.440188 30454 net.cpp:406] bn5a_branch2c <- res5a_branch2c
I0316 15:25:44.440198 30454 net.cpp:367] bn5a_branch2c -> res5a_branch2c (in-place)
I0316 15:25:44.440227 30454 net.cpp:122] Setting up bn5a_branch2c
I0316 15:25:44.440232 30454 net.cpp:129] Top shape: 64 2048 1 1 (131072)
I0316 15:25:44.440237 30454 net.cpp:137] Memory required for data: 32871424
I0316 15:25:44.440243 30454 layer_factory.hpp:77] Creating layer scale5a_branch2c
I0316 15:25:44.440251 30454 net.cpp:84] Creating Layer scale5a_branch2c
I0316 15:25:44.440254 30454 net.cpp:406] scale5a_branch2c <- res5a_branch2c
I0316 15:25:44.440259 30454 net.cpp:367] scale5a_branch2c -> res5a_branch2c (in-place)
I0316 15:25:44.440275 30454 layer_factory.hpp:77] Creating layer scale5a_branch2c
I0316 15:25:44.440299 30454 net.cpp:122] Setting up scale5a_branch2c
I0316 15:25:44.440304 30454 net.cpp:129] Top shape: 64 2048 1 1 (131072)
I0316 15:25:44.440306 30454 net.cpp:137] Memory required for data: 33395712
I0316 15:25:44.440310 30454 layer_factory.hpp:77] Creating layer res5a
I0316 15:25:44.440318 30454 net.cpp:84] Creating Layer res5a
I0316 15:25:44.440321 30454 net.cpp:406] res5a <- res5a_branch1
I0316 15:25:44.440326 30454 net.cpp:406] res5a <- res5a_branch2c
I0316 15:25:44.440332 30454 net.cpp:380] res5a -> res5a
I0316 15:25:44.440341 30454 net.cpp:122] Setting up res5a
I0316 15:25:44.440346 30454 net.cpp:129] Top shape: 64 2048 1 1 (131072)
I0316 15:25:44.440348 30454 net.cpp:137] Memory required for data: 33920000
I0316 15:25:44.440351 30454 layer_factory.hpp:77] Creating layer res5a_relu
I0316 15:25:44.440357 30454 net.cpp:84] Creating Layer res5a_relu
I0316 15:25:44.440361 30454 net.cpp:406] res5a_relu <- res5a
I0316 15:25:44.440368 30454 net.cpp:367] res5a_relu -> res5a (in-place)
I0316 15:25:44.440373 30454 net.cpp:122] Setting up res5a_relu
I0316 15:25:44.440377 30454 net.cpp:129] Top shape: 64 2048 1 1 (131072)
I0316 15:25:44.440381 30454 net.cpp:137] Memory required for data: 34444288
I0316 15:25:44.440384 30454 layer_factory.hpp:77] Creating layer res5a_res5a_relu_0_split
I0316 15:25:44.440389 30454 net.cpp:84] Creating Layer res5a_res5a_relu_0_split
I0316 15:25:44.440392 30454 net.cpp:406] res5a_res5a_relu_0_split <- res5a
I0316 15:25:44.440397 30454 net.cpp:380] res5a_res5a_relu_0_split -> res5a_res5a_relu_0_split_0
I0316 15:25:44.440416 30454 net.cpp:380] res5a_res5a_relu_0_split -> res5a_res5a_relu_0_split_1
I0316 15:25:44.440423 30454 net.cpp:122] Setting up res5a_res5a_relu_0_split
I0316 15:25:44.440428 30454 net.cpp:129] Top shape: 64 2048 1 1 (131072)
I0316 15:25:44.440433 30454 net.cpp:129] Top shape: 64 2048 1 1 (131072)
I0316 15:25:44.440438 30454 net.cpp:137] Memory required for data: 35492864
I0316 15:25:44.440443 30454 layer_factory.hpp:77] Creating layer res5b_branch2a
I0316 15:25:44.440450 30454 net.cpp:84] Creating Layer res5b_branch2a
I0316 15:25:44.440454 30454 net.cpp:406] res5b_branch2a <- res5a_res5a_relu_0_split_0
I0316 15:25:44.440459 30454 net.cpp:380] res5b_branch2a -> res5b_branch2a
…
I0316 15:25:44.592377 30454 net.cpp:129] Top shape: 1 1024 1 1 (1024)
I0316 15:25:44.592381 30454 net.cpp:137] Memory required for data: 337496
I0316 15:25:44.592383 30454 layer_factory.hpp:77] Creating layer res4c_res4c_relu_0_split
I0316 15:25:44.592389 30454 net.cpp:84] Creating Layer res4c_res4c_relu_0_split
I0316 15:25:44.592392 30454 net.cpp:406] res4c_res4c_relu_0_split <- res4c
I0316 15:25:44.592397 30454 net.cpp:380] res4c_res4c_relu_0_split -> res4c_res4c_relu_0_split_0
I0316 15:25:44.592404 30454 net.cpp:380] res4c_res4c_relu_0_split -> res4c_res4c_relu_0_split_1
I0316 15:25:44.592409 30454 net.cpp:122] Setting up res4c_res4c_relu_0_split
I0316 15:25:44.592414 30454 net.cpp:129] Top shape: 1 1024 1 1 (1024)
I0316 15:25:44.592418 30454 net.cpp:129] Top shape: 1 1024 1 1 (1024)
I0316 15:25:44.592422 30454 net.cpp:137] Memory required for data: 345688
I0316 15:25:44.592424 30454 layer_factory.hpp:77] Creating layer res4d_branch2a
I0316 15:25:44.592432 30454 net.cpp:84] Creating Layer res4d_branch2a
I0316 15:25:44.592434 30454 net.cpp:406] res4d_branch2a <- res4c_res4c_relu_0_split_0
I0316 15:25:44.592439 30454 net.cpp:380] res4d_branch2a -> res4d_branch2a
I0316 15:25:44.594952 30454 net.cpp:122] Setting up res4d_branch2a
I0316 15:25:44.594970 30454 net.cpp:129] Top shape: 1 256 1 1 (256)
I0316 15:25:44.594974 30454 net.cpp:137] Memory required for data: 346712
I0316 15:25:44.594980 30454 layer_factory.hpp:77] Creating layer bn4d_branch2a
I0316 15:25:44.594986 30454 net.cpp:84] Creating Layer bn4d_branch2a
I0316 15:25:44.594991 30454 net.cpp:406] bn4d_branch2a <- res4d_branch2a
I0316 15:25:44.594995 30454 net.cpp:367] bn4d_branch2a -> res4d_branch2a (in-place)
I0316 15:25:44.595010 30454 net.cpp:122] Setting up bn4d_branch2a
I0316 15:25:44.595013 30454 net.cpp:129] Top shape: 1 256 1 1 (256)
I0316 15:25:44.595016 30454 net.cpp:137] Memory required for data: 347736
I0316 15:25:44.595021 30454 layer_factory.hpp:77] Creating layer scale4d_branch2a
I0316 15:25:44.595026 30454 net.cpp:84] Creating Layer scale4d_branch2a
I0316 15:25:44.595029 30454 net.cpp:406] scale4d_branch2a <- res4d_branch2a
I0316 15:25:44.595033 30454 net.cpp:367] scale4d_branch2a -> res4d_branch2a (in-place)
I0316 15:25:44.595043 30454 layer_factory.hpp:77] Creating layer scale4d_branch2a
I0316 15:25:44.595054 30454 net.cpp:122] Setting up scale4d_branch2a
I0316 15:25:44.595058 30454 net.cpp:129] Top shape: 1 256 1 1 (256)
I0316 15:25:44.595062 30454 net.cpp:137] Memory required for data: 348760
I0316 15:25:44.595065 30454 layer_factory.hpp:77] Creating layer res4d_branch2a_relu
I0316 15:25:44.595070 30454 net.cpp:84] Creating Layer res4d_branch2a_relu
I0316 15:25:44.595073 30454 net.cpp:406] res4d_branch2a_relu <- res4d_branch2a
I0316 15:25:44.595077 30454 net.cpp:367] res4d_branch2a_relu -> res4d_branch2a (in-place)
I0316 15:25:44.595082 30454 net.cpp:122] Setting up res4d_branch2a_relu
I0316 15:25:44.595086 30454 net.cpp:129] Top shape: 1 256 1 1 (256)
I0316 15:25:44.595088 30454 net.cpp:137] Memory required for data: 349784
I0316 15:25:44.595091 30454 layer_factory.hpp:77] Creating layer res4d_branch2b
I0316 15:25:44.595098 30454 net.cpp:84] Creating Layer res4d_branch2b
I0316 15:25:44.595100 30454 net.cpp:406] res4d_branch2b <- res4d_branch2a
I0316 15:25:44.595106 30454 net.cpp:380] res4d_branch2b -> res4d_branch2b
I0316 15:25:44.600108 30454 net.cpp:122] Setting up res4d_branch2b
I0316 15:25:44.600118 30454 net.cpp:129] Top shape: 1 256 1 1 (256)
I0316 15:25:44.600121 30454 net.cpp:137] Memory required for data: 350808
I0316 15:25:44.600126 30454 layer_factory.hpp:77] Creating layer bn4d_branch2b
I0316 15:25:44.600132 30454 net.cpp:84] Creating Layer bn4d_branch2b
I0316 15:25:44.600136 30454 net.cpp:406] bn4d_branch2b <- res4d_branch2b
I0316 15:25:44.600145 30454 net.cpp:367] bn4d_branch2b -> res4d_branch2b (in-place)
I0316 15:25:44.600157 30454 net.cpp:122] Setting up bn4d_branch2b
I0316 15:25:44.600162 30454 net.cpp:129] Top shape: 1 256 1 1 (256)
I0316 15:25:44.600164 30454 net.cpp:137] Memory required for data: 351832
I0316 15:25:44.600169 30454 layer_factory.hpp:77] Creating layer scale4d_branch2b
I0316 15:25:44.600175 30454 net.cpp:84] Creating Layer scale4d_branch2b
I0316 15:25:44.600178 30454 net.cpp:406] scale4d_branch2b <- res4d_branch2b
I0316 15:25:44.600183 30454 net.cpp:367] scale4d_branch2b -> res4d_branch2b (in-place)
I0316 15:25:44.600191 30454 layer_factory.hpp:77] Creating layer scale4d_branch2b
I0316 15:25:44.600203 30454 net.cpp:122] Setting up scale4d_branch2b
I0316 15:25:44.600208 30454 net.cpp:129] Top shape: 1 256 1 1 (256)
I0316 15:25:44.600210 30454 net.cpp:137] Memory required for data: 352856
I0316 15:25:44.600215 30454 layer_factory.hpp:77] Creating layer res4d_branch2b_relu
I0316 15:25:44.600220 30454 net.cpp:84] Creating Layer res4d_branch2b_relu
I0316 15:25:44.600224 30454 net.cpp:406] res4d_branch2b_relu <- res4d_branch2b
I0316 15:25:44.600229 30454 net.cpp:367] res4d_branch2b_relu -> res4d_branch2b (in-place)
I0316 15:25:44.600232 30454 net.cpp:122] Setting up res4d_branch2b_relu
I0316 15:25:44.600236 30454 net.cpp:129] Top shape: 1 256 1 1 (256)
I0316 15:25:44.600239 30454 net.cpp:137] Memory required for data: 353880
I0316 15:25:44.600242 30454 layer_factory.hpp:77] Creating layer res4d_branch2c
I0316 15:25:44.600250 30454 net.cpp:84] Creating Layer res4d_branch2c
I0316 15:25:44.600252 30454 net.cpp:406] res4d_branch2c <- res4d_branch2b
I0316 15:25:44.600257 30454 net.cpp:380] res4d_branch2c -> res4d_branch2c
I0316 15:25:44.602597 30454 net.cpp:122] Setting up res4d_branch2c
I0316 15:25:44.602607 30454 net.cpp:129] Top shape: 1 1024 1 1 (1024)
I0316 15:25:44.602610 30454 net.cpp:137] Memory required for data: 357976
I0316 15:25:44.602614 30454 layer_factory.hpp:77] Creating layer bn4d_branch2c
I0316 15:25:44.602619 30454 net.cpp:84] Creating Layer bn4d_branch2c
I0316 15:25:44.602644 30454 net.cpp:406] bn4d_branch2c <- res4d_branch2c
I0316 15:25:44.602649 30454 net.cpp:367] bn4d_branch2c -> res4d_branch2c (in-place)
I0316 15:25:44.602668 30454 net.cpp:122] Setting up bn4d_branch2c
I0316 15:25:44.602672 30454 net.cpp:129] Top shape: 1 1024 1 1 (1024)
I0316 15:25:44.602675 30454 net.cpp:137] Memory required for data: 362072
I0316 15:25:44.602685 30454 layer_factory.hpp:77] Creating layer scale4d_branch2c
I0316 15:25:44.602710 30454 net.cpp:84] Creating Layer scale4d_branch2c
I0316 15:25:44.602715 30454 net.cpp:406] scale4d_branch2c <- res4d_branch2c
I0316 15:25:44.602720 30454 net.cpp:367] scale4d_branch2c -> res4d_branch2c (in-place)
I0316 15:25:44.602730 30454 layer_factory.hpp:77] Creating layer scale4d_branch2c
I0316 15:25:44.602743 30454 net.cpp:122] Setting up scale4d_branch2c
I0316 15:25:44.602747 30454 net.cpp:129] Top shape: 1 1024 1 1 (1024)
I0316 15:25:44.602751 30454 net.cpp:137] Memory required for data: 366168
I0316 15:25:44.602756 30454 layer_factory.hpp:77] Creating layer res4d
I0316 15:25:44.602761 30454 net.cpp:84] Creating Layer res4d
I0316 15:25:44.602766 30454 net.cpp:406] res4d <- res4c_res4c_relu_0_split_1
I0316 15:25:44.602771 30454 net.cpp:406] res4d <- res4d_branch2c
I0316 15:25:44.602775 30454 net.cpp:380] res4d -> res4d
I0316 15:25:44.602782 30454 net.cpp:122] Setting up res4d
I0316 15:25:44.602787 30454 net.cpp:129] Top shape: 1 1024 1 1 (1024)
I0316 15:25:44.602790 30454 net.cpp:137] Memory required for data: 370264
I0316 15:25:44.602793 30454 layer_factory.hpp:77] Creating layer res4d_relu
I0316 15:25:44.602798 30454 net.cpp:84] Creating Layer res4d_relu
I0316 15:25:44.602802 30454 net.cpp:406] res4d_relu <- res4d
I0316 15:25:44.602808 30454 net.cpp:367] res4d_relu -> res4d (in-place)
I0316 15:25:44.602813 30454 net.cpp:122] Setting up res4d_relu
I0316 15:25:44.602818 30454 net.cpp:129] Top shape: 1 1024 1 1 (1024)
I0316 15:25:44.602820 30454 net.cpp:137] Memory required for data: 374360
I0316 15:25:44.602828 30454 layer_factory.hpp:77] Creating layer res4d_res4d_relu_0_split
I0316 15:25:44.602833 30454 net.cpp:84] Creating Layer res4d_res4d_relu_0_split
I0316 15:25:44.602836 30454 net.cpp:406] res4d_res4d_relu_0_split <- res4d
I0316 15:25:44.602841 30454 net.cpp:380] res4d_res4d_relu_0_split -> res4d_res4d_relu_0_split_0
I0316 15:25:44.602846 30454 net.cpp:380] res4d_res4d_relu_0_split -> res4d_res4d_relu_0_split_1
I0316 15:25:44.602854 30454 net.cpp:122] Setting up res4d_res4d_relu_0_split
I0316 15:25:44.602857 30454 net.cpp:129] Top shape: 1 1024 1 1 (1024)
I0316 15:25:44.602861 30454 net.cpp:129] Top shape: 1 1024 1 1 (1024)
I0316 15:25:44.602865 30454 net.cpp:137] Memory required for data: 382552
I0316 15:25:44.602869 30454 layer_factory.hpp:77] Creating layer res4e_branch2a
I0316 15:25:44.602875 30454 net.cpp:84] Creating Layer res4e_branch2a
I0316 15:25:44.602880 30454 net.cpp:406] res4e_branch2a <- res4d_res4d_relu_0_split_0
I0316 15:25:44.602885 30454 net.cpp:380] res4e_branch2a -> res4e_branch2a
I0316 15:25:44.605614 30454 net.cpp:122] Setting up res4e_branch2a
I0316 15:25:44.605626 30454 net.cpp:129] Top shape: 1 256 1 1 (256)
I0316 15:25:44.605629 30454 net.cpp:137] Memory required for data: 383576
I0316 15:25:44.605653 30454 layer_factory.hpp:77] Creating layer bn4e_branch2a
I0316 15:25:44.605675 30454 net.cpp:84] Creating Layer bn4e_branch2a
I0316 15:25:44.605679 30454 net.cpp:406] bn4e_branch2a <- res4e_branch2a
I0316 15:25:44.605684 30454 net.cpp:367] bn4e_branch2a -> res4e_branch2a (in-place)
I0316 15:25:44.605696 30454 net.cpp:122] Setting up bn4e_branch2a
I0316 15:25:44.605700 30454 net.cpp:129] Top shape: 1 256 1 1 (256)
I0316 15:25:44.605703 30454 net.cpp:137] Memory required for data: 384600
I0316 15:25:44.605708 30454 layer_factory.hpp:77] Creating layer scale4e_branch2a
I0316 15:25:44.605728 30454 net.cpp:84] Creating Layer scale4e_branch2a
I0316 15:25:44.605732 30454 net.cpp:406] scale4e_branch2a <- res4e_branch2a
I0316 15:25:44.605736 30454 net.cpp:367] scale4e_branch2a -> res4e_branch2a (in-place)
I0316 15:25:44.605744 30454 layer_factory.hpp:77] Creating layer scale4e_branch2a
I0316 15:25:44.605756 30454 net.cpp:122] Setting up scale4e_branch2a
I0316 15:25:44.605762 30454 net.cpp:129] Top shape: 1 256 1 1 (256)
I0316 15:25:44.605764 30454 net.cpp:137] Memory required for data: 385624
I0316 15:25:44.605768 30454 layer_factory.hpp:77] Creating layer res4e_branch2a_relu
I0316 15:25:44.605773 30454 net.cpp:84] Creating Layer res4e_branch2a_relu
I0316 15:25:44.605777 30454 net.cpp:406] res4e_branch2a_relu <- res4e_branch2a
I0316 15:25:44.605782 30454 net.cpp:367] res4e_branch2a_relu -> res4e_branch2a (in-place)
I0316 15:25:44.605787 30454 net.cpp:122] Setting up res4e_branch2a_relu
I0316 15:25:44.605790 30454 net.cpp:129] Top shape: 1 256 1 1 (256)
I0316 15:25:44.605793 30454 net.cpp:137] Memory required for data: 386648
I0316 15:25:44.605796 30454 layer_factory.hpp:77] Creating layer res4e_branch2b
I0316 15:25:44.605804 30454 net.cpp:84] Creating Layer res4e_branch2b
I0316 15:25:44.605808 30454 net.cpp:406] res4e_branch2b <- res4e_branch2a
I0316 15:25:44.605813 30454 net.cpp:380] res4e_branch2b -> res4e_branch2b
I0316 15:25:44.611747 30454 net.cpp:122] Setting up res4e_branch2b
I0316 15:25:44.611770 30454 net.cpp:129] Top shape: 1 256 1 1 (256)
I0316 15:25:44.611773 30454 net.cpp:137] Memory required for data: 387672
I0316 15:25:44.611779 30454 layer_factory.hpp:77] Creating layer bn4e_branch2b
I0316 15:25:44.611788 30454 net.cpp:84] Creating Layer bn4e_branch2b
I0316 15:25:44.611791 30454 net.cpp:406] bn4e_branch2b <- res4e_branch2b
I0316 15:25:44.611798 30454 net.cpp:367] bn4e_branch2b -> res4e_branch2b (in-place)
I0316 15:25:44.611810 30454 net.cpp:122] Setting up bn4e_branch2b
I0316 15:25:44.611814 30454 net.cpp:129] Top shape: 1 256 1 1 (256)
I0316 15:25:44.611817 30454 net.cpp:137] Memory required for data: 388696
I0316 15:25:44.611822 30454 layer_factory.hpp:77] Creating layer scale4e_branch2b
I0316 15:25:44.611829 30454 net.cpp:84] Creating Layer scale4e_branch2b
I0316 15:25:44.611837 30454 net.cpp:406] scale4e_branch2b <- res4e_branch2b
I0316 15:25:44.611841 30454 net.cpp:367] scale4e_branch2b -> res4e_branch2b (in-place)
I0316 15:25:44.611851 30454 layer_factory.hpp:77] Creating layer scale4e_branch2b
I0316 15:25:44.611865 30454 net.cpp:122] Setting up scale4e_branch2b
I0316 15:25:44.611868 30454 net.cpp:129] Top shape: 1 256 1 1 (256)
I0316 15:25:44.611871 30454 net.cpp:137] Memory required for data: 389720
I0316 15:25:44.611876 30454 layer_factory.hpp:77] Creating layer res4e_branch2b_relu
I0316 15:25:44.611879 30454 net.cpp:84] Creating Layer res4e_branch2b_relu
I0316 15:25:44.611882 30454 net.cpp:406] res4e_branch2b_relu <- res4e_branch2b
I0316 15:25:44.611887 30454 net.cpp:367] res4e_branch2b_relu -> res4e_branch2b (in-place)
I0316 15:25:44.611892 30454 net.cpp:122] Setting up res4e_branch2b_relu
I0316 15:25:44.611896 30454 net.cpp:129] Top shape: 1 256 1 1 (256)
I0316 15:25:44.611898 30454 net.cpp:137] Memory required for data: 390744
I0316 15:25:44.611901 30454 layer_factory.hpp:77] Creating layer res4e_branch2c
I0316 15:25:44.611907 30454 net.cpp:84] Creating Layer res4e_branch2c
I0316 15:25:44.611909 30454 net.cpp:406] res4e_branch2c <- res4e_branch2b
I0316 15:25:44.611915 30454 net.cpp:380] res4e_branch2c -> res4e_branch2c
I0316 15:25:44.614157 30454 net.cpp:122] Setting up res4e_branch2c
I0316 15:25:44.614166 30454 net.cpp:129] Top shape: 1 1024 1 1 (1024)
I0316 15:25:44.614168 30454 net.cpp:137] Memory required for data: 394840
I0316 15:25:44.614172 30454 layer_factory.hpp:77] Creating layer bn4e_branch2c
I0316 15:25:44.614177 30454 net.cpp:84] Creating Layer bn4e_branch2c
I0316 15:25:44.614181 30454 net.cpp:406] bn4e_branch2c <- res4e_branch2c
I0316 15:25:44.614186 30454 net.cpp:367] bn4e_branch2c -> res4e_branch2c (in-place)
I0316 15:25:44.614197 30454 net.cpp:122] Setting up bn4e_branch2c
I0316 15:25:44.614203 30454 net.cpp:129] Top shape: 1 1024 1 1 (1024)
I0316 15:25:44.614207 30454 net.cpp:137] Memory required for data: 398936
I0316 15:25:44.614212 30454 layer_factory.hpp:77] Creating layer scale4e_branch2c
I0316 15:25:44.614215 30454 net.cpp:84] Creating Layer scale4e_branch2c
I0316 15:25:44.614218 30454 net.cpp:406] scale4e_branch2c <- res4e_branch2c
I0316 15:25:44.614223 30454 net.cpp:367] scale4e_branch2c -> res4e_branch2c (in-place)
I0316 15:25:44.614233 30454 layer_factory.hpp:77] Creating layer scale4e_branch2c
I0316 15:25:44.614243 30454 net.cpp:122] Setting up scale4e_branch2c
I0316 15:25:44.614248 30454 net.cpp:129] Top shape: 1 1024 1 1 (1024)
I0316 15:25:44.614251 30454 net.cpp:137] Memory required for data: 403032
I0316 15:25:44.614255 30454 layer_factory.hpp:77] Creating layer res4e
I0316 15:25:44.614260 30454 net.cpp:84] Creating Layer res4e
I0316 15:25:44.614264 30454 net.cpp:406] res4e <- res4d_res4d_relu_0_split_1
I0316 15:25:44.614267 30454 net.cpp:406] res4e <- res4e_branch2c
I0316 15:25:44.614271 30454 net.cpp:380] res4e -> res4e
I0316 15:25:44.614277 30454 net.cpp:122] Setting up res4e
I0316 15:25:44.614281 30454 net.cpp:129] Top shape: 1 1024 1 1 (1024)
I0316 15:25:44.614284 30454 net.cpp:137] Memory required for data: 407128
I0316 15:25:44.614287 30454 layer_factory.hpp:77] Creating layer res4e_relu
I0316 15:25:44.614292 30454 net.cpp:84] Creating Layer res4e_relu
I0316 15:25:44.614295 30454 net.cpp:406] res4e_relu <- res4e
I0316 15:25:44.614300 30454 net.cpp:367] res4e_relu -> res4e (in-place)
I0316 15:25:44.614303 30454 net.cpp:122] Setting up res4e_relu
I0316 15:25:44.614307 30454 net.cpp:129] Top shape: 1 1024 1 1 (1024)
I0316 15:25:44.614310 30454 net.cpp:137] Memory required for data: 411224
I0316 15:25:44.614313 30454 layer_factory.hpp:77] Creating layer res4e_res4e_relu_0_split
I0316 15:25:44.614317 30454 net.cpp:84] Creating Layer res4e_res4e_relu_0_split
I0316 15:25:44.614320 30454 net.cpp:406] res4e_res4e_relu_0_split <- res4e
I0316 15:25:44.614325 30454 net.cpp:380] res4e_res4e_relu_0_split -> res4e_res4e_relu_0_split_0
I0316 15:25:44.614329 30454 net.cpp:380] res4e_res4e_relu_0_split -> res4e_res4e_relu_0_split_1
I0316 15:25:44.614338 30454 net.cpp:122] Setting up res4e_res4e_relu_0_split
I0316 15:25:44.614342 30454 net.cpp:129] Top shape: 1 1024 1 1 (1024)
I0316 15:25:44.614346 30454 net.cpp:129] Top shape: 1 1024 1 1 (1024)
I0316 15:25:44.614349 30454 net.cpp:137] Memory required for data: 419416
I0316 15:25:44.614351 30454 layer_factory.hpp:77] Creating layer res4f_branch2a
I0316 15:25:44.614358 30454 net.cpp:84] Creating Layer res4f_branch2a
I0316 15:25:44.614362 30454 net.cpp:406] res4f_branch2a <- res4e_res4e_relu_0_split_0
I0316 15:25:44.614367 30454 net.cpp:380] res4f_branch2a -> res4f_branch2a
I0316 15:25:44.616561 30454 net.cpp:122] Setting up res4f_branch2a
I0316 15:25:44.616567 30454 net.cpp:129] Top shape: 1 256 1 1 (256)
I0316 15:25:44.616570 30454 net.cpp:137] Memory required for data: 420440
I0316 15:25:44.616575 30454 layer_factory.hpp:77] Creating layer bn4f_branch2a
I0316 15:25:44.616580 30454 net.cpp:84] Creating Layer bn4f_branch2a
I0316 15:25:44.616583 30454 net.cpp:406] bn4f_branch2a <- res4f_branch2a
I0316 15:25:44.616587 30454 net.cpp:367] bn4f_branch2a -> res4f_branch2a (in-place)
I0316 15:25:44.616597 30454 net.cpp:122] Setting up bn4f_branch2a
I0316 15:25:44.616601 30454 net.cpp:129] Top shape: 1 256 1 1 (256)
I0316 15:25:44.616605 30454 net.cpp:137] Memory required for data: 421464
I0316 15:25:44.616610 30454 layer_factory.hpp:77] Creating layer scale4f_branch2a
I0316 15:25:44.616614 30454 net.cpp:84] Creating Layer scale4f_branch2a
I0316 15:25:44.616617 30454 net.cpp:406] scale4f_branch2a <- res4f_branch2a
I0316 15:25:44.616622 30454 net.cpp:367] scale4f_branch2a -> res4f_branch2a (in-place)
I0316 15:25:44.616629 30454 layer_factory.hpp:77] Creating layer scale4f_branch2a
I0316 15:25:44.616639 30454 net.cpp:122] Setting up scale4f_branch2a
I0316 15:25:44.616643 30454 net.cpp:129] Top shape: 1 256 1 1 (256)
I0316 15:25:44.616647 30454 net.cpp:137] Memory required for data: 422488
I0316 15:25:44.616650 30454 layer_factory.hpp:77] Creating layer res4f_branch2a_relu
I0316 15:25:44.616657 30454 net.cpp:84] Creating Layer res4f_branch2a_relu
I0316 15:25:44.616659 30454 net.cpp:406] res4f_branch2a_relu <- res4f_branch2a
I0316 15:25:44.616663 30454 net.cpp:367] res4f_branch2a_relu -> res4f_branch2a (in-place)
I0316 15:25:44.616668 30454 net.cpp:122] Setting up res4f_branch2a_relu
I0316 15:25:44.616672 30454 net.cpp:129] Top shape: 1 256 1 1 (256)
I0316 15:25:44.616675 30454 net.cpp:137] Memory required for data: 423512
I0316 15:25:44.616677 30454 layer_factory.hpp:77] Creating layer res4f_branch2b
I0316 15:25:44.616685 30454 net.cpp:84] Creating Layer res4f_branch2b
I0316 15:25:44.616688 30454 net.cpp:406] res4f_branch2b <- res4f_branch2a
I0316 15:25:44.616693 30454 net.cpp:380] res4f_branch2b -> res4f_branch2b
I0316 15:25:44.621894 30454 net.cpp:122] Setting up res4f_branch2b
I0316 15:25:44.621904 30454 net.cpp:129] Top shape: 1 256 1 1 (256)
I0316 15:25:44.621907 30454 net.cpp:137] Memory required for data: 424536
I0316 15:25:44.621912 30454 layer_factory.hpp:77] Creating layer bn4f_branch2b
I0316 15:25:44.621917 30454 net.cpp:84] Creating Layer bn4f_branch2b
I0316 15:25:44.621919 30454 net.cpp:406] bn4f_branch2b <- res4f_branch2b
I0316 15:25:44.621927 30454 net.cpp:367] bn4f_branch2b -> res4f_branch2b (in-place)
I0316 15:25:44.621937 30454 net.cpp:122] Setting up bn4f_branch2b
I0316 15:25:44.621942 30454 net.cpp:129] Top shape: 1 256 1 1 (256)
I0316 15:25:44.621943 30454 net.cpp:137] Memory required for data: 425560
I0316 15:25:44.621948 30454 layer_factory.hpp:77] Creating layer scale4f_branch2b
I0316 15:25:44.621953 30454 net.cpp:84] Creating Layer scale4f_branch2b
I0316 15:25:44.621958 30454 net.cpp:406] scale4f_branch2b <- res4f_branch2b
I0316 15:25:44.621960 30454 net.cpp:367] scale4f_branch2b -> res4f_branch2b (in-place)
I0316 15:25:44.621969 30454 layer_factory.hpp:77] Creating layer scale4f_branch2b
I0316 15:25:44.621980 30454 net.cpp:122] Setting up scale4f_branch2b
I0316 15:25:44.621984 30454 net.cpp:129] Top shape: 1 256 1 1 (256)
I0316 15:25:44.621987 30454 net.cpp:137] Memory required for data: 426584
I0316 15:25:44.622002 30454 layer_factory.hpp:77] Creating layer res4f_branch2b_relu
I0316 15:25:44.622006 30454 net.cpp:84] Creating Layer res4f_branch2b_relu
I0316 15:25:44.622011 30454 net.cpp:406] res4f_branch2b_relu <- res4f_branch2b
I0316 15:25:44.622014 30454 net.cpp:367] res4f_branch2b_relu -> res4f_branch2b (in-place)
I0316 15:25:44.622020 30454 net.cpp:122] Setting up res4f_branch2b_relu
I0316 15:25:44.622023 30454 net.cpp:129] Top shape: 1 256 1 1 (256)
I0316 15:25:44.622025 30454 net.cpp:137] Memory required for data: 427608
I0316 15:25:44.622028 30454 layer_factory.hpp:77] Creating layer res4f_branch2c
I0316 15:25:44.622035 30454 net.cpp:84] Creating Layer res4f_branch2c
I0316 15:25:44.622038 30454 net.cpp:406] res4f_branch2c <- res4f_branch2b
I0316 15:25:44.622042 30454 net.cpp:380] res4f_branch2c -> res4f_branch2c
I0316 15:25:44.625237 30454 net.cpp:122] Setting up res4f_branch2c
I0316 15:25:44.625278 30454 net.cpp:129] Top shape: 1 1024 1 1 (1024)
I0316 15:25:44.625283 30454 net.cpp:137] Memory required for data: 431704
I0316 15:25:44.625288 30454 layer_factory.hpp:77] Creating layer bn4f_branch2c
I0316 15:25:44.625296 30454 net.cpp:84] Creating Layer bn4f_branch2c
I0316 15:25:44.625300 30454 net.cpp:406] bn4f_branch2c <- res4f_branch2c
I0316 15:25:44.625306 30454 net.cpp:367] bn4f_branch2c -> res4f_branch2c (in-place)
I0316 15:25:44.625344 30454 net.cpp:122] Setting up bn4f_branch2c
I0316 15:25:44.625349 30454 net.cpp:129] Top shape: 1 1024 1 1 (1024)
I0316 15:25:44.625352 30454 net.cpp:137] Memory required for data: 435800
I0316 15:25:44.625387 30454 layer_factory.hpp:77] Creating layer scale4f_branch2c
I0316 15:25:44.625393 30454 net.cpp:84] Creating Layer scale4f_branch2c
I0316 15:25:44.625396 30454 net.cpp:406] scale4f_branch2c <- res4f_branch2c
I0316 15:25:44.625401 30454 net.cpp:367] scale4f_branch2c -> res4f_branch2c (in-place)
I0316 15:25:44.625411 30454 layer_factory.hpp:77] Creating layer scale4f_branch2c
I0316 15:25:44.625424 30454 net.cpp:122] Setting up scale4f_branch2c
I0316 15:25:44.625428 30454 net.cpp:129] Top shape: 1 1024 1 1 (1024)
I0316 15:25:44.625432 30454 net.cpp:137] Memory required for data: 439896
I0316 15:25:44.625437 30454 layer_factory.hpp:77] Creating layer res4f
I0316 15:25:44.625442 30454 net.cpp:84] Creating Layer res4f
I0316 15:25:44.625445 30454 net.cpp:406] res4f <- res4e_res4e_relu_0_split_1
I0316 15:25:44.625449 30454 net.cpp:406] res4f <- res4f_branch2c
I0316 15:25:44.625454 30454 net.cpp:380] res4f -> res4f
I0316 15:25:44.625461 30454 net.cpp:122] Setting up res4f
I0316 15:25:44.625465 30454 net.cpp:129] Top shape: 1 1024 1 1 (1024)
I0316 15:25:44.625468 30454 net.cpp:137] Memory required for data: 443992
I0316 15:25:44.625471 30454 layer_factory.hpp:77] Creating layer res4f_relu
I0316 15:25:44.625475 30454 net.cpp:84] Creating Layer res4f_relu
I0316 15:25:44.625479 30454 net.cpp:406] res4f_relu <- res4f
I0316 15:25:44.625485 30454 net.cpp:367] res4f_relu -> res4f (in-place)
I0316 15:25:44.625489 30454 net.cpp:122] Setting up res4f_relu
I0316 15:25:44.625494 30454 net.cpp:129] Top shape: 1 1024 1 1 (1024)
I0316 15:25:44.625496 30454 net.cpp:137] Memory required for data: 448088
I0316 15:25:44.625500 30454 layer_factory.hpp:77] Creating layer res4f_res4f_relu_0_split
I0316 15:25:44.625504 30454 net.cpp:84] Creating Layer res4f_res4f_relu_0_split
I0316 15:25:44.625507 30454 net.cpp:406] res4f_res4f_relu_0_split <- res4f
I0316 15:25:44.625512 30454 net.cpp:380] res4f_res4f_relu_0_split -> res4f_res4f_relu_0_split_0
I0316 15:25:44.625517 30454 net.cpp:380] res4f_res4f_relu_0_split -> res4f_res4f_relu_0_split_1
I0316 15:25:44.625524 30454 net.cpp:122] Setting up res4f_res4f_relu_0_split
I0316 15:25:44.625528 30454 net.cpp:129] Top shape: 1 1024 1 1 (1024)
I0316 15:25:44.625532 30454 net.cpp:129] Top shape: 1 1024 1 1 (1024)
I0316 15:25:44.625535 30454 net.cpp:137] Memory required for data: 456280
I0316 15:25:44.625538 30454 layer_factory.hpp:77] Creating layer res5a_branch1
I0316 15:25:44.625545 30454 net.cpp:84] Creating Layer res5a_branch1
I0316 15:25:44.625550 30454 net.cpp:406] res5a_branch1 <- res4f_res4f_relu_0_split_0
I0316 15:25:44.625558 30454 net.cpp:380] res5a_branch1 -> res5a_branch1
I0316 15:25:44.645745 30454 net.cpp:122] Setting up res5a_branch1
I0316 15:25:44.645769 30454 net.cpp:129] Top shape: 1 2048 1 1 (2048)
I0316 15:25:44.645772 30454 net.cpp:137] Memory required for data: 464472
I0316 15:25:44.645779 30454 layer_factory.hpp:77] Creating layer bn5a_branch1
I0316 15:25:44.645788 30454 net.cpp:84] Creating Layer bn5a_branch1
I0316 15:25:44.645793 30454 net.cpp:406] bn5a_branch1 <- res5a_branch1
I0316 15:25:44.645799 30454 net.cpp:367] bn5a_branch1 -> res5a_branch1 (in-place)
I0316 15:25:44.645814 30454 net.cpp:122] Setting up bn5a_branch1
I0316 15:25:44.645819 30454 net.cpp:129] Top shape: 1 2048 1 1 (2048)
I0316 15:25:44.645823 30454 net.cpp:137] Memory required for data: 472664
I0316 15:25:44.645840 30454 layer_factory.hpp:77] Creating layer scale5a_branch1
I0316 15:25:44.645845 30454 net.cpp:84] Creating Layer scale5a_branch1
I0316 15:25:44.645848 30454 net.cpp:406] scale5a_branch1 <- res5a_branch1
I0316 15:25:44.645853 30454 net.cpp:367] scale5a_branch1 -> res5a_branch1 (in-place)
I0316 15:25:44.645865 30454 layer_factory.hpp:77] Creating layer scale5a_branch1
I0316 15:25:44.645886 30454 net.cpp:122] Setting up scale5a_branch1
I0316 15:25:44.645891 30454 net.cpp:129] Top shape: 1 2048 1 1 (2048)
I0316 15:25:44.645895 30454 net.cpp:137] Memory required for data: 480856
I0316 15:25:44.645898 30454 layer_factory.hpp:77] Creating layer res5a_branch2a
I0316 15:25:44.645905 30454 net.cpp:84] Creating Layer res5a_branch2a
I0316 15:25:44.645910 30454 net.cpp:406] res5a_branch2a <- res4f_res4f_relu_0_split_1
I0316 15:25:44.645913 30454 net.cpp:380] res5a_branch2a -> res5a_branch2a
I0316 15:25:44.650295 30454 net.cpp:122] Setting up res5a_branch2a
I0316 15:25:44.650302 30454 net.cpp:129] Top shape: 1 512 1 1 (512)
I0316 15:25:44.650305 30454 net.cpp:137] Memory required for data: 482904
I0316 15:25:44.650310 30454 layer_factory.hpp:77] Creating layer bn5a_branch2a
I0316 15:25:44.650315 30454 net.cpp:84] Creating Layer bn5a_branch2a
I0316 15:25:44.650318 30454 net.cpp:406] bn5a_branch2a <- res5a_branch2a
I0316 15:25:44.650322 30454 net.cpp:367] bn5a_branch2a -> res5a_branch2a (in-place)
I0316 15:25:44.650334 30454 net.cpp:122] Setting up bn5a_branch2a
I0316 15:25:44.650339 30454 net.cpp:129] Top shape: 1 512 1 1 (512)
I0316 15:25:44.650342 30454 net.cpp:137] Memory required for data: 484952
I0316 15:25:44.650347 30454 layer_factory.hpp:77] Creating layer scale5a_branch2a
I0316 15:25:44.650352 30454 net.cpp:84] Creating Layer scale5a_branch2a
I0316 15:25:44.650357 30454 net.cpp:406] scale5a_branch2a <- res5a_branch2a
I0316 15:25:44.650360 30454 net.cpp:367] scale5a_branch2a -> res5a_branch2a (in-place)
I0316 15:25:44.650368 30454 layer_factory.hpp:77] Creating layer scale5a_branch2a
I0316 15:25:44.650378 30454 net.cpp:122] Setting up scale5a_branch2a
I0316 15:25:44.650383 30454 net.cpp:129] Top shape: 1 512 1 1 (512)
I0316 15:25:44.650387 30454 net.cpp:137] Memory required for data: 487000
I0316 15:25:44.650390 30454 layer_factory.hpp:77] Creating layer res5a_branch2a_relu
I0316 15:25:44.650394 30454 net.cpp:84] Creating Layer res5a_branch2a_relu
I0316 15:25:44.650398 30454 net.cpp:406] res5a_branch2a_relu <- res5a_branch2a
I0316 15:25:44.650403 30454 net.cpp:367] res5a_branch2a_relu -> res5a_branch2a (in-place)
I0316 15:25:44.650408 30454 net.cpp:122] Setting up res5a_branch2a_relu
I0316 15:25:44.650411 30454 net.cpp:129] Top shape: 1 512 1 1 (512)
I0316 15:25:44.650413 30454 net.cpp:137] Memory required for data: 489048
I0316 15:25:44.650418 30454 layer_factory.hpp:77] Creating layer res5a_branch2b
I0316 15:25:44.650423 30454 net.cpp:84] Creating Layer res5a_branch2b
I0316 15:25:44.650425 30454 net.cpp:406] res5a_branch2b <- res5a_branch2a
I0316 15:25:44.650430 30454 net.cpp:380] res5a_branch2b -> res5a_branch2b
I0316 15:25:44.675209 30454 net.cpp:122] Setting up res5a_branch2b
I0316 15:25:44.675261 30454 net.cpp:129] Top shape: 1 512 1 1 (512)
I0316 15:25:44.675266 30454 net.cpp:137] Memory required for data: 491096
I0316 15:25:44.675282 30454 layer_factory.hpp:77] Creating layer bn5a_branch2b
I0316 15:25:44.675309 30454 net.cpp:84] Creating Layer bn5a_branch2b
I0316 15:25:44.675315 30454 net.cpp:406] bn5a_branch2b <- res5a_branch2b
I0316 15:25:44.675346 30454 net.cpp:367] bn5a_branch2b -> res5a_branch2b (in-place)
I0316 15:25:44.675365 30454 net.cpp:122] Setting up bn5a_branch2b
I0316 15:25:44.675370 30454 net.cpp:129] Top shape: 1 512 1 1 (512)
I0316 15:25:44.675374 30454 net.cpp:137] Memory required for data: 493144
I0316 15:25:44.675393 30454 layer_factory.hpp:77] Creating layer scale5a_branch2b
I0316 15:25:44.675400 30454 net.cpp:84] Creating Layer scale5a_branch2b
I0316 15:25:44.675426 30454 net.cpp:406] scale5a_branch2b <- res5a_branch2b
I0316 15:25:44.675431 30454 net.cpp:367] scale5a_branch2b -> res5a_branch2b (in-place)
I0316 15:25:44.675449 30454 layer_factory.hpp:77] Creating layer scale5a_branch2b
I0316 15:25:44.675482 30454 net.cpp:122] Setting up scale5a_branch2b
I0316 15:25:44.675488 30454 net.cpp:129] Top shape: 1 512 1 1 (512)
I0316 15:25:44.675492 30454 net.cpp:137] Memory required for data: 495192
I0316 15:25:44.675498 30454 layer_factory.hpp:77] Creating layer res5a_branch2b_relu
I0316 15:25:44.675503 30454 net.cpp:84] Creating Layer res5a_branch2b_relu
I0316 15:25:44.675508 30454 net.cpp:406] res5a_branch2b_relu <- res5a_branch2b
I0316 15:25:44.675513 30454 net.cpp:367] res5a_branch2b_relu -> res5a_branch2b (in-place)
I0316 15:25:44.675518 30454 net.cpp:122] Setting up res5a_branch2b_relu
I0316 15:25:44.675521 30454 net.cpp:129] Top shape: 1 512 1 1 (512)
I0316 15:25:44.675525 30454 net.cpp:137] Memory required for data: 497240
I0316 15:25:44.675529 30454 layer_factory.hpp:77] Creating layer res5a_branch2c
I0316 15:25:44.675535 30454 net.cpp:84] Creating Layer res5a_branch2c
I0316 15:25:44.675539 30454 net.cpp:406] res5a_branch2c <- res5a_branch2b
I0316 15:25:44.675544 30454 net.cpp:380] res5a_branch2c -> res5a_branch2c
I0316 15:25:44.686856 30454 net.cpp:122] Setting up res5a_branch2c
I0316 15:25:44.686910 30454 net.cpp:129] Top shape: 1 2048 1 1 (2048)
I0316 15:25:44.686914 30454 net.cpp:137] Memory required for data: 505432
I0316 15:25:44.686920 30454 layer_factory.hpp:77] Creating layer bn5a_branch2c
I0316 15:25:44.686929 30454 net.cpp:84] Creating Layer bn5a_branch2c
I0316 15:25:44.686934 30454 net.cpp:406] bn5a_branch2c <- res5a_branch2c
I0316 15:25:44.686940 30454 net.cpp:367] bn5a_branch2c -> res5a_branch2c (in-place)
I0316 15:25:44.686956 30454 net.cpp:122] Setting up bn5a_branch2c
I0316 15:25:44.686961 30454 net.cpp:129] Top shape: 1 2048 1 1 (2048)
I0316 15:25:44.686964 30454 net.cpp:137] Memory required for data: 513624
I0316 15:25:44.686970 30454 layer_factory.hpp:77] Creating layer scale5a_branch2c
I0316 15:25:44.686976 30454 net.cpp:84] Creating Layer scale5a_branch2c
I0316 15:25:44.686980 30454 net.cpp:406] scale5a_branch2c <- res5a_branch2c
I0316 15:25:44.686983 30454 net.cpp:367] scale5a_branch2c -> res5a_branch2c (in-place)
I0316 15:25:44.686996 30454 layer_factory.hpp:77] Creating layer scale5a_branch2c
I0316 15:25:44.687011 30454 net.cpp:122] Setting up scale5a_branch2c
I0316 15:25:44.687016 30454 net.cpp:129] Top shape: 1 2048 1 1 (2048)
I0316 15:25:44.687019 30454 net.cpp:137] Memory required for data: 521816
I0316 15:25:44.687024 30454 layer_factory.hpp:77] Creating layer res5a
I0316 15:25:44.687031 30454 net.cpp:84] Creating Layer res5a
I0316 15:25:44.687033 30454 net.cpp:406] res5a <- res5a_branch1
I0316 15:25:44.687037 30454 net.cpp:406] res5a <- res5a_branch2c
I0316 15:25:44.687043 30454 net.cpp:380] res5a -> res5a
I0316 15:25:44.687050 30454 net.cpp:122] Setting up res5a
I0316 15:25:44.687054 30454 net.cpp:129] Top shape: 1 2048 1 1 (2048)
I0316 15:25:44.687057 30454 net.cpp:137] Memory required for data: 530008
I0316 15:25:44.687060 30454 layer_factory.hpp:77] Creating layer res5a_relu
I0316 15:25:44.687067 30454 net.cpp:84] Creating Layer res5a_relu
I0316 15:25:44.687069 30454 net.cpp:406] res5a_relu <- res5a
I0316 15:25:44.687074 30454 net.cpp:367] res5a_relu -> res5a (in-place)
I0316 15:25:44.687085 30454 net.cpp:122] Setting up res5a_relu
I0316 15:25:44.687090 30454 net.cpp:129] Top shape: 1 2048 1 1 (2048)
I0316 15:25:44.687093 30454 net.cpp:137] Memory required for data: 538200
I0316 15:25:44.687096 30454 layer_factory.hpp:77] Creating layer res5a_res5a_relu_0_split
I0316 15:25:44.687101 30454 net.cpp:84] Creating Layer res5a_res5a_relu_0_split
I0316 15:25:44.687105 30454 net.cpp:406] res5a_res5a_relu_0_split <- res5a
I0316 15:25:44.687116 30454 net.cpp:380] res5a_res5a_relu_0_split -> res5a_res5a_relu_0_split_0
I0316 15:25:44.687122 30454 net.cpp:380] res5a_res5a_relu_0_split -> res5a_res5a_relu_0_split_1
I0316 15:25:44.687129 30454 net.cpp:122] Setting up res5a_res5a_relu_0_split
I0316 15:25:44.687134 30454 net.cpp:129] Top shape: 1 2048 1 1 (2048)
I0316 15:25:44.687136 30454 net.cpp:129] Top shape: 1 2048 1 1 (2048)
I0316 15:25:44.687139 30454 net.cpp:137] Memory required for data: 554584
I0316 15:25:44.687142 30454 layer_factory.hpp:77] Creating layer res5b_branch2a
I0316 15:25:44.687150 30454 net.cpp:84] Creating Layer res5b_branch2a
I0316 15:25:44.687153 30454 net.cpp:406] res5b_branch2a <- res5a_res5a_relu_0_split_0
I0316 15:25:44.687157 30454 net.cpp:380] res5b_branch2a -> res5b_branch2a
I0316 15:25:44.698045 30454 net.cpp:122] Setting up res5b_branch2a
I0316 15:25:44.698072 30454 net.cpp:129] Top shape: 1 512 1 1 (512)
I0316 15:25:44.698076 30454 net.cpp:137] Memory required for data: 556632
I0316 15:25:44.698082 30454 layer_factory.hpp:77] Creating layer bn5b_branch2a
I0316 15:25:44.698091 30454 net.cpp:84] Creating Layer bn5b_branch2a
I0316 15:25:44.698096 30454 net.cpp:406] bn5b_branch2a <- res5b_branch2a
I0316 15:25:44.698102 30454 net.cpp:367] bn5b_branch2a -> res5b_branch2a (in-place)
I0316 15:25:44.698117 30454 net.cpp:122] Setting up bn5b_branch2a
I0316 15:25:44.698122 30454 net.cpp:129] Top shape: 1 512 1 1 (512)
I0316 15:25:44.698125 30454 net.cpp:137] Memory required for data: 558680
I0316 15:25:44.698130 30454 layer_factory.hpp:77] Creating layer scale5b_branch2a
I0316 15:25:44.698137 30454 net.cpp:84] Creating Layer scale5b_branch2a
I0316 15:25:44.698140 30454 net.cpp:406] scale5b_branch2a <- res5b_branch2a
I0316 15:25:44.698145 30454 net.cpp:367] scale5b_branch2a -> res5b_branch2a (in-place)
I0316 15:25:44.698156 30454 layer_factory.hpp:77] Creating layer scale5b_branch2a
I0316 15:25:44.698168 30454 net.cpp:122] Setting up scale5b_branch2a
I0316 15:25:44.698173 30454 net.cpp:129] Top shape: 1 512 1 1 (512)
I0316 15:25:44.698176 30454 net.cpp:137] Memory required for data: 560728
I0316 15:25:44.698180 30454 layer_factory.hpp:77] Creating layer res5b_branch2a_relu
I0316 15:25:44.698185 30454 net.cpp:84] Creating Layer res5b_branch2a_relu
I0316 15:25:44.698189 30454 net.cpp:406] res5b_branch2a_relu <- res5b_branch2a
I0316 15:25:44.698194 30454 net.cpp:367] res5b_branch2a_relu -> res5b_branch2a (in-place)
I0316 15:25:44.698197 30454 net.cpp:122] Setting up res5b_branch2a_relu
I0316 15:25:44.698201 30454 net.cpp:129] Top shape: 1 512 1 1 (512)
I0316 15:25:44.698204 30454 net.cpp:137] Memory required for data: 562776
I0316 15:25:44.698209 30454 layer_factory.hpp:77] Creating layer res5b_branch2b
I0316 15:25:44.698231 30454 net.cpp:84] Creating Layer res5b_branch2b
I0316 15:25:44.698235 30454 net.cpp:406] res5b_branch2b <- res5b_branch2a
I0316 15:25:44.698240 30454 net.cpp:380] res5b_branch2b -> res5b_branch2b
I0316 15:25:44.723335 30454 net.cpp:122] Setting up res5b_branch2b
I0316 15:25:44.723364 30454 net.cpp:129] Top shape: 1 512 1 1 (512)
I0316 15:25:44.723368 30454 net.cpp:137] Memory required for data: 564824
I0316 15:25:44.723376 30454 layer_factory.hpp:77] Creating layer bn5b_branch2b
I0316 15:25:44.723387 30454 net.cpp:84] Creating Layer bn5b_branch2b
I0316 15:25:44.723392 30454 net.cpp:406] bn5b_branch2b <- res5b_branch2b
I0316 15:25:44.723397 30454 net.cpp:367] bn5b_branch2b -> res5b_branch2b (in-place)
I0316 15:25:44.723412 30454 net.cpp:122] Setting up bn5b_branch2b
I0316 15:25:44.723417 30454 net.cpp:129] Top shape: 1 512 1 1 (512)
I0316 15:25:44.723426 30454 net.cpp:137] Memory required for data: 566872
I0316 15:25:44.723433 30454 layer_factory.hpp:77] Creating layer scale5b_branch2b
I0316 15:25:44.723438 30454 net.cpp:84] Creating Layer scale5b_branch2b
I0316 15:25:44.723443 30454 net.cpp:406] scale5b_branch2b <- res5b_branch2b
I0316 15:25:44.723446 30454 net.cpp:367] scale5b_branch2b -> res5b_branch2b (in-place)
I0316 15:25:44.723459 30454 layer_factory.hpp:77] Creating layer scale5b_branch2b
I0316 15:25:44.723472 30454 net.cpp:122] Setting up scale5b_branch2b
I0316 15:25:44.723476 30454 net.cpp:129] Top shape: 1 512 1 1 (512)
I0316 15:25:44.723480 30454 net.cpp:137] Memory required for data: 568920
I0316 15:25:44.723484 30454 layer_factory.hpp:77] Creating layer res5b_branch2b_relu
I0316 15:25:44.723489 30454 net.cpp:84] Creating Layer res5b_branch2b_relu
I0316 15:25:44.723493 30454 net.cpp:406] res5b_branch2b_relu <- res5b_branch2b
I0316 15:25:44.723497 30454 net.cpp:367] res5b_branch2b_relu -> res5b_branch2b (in-place)
I0316 15:25:44.723503 30454 net.cpp:122] Setting up res5b_branch2b_relu
I0316 15:25:44.723507 30454 net.cpp:129] Top shape: 1 512 1 1 (512)
I0316 15:25:44.723511 30454 net.cpp:137] Memory required for data: 570968
I0316 15:25:44.723515 30454 layer_factory.hpp:77] Creating layer res5b_branch2c
I0316 15:25:44.723520 30454 net.cpp:84] Creating Layer res5b_branch2c
I0316 15:25:44.723523 30454 net.cpp:406] res5b_branch2c <- res5b_branch2b
I0316 15:25:44.723529 30454 net.cpp:380] res5b_branch2c -> res5b_branch2c
I0316 15:25:44.733911 30454 net.cpp:122] Setting up res5b_branch2c
I0316 15:25:44.733937 30454 net.cpp:129] Top shape: 1 2048 1 1 (2048)
I0316 15:25:44.733940 30454 net.cpp:137] Memory required for data: 579160
I0316 15:25:44.733947 30454 layer_factory.hpp:77] Creating layer bn5b_branch2c
I0316 15:25:44.733955 30454 net.cpp:84] Creating Layer bn5b_branch2c
I0316 15:25:44.733960 30454 net.cpp:406] bn5b_branch2c <- res5b_branch2c
I0316 15:25:44.733966 30454 net.cpp:367] bn5b_branch2c -> res5b_branch2c (in-place)
I0316 15:25:44.733983 30454 net.cpp:122] Setting up bn5b_branch2c
I0316 15:25:44.733989 30454 net.cpp:129] Top shape: 1 2048 1 1 (2048)
I0316 15:25:44.733991 30454 net.cpp:137] Memory required for data: 587352
I0316 15:25:44.733997 30454 layer_factory.hpp:77] Creating layer scale5b_branch2c
I0316 15:25:44.734004 30454 net.cpp:84] Creating Layer scale5b_branch2c
I0316 15:25:44.734007 30454 net.cpp:406] scale5b_branch2c <- res5b_branch2c
I0316 15:25:44.734012 30454 net.cpp:367] scale5b_branch2c -> res5b_branch2c (in-place)
I0316 15:25:44.734025 30454 layer_factory.hpp:77] Creating layer scale5b_branch2c
I0316 15:25:44.734040 30454 net.cpp:122] Setting up scale5b_branch2c
I0316 15:25:44.734045 30454 net.cpp:129] Top shape: 1 2048 1 1 (2048)
I0316 15:25:44.734048 30454 net.cpp:137] Memory required for data: 595544
I0316 15:25:44.734053 30454 layer_factory.hpp:77] Creating layer res5b
I0316 15:25:44.734061 30454 net.cpp:84] Creating Layer res5b
I0316 15:25:44.734066 30454 net.cpp:406] res5b <- res5a_res5a_relu_0_split_1
I0316 15:25:44.734069 30454 net.cpp:406] res5b <- res5b_branch2c
I0316 15:25:44.734074 30454 net.cpp:380] res5b -> res5b
I0316 15:25:44.734082 30454 net.cpp:122] Setting up res5b
I0316 15:25:44.734087 30454 net.cpp:129] Top shape: 1 2048 1 1 (2048)
I0316 15:25:44.734091 30454 net.cpp:137] Memory required for data: 603736
I0316 15:25:44.734093 30454 layer_factory.hpp:77] Creating layer res5b_relu
I0316 15:25:44.734098 30454 net.cpp:84] Creating Layer res5b_relu
I0316 15:25:44.734102 30454 net.cpp:406] res5b_relu <- res5b
I0316 15:25:44.734107 30454 net.cpp:367] res5b_relu -> res5b (in-place)
I0316 15:25:44.734112 30454 net.cpp:122] Setting up res5b_relu
I0316 15:25:44.734115 30454 net.cpp:129] Top shape: 1 2048 1 1 (2048)
I0316 15:25:44.734118 30454 net.cpp:137] Memory required for data: 611928
I0316 15:25:44.734122 30454 layer_factory.hpp:77] Creating layer res5b_res5b_relu_0_split
I0316 15:25:44.734127 30454 net.cpp:84] Creating Layer res5b_res5b_relu_0_split
I0316 15:25:44.734130 30454 net.cpp:406] res5b_res5b_relu_0_split <- res5b
I0316 15:25:44.734143 30454 net.cpp:380] res5b_res5b_relu_0_split -> res5b_res5b_relu_0_split_0
I0316 15:25:44.734148 30454 net.cpp:380] res5b_res5b_relu_0_split -> res5b_res5b_relu_0_split_1
I0316 15:25:44.734154 30454 net.cpp:122] Setting up res5b_res5b_relu_0_split
I0316 15:25:44.734159 30454 net.cpp:129] Top shape: 1 2048 1 1 (2048)
I0316 15:25:44.734163 30454 net.cpp:129] Top shape: 1 2048 1 1 (2048)
I0316 15:25:44.734166 30454 net.cpp:137] Memory required for data: 628312
I0316 15:25:44.734169 30454 layer_factory.hpp:77] Creating layer res5c_branch2a
I0316 15:25:44.734176 30454 net.cpp:84] Creating Layer res5c_branch2a
I0316 15:25:44.734179 30454 net.cpp:406] res5c_branch2a <- res5b_res5b_relu_0_split_0
I0316 15:25:44.734185 30454 net.cpp:380] res5c_branch2a -> res5c_branch2a
I0316 15:25:44.744189 30454 net.cpp:122] Setting up res5c_branch2a
I0316 15:25:44.744215 30454 net.cpp:129] Top shape: 1 512 1 1 (512)
I0316 15:25:44.744220 30454 net.cpp:137] Memory required for data: 630360
I0316 15:25:44.744225 30454 layer_factory.hpp:77] Creating layer bn5c_branch2a
I0316 15:25:44.744232 30454 net.cpp:84] Creating Layer bn5c_branch2a
I0316 15:25:44.744236 30454 net.cpp:406] bn5c_branch2a <- res5c_branch2a
I0316 15:25:44.744243 30454 net.cpp:367] bn5c_branch2a -> res5c_branch2a (in-place)
I0316 15:25:44.744257 30454 net.cpp:122] Setting up bn5c_branch2a
I0316 15:25:44.744262 30454 net.cpp:129] Top shape: 1 512 1 1 (512)
I0316 15:25:44.744266 30454 net.cpp:137] Memory required for data: 632408
I0316 15:25:44.744271 30454 layer_factory.hpp:77] Creating layer scale5c_branch2a
I0316 15:25:44.744277 30454 net.cpp:84] Creating Layer scale5c_branch2a
I0316 15:25:44.744280 30454 net.cpp:406] scale5c_branch2a <- res5c_branch2a
I0316 15:25:44.744285 30454 net.cpp:367] scale5c_branch2a -> res5c_branch2a (in-place)
I0316 15:25:44.744295 30454 layer_factory.hpp:77] Creating layer scale5c_branch2a
I0316 15:25:44.744308 30454 net.cpp:122] Setting up scale5c_branch2a
I0316 15:25:44.744313 30454 net.cpp:129] Top shape: 1 512 1 1 (512)
I0316 15:25:44.744316 30454 net.cpp:137] Memory required for data: 634456
I0316 15:25:44.744320 30454 layer_factory.hpp:77] Creating layer res5c_branch2a_relu
I0316 15:25:44.744325 30454 net.cpp:84] Creating Layer res5c_branch2a_relu
I0316 15:25:44.744328 30454 net.cpp:406] res5c_branch2a_relu <- res5c_branch2a
I0316 15:25:44.744351 30454 net.cpp:367] res5c_branch2a_relu -> res5c_branch2a (in-place)
I0316 15:25:44.744356 30454 net.cpp:122] Setting up res5c_branch2a_relu
I0316 15:25:44.744360 30454 net.cpp:129] Top shape: 1 512 1 1 (512)
I0316 15:25:44.744364 30454 net.cpp:137] Memory required for data: 636504
I0316 15:25:44.744367 30454 layer_factory.hpp:77] Creating layer res5c_branch2b
I0316 15:25:44.744395 30454 net.cpp:84] Creating Layer res5c_branch2b
I0316 15:25:44.744398 30454 net.cpp:406] res5c_branch2b <- res5c_branch2a
I0316 15:25:44.744417 30454 net.cpp:380] res5c_branch2b -> res5c_branch2b
I0316 15:25:44.769744 30454 net.cpp:122] Setting up res5c_branch2b
I0316 15:25:44.769776 30454 net.cpp:129] Top shape: 1 512 1 1 (512)
I0316 15:25:44.769780 30454 net.cpp:137] Memory required for data: 638552
I0316 15:25:44.769786 30454 layer_factory.hpp:77] Creating layer bn5c_branch2b
I0316 15:25:44.769798 30454 net.cpp:84] Creating Layer bn5c_branch2b
I0316 15:25:44.769804 30454 net.cpp:406] bn5c_branch2b <- res5c_branch2b
I0316 15:25:44.769809 30454 net.cpp:367] bn5c_branch2b -> res5c_branch2b (in-place)
I0316 15:25:44.769824 30454 net.cpp:122] Setting up bn5c_branch2b
I0316 15:25:44.769829 30454 net.cpp:129] Top shape: 1 512 1 1 (512)
I0316 15:25:44.769832 30454 net.cpp:137] Memory required for data: 640600
I0316 15:25:44.769850 30454 layer_factory.hpp:77] Creating layer scale5c_branch2b
I0316 15:25:44.769856 30454 net.cpp:84] Creating Layer scale5c_branch2b
I0316 15:25:44.769860 30454 net.cpp:406] scale5c_branch2b <- res5c_branch2b
I0316 15:25:44.769865 30454 net.cpp:367] scale5c_branch2b -> res5c_branch2b (in-place)
I0316 15:25:44.769875 30454 layer_factory.hpp:77] Creating layer scale5c_branch2b
I0316 15:25:44.769893 30454 net.cpp:122] Setting up scale5c_branch2b
I0316 15:25:44.769899 30454 net.cpp:129] Top shape: 1 512 1 1 (512)
I0316 15:25:44.769902 30454 net.cpp:137] Memory required for data: 642648
I0316 15:25:44.769906 30454 layer_factory.hpp:77] Creating layer res5c_branch2b_relu
I0316 15:25:44.769912 30454 net.cpp:84] Creating Layer res5c_branch2b_relu
I0316 15:25:44.769915 30454 net.cpp:406] res5c_branch2b_relu <- res5c_branch2b
I0316 15:25:44.769920 30454 net.cpp:367] res5c_branch2b_relu -> res5c_branch2b (in-place)
I0316 15:25:44.769925 30454 net.cpp:122] Setting up res5c_branch2b_relu
I0316 15:25:44.769929 30454 net.cpp:129] Top shape: 1 512 1 1 (512)
I0316 15:25:44.769932 30454 net.cpp:137] Memory required for data: 644696
I0316 15:25:44.769935 30454 layer_factory.hpp:77] Creating layer res5c_branch2c
I0316 15:25:44.769942 30454 net.cpp:84] Creating Layer res5c_branch2c
I0316 15:25:44.769945 30454 net.cpp:406] res5c_branch2c <- res5c_branch2b
I0316 15:25:44.769950 30454 net.cpp:380] res5c_branch2c -> res5c_branch2c
I0316 15:25:44.781174 30454 net.cpp:122] Setting up res5c_branch2c
I0316 15:25:44.781205 30454 net.cpp:129] Top shape: 1 2048 1 1 (2048)
I0316 15:25:44.781209 30454 net.cpp:137] Memory required for data: 652888
I0316 15:25:44.781219 30454 layer_factory.hpp:77] Creating layer bn5c_branch2c
I0316 15:25:44.781232 30454 net.cpp:84] Creating Layer bn5c_branch2c
I0316 15:25:44.781239 30454 net.cpp:406] bn5c_branch2c <- res5c_branch2c
I0316 15:25:44.781255 30454 net.cpp:367] bn5c_branch2c -> res5c_branch2c (in-place)
I0316 15:25:44.781291 30454 net.cpp:122] Setting up bn5c_branch2c
I0316 15:25:44.781297 30454 net.cpp:129] Top shape: 1 2048 1 1 (2048)
I0316 15:25:44.781301 30454 net.cpp:137] Memory required for data: 661080
I0316 15:25:44.781307 30454 layer_factory.hpp:77] Creating layer scale5c_branch2c
I0316 15:25:44.781321 30454 net.cpp:84] Creating Layer scale5c_branch2c
I0316 15:25:44.781324 30454 net.cpp:406] scale5c_branch2c <- res5c_branch2c
I0316 15:25:44.781329 30454 net.cpp:367] scale5c_branch2c -> res5c_branch2c (in-place)
I0316 15:25:44.781342 30454 layer_factory.hpp:77] Creating layer scale5c_branch2c
I0316 15:25:44.781363 30454 net.cpp:122] Setting up scale5c_branch2c
I0316 15:25:44.781368 30454 net.cpp:129] Top shape: 1 2048 1 1 (2048)
I0316 15:25:44.781371 30454 net.cpp:137] Memory required for data: 669272
I0316 15:25:44.781376 30454 layer_factory.hpp:77] Creating layer res5c
I0316 15:25:44.781386 30454 net.cpp:84] Creating Layer res5c
I0316 15:25:44.781389 30454 net.cpp:406] res5c <- res5b_res5b_relu_0_split_1
I0316 15:25:44.781394 30454 net.cpp:406] res5c <- res5c_branch2c
I0316 15:25:44.781401 30454 net.cpp:380] res5c -> res5c
I0316 15:25:44.781411 30454 net.cpp:122] Setting up res5c
I0316 15:25:44.781416 30454 net.cpp:129] Top shape: 1 2048 1 1 (2048)
I0316 15:25:44.781419 30454 net.cpp:137] Memory required for data: 677464
I0316 15:25:44.781424 30454 layer_factory.hpp:77] Creating layer res5c_relu
I0316 15:25:44.781430 30454 net.cpp:84] Creating Layer res5c_relu
I0316 15:25:44.781433 30454 net.cpp:406] res5c_relu <- res5c
I0316 15:25:44.781437 30454 net.cpp:367] res5c_relu -> res5c (in-place)
I0316 15:25:44.781445 30454 net.cpp:122] Setting up res5c_relu
I0316 15:25:44.781450 30454 net.cpp:129] Top shape: 1 2048 1 1 (2048)
I0316 15:25:44.781452 30454 net.cpp:137] Memory required for data: 685656
I0316 15:25:44.781456 30454 layer_factory.hpp:77] Creating layer pool5
I0316 15:25:44.781467 30454 net.cpp:84] Creating Layer pool5
I0316 15:25:44.781472 30454 net.cpp:406] pool5 <- res5c
I0316 15:25:44.781477 30454 net.cpp:380] pool5 -> pool5
I0316 15:25:44.781486 30454 net.cpp:122] Setting up pool5
I0316 15:25:44.781491 30454 net.cpp:129] Top shape: 1 2048 1 1 (2048)
I0316 15:25:44.781494 30454 net.cpp:137] Memory required for data: 693848
I0316 15:25:44.781498 30454 layer_factory.hpp:77] Creating layer fc2
I0316 15:25:44.781507 30454 net.cpp:84] Creating Layer fc2
I0316 15:25:44.781510 30454 net.cpp:406] fc2 <- pool5
I0316 15:25:44.781524 30454 net.cpp:380] fc2 -> fc2
I0316 15:25:44.781605 30454 net.cpp:122] Setting up fc2
I0316 15:25:44.781611 30454 net.cpp:129] Top shape: 1 2 (2)
I0316 15:25:44.781615 30454 net.cpp:137] Memory required for data: 693856
I0316 15:25:44.781620 30454 layer_factory.hpp:77] Creating layer fc2_fc2_0_split
I0316 15:25:44.781626 30454 net.cpp:84] Creating Layer fc2_fc2_0_split
I0316 15:25:44.781630 30454 net.cpp:406] fc2_fc2_0_split <- fc2
I0316 15:25:44.781635 30454 net.cpp:380] fc2_fc2_0_split -> fc2_fc2_0_split_0
I0316 15:25:44.781642 30454 net.cpp:380] fc2_fc2_0_split -> fc2_fc2_0_split_1
I0316 15:25:44.781649 30454 net.cpp:122] Setting up fc2_fc2_0_split
I0316 15:25:44.781653 30454 net.cpp:129] Top shape: 1 2 (2)
I0316 15:25:44.781657 30454 net.cpp:129] Top shape: 1 2 (2)
I0316 15:25:44.781661 30454 net.cpp:137] Memory required for data: 693872
I0316 15:25:44.781664 30454 layer_factory.hpp:77] Creating layer loss
I0316 15:25:44.781672 30454 net.cpp:84] Creating Layer loss
I0316 15:25:44.781677 30454 net.cpp:406] loss <- fc2_fc2_0_split_0
I0316 15:25:44.781682 30454 net.cpp:406] loss <- label_L4G_IDS_4_1_split_0
I0316 15:25:44.781687 30454 net.cpp:380] loss -> loss
…
