…
I0430 18:43:12.580214 30972 net.cpp:294] The NetState phase (0) differed from the phase (1) specified by a rule in layer L4G_IDS
I0430 18:43:12.580278 30972 net.cpp:294] The NetState phase (0) differed from the phase (1) specified by a rule in layer accuracy
I0430 18:43:12.580415 30972 net.cpp:51] Initializing net from parameters: 
name: "LeNet"
state {
  phase: TRAIN
  level: 0
  stage: ""
}
layer {
  name: "L4G_IDS"
  type: "ImageData"
  top: "data"
  top: "label"
  include {
    phase: TRAIN
  }
  transform_param {
    scale: 0.00390625
  }
  image_data_param {
    source: "Train.txt"
    batch_size: 256
  }
}
layer {
  name: "conv1"
  type: "Convolution"
  bottom: "data"
  top: "conv1"
  param {
    lr_mult: 1
  }
  param {
    lr_mult: 2
  }
  convolution_param {
    num_output: 20
    kernel_size: 3
    stride: 1
    weight_filler {
      type: "xavier"
    }
    bias_filler {
      type: "constant"
    }
  }
}
layer {
  name: "pool1"
  type: "Pooling"
  bottom: "conv1"
  top: "pool1"
  pooling_param {
    pool: MAX
    kernel_size: 2
    stride: 2
  }
}
layer {
  name: "conv2"
  type: "Convolution"
  bottom: "pool1"
  top: "conv2"
  param {
    lr_mult: 1
  }
  param {
    lr_mult: 2
  }
  convolution_param {
    num_output: 50
    kernel_size: 3
    stride: 1
    weight_filler {
      type: "xavier"
    }
    bias_filler {
      type: "constant"
    }
  }
}
layer {
  name: "pool2"
  type: "Pooling"
  bottom: "conv2"
  top: "pool2"
  pooling_param {
    pool: MAX
    kernel_size: 2
    stride: 2
  }
}
layer {
  name: "ip1"
  type: "InnerProduct"
  bottom: "pool2"
  top: "ip1"
  param {
    lr_mult: 1
  }
  param {
    lr_mult: 2
  }
  inner_product_param {
    num_output: 500
    weight_filler {
      type: "xavier"
    }
    bias_filler {
      type: "constant"
    }
  }
}
layer {
  name: "relu1"
  type: "ReLU"
  bottom: "ip1"
  top: "ip1"
}
layer {
  name: "ip2"
  type: "InnerProduct"
  bottom: "ip1"
  top: "ip2"
  param {
    lr_mult: 1
  }
  param {
    lr_mult: 2
  }
  inner_product_param {
    num_output: 2
    weight_filler {
      type: "xavier"
    }
    bias_filler {
      type: "constant"
    }
  }
}
layer {
  name: "loss"
  type: "SoftmaxWithLoss"
  bottom: "ip2"
  bottom: "label"
  top: "loss"
}
I0430 18:43:12.583422 30972 layer_factory.hpp:77] Creating layer L4G_IDS
I0430 18:43:12.583482 30972 net.cpp:84] Creating Layer L4G_IDS
I0430 18:43:12.583529 30972 net.cpp:380] L4G_IDS -> data
I0430 18:43:12.583583 30972 net.cpp:380] L4G_IDS -> label
I0430 18:43:12.583632 30972 image_data_layer.cpp:38] Opening file Train.txt
I0430 18:43:12.619519 30972 image_data_layer.cpp:63] A total of 125973 images.
I0430 18:43:12.619742 30972 image_data_layer.cpp:90] output data size: 256,3,7,7
I0430 18:43:12.620103 30972 net.cpp:122] Setting up L4G_IDS
I0430 18:43:12.620157 30972 net.cpp:129] Top shape: 256 3 7 7 (37632)
I0430 18:43:12.620203 30972 net.cpp:129] Top shape: 256 (256)
I0430 18:43:12.620242 30972 net.cpp:137] Memory required for data: 151552
I0430 18:43:12.620285 30972 layer_factory.hpp:77] Creating layer conv1
I0430 18:43:12.620334 30972 net.cpp:84] Creating Layer conv1
I0430 18:43:12.620376 30972 net.cpp:406] conv1 <- data
I0430 18:43:12.620422 30972 net.cpp:380] conv1 -> conv1
I0430 18:43:12.620499 30972 net.cpp:122] Setting up conv1
I0430 18:43:12.620545 30972 net.cpp:129] Top shape: 256 20 5 5 (128000)
I0430 18:43:12.620587 30972 net.cpp:137] Memory required for data: 663552
I0430 18:43:12.620656 30972 layer_factory.hpp:77] Creating layer pool1
I0430 18:43:12.620703 30972 net.cpp:84] Creating Layer pool1
I0430 18:43:12.620744 30972 net.cpp:406] pool1 <- conv1
I0430 18:43:12.620786 30972 net.cpp:380] pool1 -> pool1
I0430 18:43:12.620836 30972 net.cpp:122] Setting up pool1
I0430 18:43:12.620879 30972 net.cpp:129] Top shape: 256 20 3 3 (46080)
I0430 18:43:12.620920 30972 net.cpp:137] Memory required for data: 847872
I0430 18:43:12.620960 30972 layer_factory.hpp:77] Creating layer conv2
I0430 18:43:12.621006 30972 net.cpp:84] Creating Layer conv2
I0430 18:43:12.621047 30972 net.cpp:406] conv2 <- pool1
I0430 18:43:12.621093 30972 net.cpp:380] conv2 -> conv2
I0430 18:43:12.621238 30972 net.cpp:122] Setting up conv2
I0430 18:43:12.621285 30972 net.cpp:129] Top shape: 256 50 1 1 (12800)
I0430 18:43:12.621325 30972 net.cpp:137] Memory required for data: 899072
I0430 18:43:12.621383 30972 layer_factory.hpp:77] Creating layer pool2
I0430 18:43:12.621428 30972 net.cpp:84] Creating Layer pool2
I0430 18:43:12.621469 30972 net.cpp:406] pool2 <- conv2
I0430 18:43:12.621510 30972 net.cpp:380] pool2 -> pool2
I0430 18:43:12.621552 30972 net.cpp:122] Setting up pool2
I0430 18:43:12.621594 30972 net.cpp:129] Top shape: 256 50 1 1 (12800)
I0430 18:43:12.621634 30972 net.cpp:137] Memory required for data: 950272
I0430 18:43:12.621671 30972 layer_factory.hpp:77] Creating layer ip1
I0430 18:43:12.621716 30972 net.cpp:84] Creating Layer ip1
I0430 18:43:12.621755 30972 net.cpp:406] ip1 <- pool2
I0430 18:43:12.621798 30972 net.cpp:380] ip1 -> ip1
I0430 18:43:12.622089 30972 net.cpp:122] Setting up ip1
I0430 18:43:12.622138 30972 net.cpp:129] Top shape: 256 500 (128000)
I0430 18:43:12.622177 30972 net.cpp:137] Memory required for data: 1462272
I0430 18:43:12.622225 30972 layer_factory.hpp:77] Creating layer relu1
I0430 18:43:12.622267 30972 net.cpp:84] Creating Layer relu1
I0430 18:43:12.622305 30972 net.cpp:406] relu1 <- ip1
I0430 18:43:12.622345 30972 net.cpp:367] relu1 -> ip1 (in-place)
I0430 18:43:12.622387 30972 net.cpp:122] Setting up relu1
I0430 18:43:12.622428 30972 net.cpp:129] Top shape: 256 500 (128000)
I0430 18:43:12.622467 30972 net.cpp:137] Memory required for data: 1974272
I0430 18:43:12.622506 30972 layer_factory.hpp:77] Creating layer ip2
I0430 18:43:12.622548 30972 net.cpp:84] Creating Layer ip2
I0430 18:43:12.622587 30972 net.cpp:406] ip2 <- ip1
I0430 18:43:12.622630 30972 net.cpp:380] ip2 -> ip2
I0430 18:43:12.622691 30972 net.cpp:122] Setting up ip2
I0430 18:43:12.622733 30972 net.cpp:129] Top shape: 256 2 (512)
I0430 18:43:12.622772 30972 net.cpp:137] Memory required for data: 1976320
I0430 18:43:12.622812 30972 layer_factory.hpp:77] Creating layer loss
I0430 18:43:12.622856 30972 net.cpp:84] Creating Layer loss
I0430 18:43:12.622896 30972 net.cpp:406] loss <- ip2
I0430 18:43:12.622936 30972 net.cpp:406] loss <- label
I0430 18:43:12.622977 30972 net.cpp:380] loss -> loss
I0430 18:43:12.623020 30972 layer_factory.hpp:77] Creating layer loss
…
I0430 18:43:12.623893 30972 solver.cpp:172] Creating test net (#0) specified by net file: /home/kenyon/L4G_IDS2/models/LeNet/lenet_train.prototxt
I0430 18:43:12.623960 30972 net.cpp:294] The NetState phase (1) differed from the phase (0) specified by a rule in layer L4G_IDS
I0430 18:43:12.624085 30972 net.cpp:51] Initializing net from parameters: 
name: "LeNet"
state {
  phase: TEST
}
layer {
  name: "L4G_IDS"
  type: "ImageData"
  top: "data"
  top: "label"
  include {
    phase: TEST
  }
  transform_param {
    scale: 0.00390625
  }
  image_data_param {
    source: "Test.txt"
    batch_size: 100
  }
}
layer {
  name: "conv1"
  type: "Convolution"
  bottom: "data"
  top: "conv1"
  param {
    lr_mult: 1
  }
  param {
    lr_mult: 2
  }
  convolution_param {
    num_output: 20
    kernel_size: 3
    stride: 1
    weight_filler {
      type: "xavier"
    }
    bias_filler {
      type: "constant"
    }
  }
}
layer {
  name: "pool1"
  type: "Pooling"
  bottom: "conv1"
  top: "pool1"
  pooling_param {
    pool: MAX
    kernel_size: 2
    stride: 2
  }
}
layer {
  name: "conv2"
  type: "Convolution"
  bottom: "pool1"
  top: "conv2"
  param {
    lr_mult: 1
  }
  param {
    lr_mult: 2
  }
  convolution_param {
    num_output: 50
    kernel_size: 3
    stride: 1
    weight_filler {
      type: "xavier"
    }
    bias_filler {
      type: "constant"
    }
  }
}
layer {
  name: "pool2"
  type: "Pooling"
  bottom: "conv2"
  top: "pool2"
  pooling_param {
    pool: MAX
    kernel_size: 2
    stride: 2
  }
}
layer {
  name: "ip1"
  type: "InnerProduct"
  bottom: "pool2"
  top: "ip1"
  param {
    lr_mult: 1
  }
  param {
    lr_mult: 2
  }
  inner_product_param {
    num_output: 500
    weight_filler {
      type: "xavier"
    }
    bias_filler {
      type: "constant"
    }
  }
}
layer {
  name: "relu1"
  type: "ReLU"
  bottom: "ip1"
  top: "ip1"
}
layer {
  name: "ip2"
  type: "InnerProduct"
  bottom: "ip1"
  top: "ip2"
  param {
    lr_mult: 1
  }
  param {
    lr_mult: 2
  }
  inner_product_param {
    num_output: 2
    weight_filler {
      type: "xavier"
    }
    bias_filler {
      type: "constant"
    }
  }
}
layer {
  name: "accuracy"
  type: "Accuracy"
  bottom: "ip2"
  bottom: "label"
  top: "accuracy"
  include {
    phase: TEST
  }
}
layer {
  name: "loss"
  type: "SoftmaxWithLoss"
  bottom: "ip2"
  bottom: "label"
  top: "loss"
}
I0430 18:43:12.627894 30972 layer_factory.hpp:77] Creating layer L4G_IDS
I0430 18:43:12.628239 30972 net.cpp:84] Creating Layer L4G_IDS
I0430 18:43:12.628362 30972 net.cpp:380] L4G_IDS -> data
I0430 18:43:12.628458 30972 net.cpp:380] L4G_IDS -> label
I0430 18:43:12.628527 30972 image_data_layer.cpp:38] Opening file Test.txt
I0430 18:43:12.633484 30972 image_data_layer.cpp:63] A total of 22543 images.
I0430 18:43:12.633596 30972 image_data_layer.cpp:90] output data size: 100,3,7,7
I0430 18:43:12.633731 30972 net.cpp:122] Setting up L4G_IDS
I0430 18:43:12.633787 30972 net.cpp:129] Top shape: 100 3 7 7 (14700)
I0430 18:43:12.633839 30972 net.cpp:129] Top shape: 100 (100)
I0430 18:43:12.633888 30972 net.cpp:137] Memory required for data: 59200
I0430 18:43:12.633936 30972 layer_factory.hpp:77] Creating layer label_L4G_IDS_1_split
I0430 18:43:12.633990 30972 net.cpp:84] Creating Layer label_L4G_IDS_1_split
I0430 18:43:12.634038 30972 net.cpp:406] label_L4G_IDS_1_split <- label
I0430 18:43:12.634089 30972 net.cpp:380] label_L4G_IDS_1_split -> label_L4G_IDS_1_split_0
I0430 18:43:12.634136 30972 net.cpp:380] label_L4G_IDS_1_split -> label_L4G_IDS_1_split_1
I0430 18:43:12.634181 30972 net.cpp:122] Setting up label_L4G_IDS_1_split
I0430 18:43:12.634222 30972 net.cpp:129] Top shape: 100 (100)
I0430 18:43:12.634261 30972 net.cpp:129] Top shape: 100 (100)
I0430 18:43:12.634299 30972 net.cpp:137] Memory required for data: 60000
I0430 18:43:12.634337 30972 layer_factory.hpp:77] Creating layer conv1
I0430 18:43:12.634395 30972 net.cpp:84] Creating Layer conv1
I0430 18:43:12.634433 30972 net.cpp:406] conv1 <- data
I0430 18:43:12.634472 30972 net.cpp:380] conv1 -> conv1
I0430 18:43:12.634541 30972 net.cpp:122] Setting up conv1
I0430 18:43:12.634605 30972 net.cpp:129] Top shape: 100 20 5 5 (50000)
I0430 18:43:12.634644 30972 net.cpp:137] Memory required for data: 260000
I0430 18:43:12.634685 30972 layer_factory.hpp:77] Creating layer pool1
I0430 18:43:12.634726 30972 net.cpp:84] Creating Layer pool1
I0430 18:43:12.634763 30972 net.cpp:406] pool1 <- conv1
I0430 18:43:12.634800 30972 net.cpp:380] pool1 -> pool1
I0430 18:43:12.634843 30972 net.cpp:122] Setting up pool1
I0430 18:43:12.634882 30972 net.cpp:129] Top shape: 100 20 3 3 (18000)
I0430 18:43:12.634920 30972 net.cpp:137] Memory required for data: 332000
I0430 18:43:12.634958 30972 layer_factory.hpp:77] Creating layer conv2
I0430 18:43:12.634999 30972 net.cpp:84] Creating Layer conv2
I0430 18:43:12.635037 30972 net.cpp:406] conv2 <- pool1
I0430 18:43:12.635077 30972 net.cpp:380] conv2 -> conv2
I0430 18:43:12.635198 30972 net.cpp:122] Setting up conv2
I0430 18:43:12.635241 30972 net.cpp:129] Top shape: 100 50 1 1 (5000)
I0430 18:43:12.635277 30972 net.cpp:137] Memory required for data: 352000
I0430 18:43:12.635316 30972 layer_factory.hpp:77] Creating layer pool2
I0430 18:43:12.635356 30972 net.cpp:84] Creating Layer pool2
I0430 18:43:12.635393 30972 net.cpp:406] pool2 <- conv2
I0430 18:43:12.635432 30972 net.cpp:380] pool2 -> pool2
I0430 18:43:12.635473 30972 net.cpp:122] Setting up pool2
I0430 18:43:12.635512 30972 net.cpp:129] Top shape: 100 50 1 1 (5000)
I0430 18:43:12.635550 30972 net.cpp:137] Memory required for data: 372000
I0430 18:43:12.635586 30972 layer_factory.hpp:77] Creating layer ip1
I0430 18:43:12.635625 30972 net.cpp:84] Creating Layer ip1
I0430 18:43:12.635663 30972 net.cpp:406] ip1 <- pool2
I0430 18:43:12.635702 30972 net.cpp:380] ip1 -> ip1
I0430 18:43:12.635942 30972 net.cpp:122] Setting up ip1
I0430 18:43:12.635984 30972 net.cpp:129] Top shape: 100 500 (50000)
I0430 18:43:12.636023 30972 net.cpp:137] Memory required for data: 572000
I0430 18:43:12.636062 30972 layer_factory.hpp:77] Creating layer relu1
I0430 18:43:12.636101 30972 net.cpp:84] Creating Layer relu1
I0430 18:43:12.636139 30972 net.cpp:406] relu1 <- ip1
I0430 18:43:12.636178 30972 net.cpp:367] relu1 -> ip1 (in-place)
I0430 18:43:12.636217 30972 net.cpp:122] Setting up relu1
I0430 18:43:12.636255 30972 net.cpp:129] Top shape: 100 500 (50000)
I0430 18:43:12.636291 30972 net.cpp:137] Memory required for data: 772000
I0430 18:43:12.636327 30972 layer_factory.hpp:77] Creating layer ip2
I0430 18:43:12.636368 30972 net.cpp:84] Creating Layer ip2
I0430 18:43:12.636404 30972 net.cpp:406] ip2 <- ip1
I0430 18:43:12.636443 30972 net.cpp:380] ip2 -> ip2
I0430 18:43:12.636495 30972 net.cpp:122] Setting up ip2
I0430 18:43:12.636535 30972 net.cpp:129] Top shape: 100 2 (200)
I0430 18:43:12.636572 30972 net.cpp:137] Memory required for data: 772800
I0430 18:43:12.636610 30972 layer_factory.hpp:77] Creating layer ip2_ip2_0_split
I0430 18:43:12.636651 30972 net.cpp:84] Creating Layer ip2_ip2_0_split
I0430 18:43:12.636687 30972 net.cpp:406] ip2_ip2_0_split <- ip2
I0430 18:43:12.636726 30972 net.cpp:380] ip2_ip2_0_split -> ip2_ip2_0_split_0
I0430 18:43:12.636767 30972 net.cpp:380] ip2_ip2_0_split -> ip2_ip2_0_split_1
I0430 18:43:12.636808 30972 net.cpp:122] Setting up ip2_ip2_0_split
I0430 18:43:12.636847 30972 net.cpp:129] Top shape: 100 2 (200)
I0430 18:43:12.636884 30972 net.cpp:129] Top shape: 100 2 (200)
I0430 18:43:12.636921 30972 net.cpp:137] Memory required for data: 774400
I0430 18:43:12.636958 30972 layer_factory.hpp:77] Creating layer accuracy
I0430 18:43:12.636998 30972 net.cpp:84] Creating Layer accuracy
I0430 18:43:12.637035 30972 net.cpp:406] accuracy <- ip2_ip2_0_split_0
I0430 18:43:12.637074 30972 net.cpp:406] accuracy <- label_L4G_IDS_1_split_0
I0430 18:43:12.637114 30972 net.cpp:380] accuracy -> accuracy
…
