…
I0511 16:13:19.335079  2244 net.cpp:294] The NetState phase (0) differed from the phase (1) specified by a rule in layer L4G_IDS
I0511 16:13:19.335115  2244 net.cpp:294] The NetState phase (0) differed from the phase (1) specified by a rule in layer accuracy
I0511 16:13:19.335201  2244 net.cpp:51] Initializing net from parameters: 
name: "LeNet"
state {
  phase: TRAIN
  level: 0
  stage: ""
}
layer {
  name: "L4G_IDS"
  type: "ImageData"
  top: "data"
  top: "label"
  include {
    phase: TRAIN
  }
  transform_param {
    scale: 0.00390625
  }
  image_data_param {
    source: "Train.txt"
    batch_size: 256
  }
}
layer {
  name: "conv1"
  type: "Convolution"
  bottom: "data"
  top: "conv1"
  param {
    lr_mult: 1
  }
  param {
    lr_mult: 2
  }
  convolution_param {
    num_output: 20
    kernel_size: 3
    stride: 1
    weight_filler {
      type: "xavier"
    }
    bias_filler {
      type: "constant"
    }
  }
}
layer {
  name: "pool1"
  type: "Pooling"
  bottom: "conv1"
  top: "pool1"
  pooling_param {
    pool: MAX
    kernel_size: 2
    stride: 2
  }
}
layer {
  name: "conv2"
  type: "Convolution"
  bottom: "pool1"
  top: "conv2"
  param {
    lr_mult: 1
  }
  param {
    lr_mult: 2
  }
  convolution_param {
    num_output: 50
    kernel_size: 3
    stride: 1
    weight_filler {
      type: "xavier"
    }
    bias_filler {
      type: "constant"
    }
  }
}
layer {
  name: "pool2"
  type: "Pooling"
  bottom: "conv2"
  top: "pool2"
  pooling_param {
    pool: MAX
    kernel_size: 2
    stride: 2
  }
}
layer {
  name: "ip1"
  type: "InnerProduct"
  bottom: "pool2"
  top: "ip1"
  param {
    lr_mult: 1
  }
  param {
    lr_mult: 2
  }
  inner_product_param {
    num_output: 500
    weight_filler {
      type: "xavier"
    }
    bias_filler {
      type: "constant"
    }
  }
}
layer {
  name: "relu1"
  type: "ReLU"
  bottom: "ip1"
  top: "ip1"
}
layer {
  name: "ip2"
  type: "InnerProduct"
  bottom: "ip1"
  top: "ip2"
  param {
    lr_mult: 1
  }
  param {
    lr_mult: 2
  }
  inner_product_param {
    num_output: 2
    weight_filler {
      type: "xavier"
    }
    bias_filler {
      type: "constant"
    }
  }
}
layer {
  name: "loss"
  type: "SoftmaxWithLoss"
  bottom: "ip2"
  bottom: "label"
  top: "loss"
}
I0511 16:13:19.335242  2244 layer_factory.hpp:77] Creating layer L4G_IDS
I0511 16:13:19.335255  2244 net.cpp:84] Creating Layer L4G_IDS
I0511 16:13:19.335261  2244 net.cpp:380] L4G_IDS -> data
I0511 16:13:19.335275  2244 net.cpp:380] L4G_IDS -> label
I0511 16:13:19.335285  2244 image_data_layer.cpp:38] Opening file Train.txt
I0511 16:13:19.385318  2244 image_data_layer.cpp:63] A total of 125973 images.
I0511 16:13:19.425483  2244 image_data_layer.cpp:90] output data size: 256,3,7,7
I0511 16:13:19.425868  2244 net.cpp:122] Setting up L4G_IDS
I0511 16:13:19.425881  2244 net.cpp:129] Top shape: 256 3 7 7 (37632)
I0511 16:13:19.425887  2244 net.cpp:129] Top shape: 256 (256)
I0511 16:13:19.425892  2244 net.cpp:137] Memory required for data: 151552
I0511 16:13:19.425899  2244 layer_factory.hpp:77] Creating layer conv1
I0511 16:13:19.425921  2244 net.cpp:84] Creating Layer conv1
I0511 16:13:19.425928  2244 net.cpp:406] conv1 <- data
I0511 16:13:19.425936  2244 net.cpp:380] conv1 -> conv1
I0511 16:13:19.425976  2244 net.cpp:122] Setting up conv1
I0511 16:13:19.425984  2244 net.cpp:129] Top shape: 256 20 5 5 (128000)
I0511 16:13:19.426000  2244 net.cpp:137] Memory required for data: 663552
I0511 16:13:19.426014  2244 layer_factory.hpp:77] Creating layer pool1
I0511 16:13:19.426024  2244 net.cpp:84] Creating Layer pool1
I0511 16:13:19.426028  2244 net.cpp:406] pool1 <- conv1
I0511 16:13:19.426060  2244 net.cpp:380] pool1 -> pool1
I0511 16:13:19.454236  2244 net.cpp:122] Setting up pool1
I0511 16:13:19.454295  2244 net.cpp:129] Top shape: 256 20 3 3 (46080)
I0511 16:13:19.454308  2244 net.cpp:137] Memory required for data: 847872
I0511 16:13:19.454319  2244 layer_factory.hpp:77] Creating layer conv2
I0511 16:13:19.454352  2244 net.cpp:84] Creating Layer conv2
I0511 16:13:19.454366  2244 net.cpp:406] conv2 <- pool1
I0511 16:13:19.454383  2244 net.cpp:380] conv2 -> conv2
I0511 16:13:19.454601  2244 net.cpp:122] Setting up conv2
I0511 16:13:19.454622  2244 net.cpp:129] Top shape: 256 50 1 1 (12800)
I0511 16:13:19.454632  2244 net.cpp:137] Memory required for data: 899072
I0511 16:13:19.454650  2244 layer_factory.hpp:77] Creating layer pool2
I0511 16:13:19.454671  2244 net.cpp:84] Creating Layer pool2
I0511 16:13:19.454681  2244 net.cpp:406] pool2 <- conv2
I0511 16:13:19.454694  2244 net.cpp:380] pool2 -> pool2
I0511 16:13:19.454717  2244 net.cpp:122] Setting up pool2
I0511 16:13:19.454733  2244 net.cpp:129] Top shape: 256 50 1 1 (12800)
I0511 16:13:19.454742  2244 net.cpp:137] Memory required for data: 950272
I0511 16:13:19.454751  2244 layer_factory.hpp:77] Creating layer ip1
I0511 16:13:19.454767  2244 net.cpp:84] Creating Layer ip1
I0511 16:13:19.454777  2244 net.cpp:406] ip1 <- pool2
I0511 16:13:19.454792  2244 net.cpp:380] ip1 -> ip1
I0511 16:13:19.455302  2244 net.cpp:122] Setting up ip1
I0511 16:13:19.455320  2244 net.cpp:129] Top shape: 256 500 (128000)
I0511 16:13:19.455330  2244 net.cpp:137] Memory required for data: 1462272
I0511 16:13:19.455346  2244 layer_factory.hpp:77] Creating layer relu1
I0511 16:13:19.455360  2244 net.cpp:84] Creating Layer relu1
I0511 16:13:19.455370  2244 net.cpp:406] relu1 <- ip1
I0511 16:13:19.455384  2244 net.cpp:367] relu1 -> ip1 (in-place)
I0511 16:13:19.455396  2244 net.cpp:122] Setting up relu1
I0511 16:13:19.455409  2244 net.cpp:129] Top shape: 256 500 (128000)
I0511 16:13:19.455417  2244 net.cpp:137] Memory required for data: 1974272
I0511 16:13:19.455426  2244 layer_factory.hpp:77] Creating layer ip2
I0511 16:13:19.455440  2244 net.cpp:84] Creating Layer ip2
I0511 16:13:19.455449  2244 net.cpp:406] ip2 <- ip1
I0511 16:13:19.455467  2244 net.cpp:380] ip2 -> ip2
I0511 16:13:19.455518  2244 net.cpp:122] Setting up ip2
I0511 16:13:19.455533  2244 net.cpp:129] Top shape: 256 2 (512)
I0511 16:13:19.455541  2244 net.cpp:137] Memory required for data: 1976320
I0511 16:13:19.455554  2244 layer_factory.hpp:77] Creating layer loss
I0511 16:13:19.455580  2244 net.cpp:84] Creating Layer loss
I0511 16:13:19.455591  2244 net.cpp:406] loss <- ip2
I0511 16:13:19.455602  2244 net.cpp:406] loss <- label
I0511 16:13:19.455615  2244 net.cpp:380] loss -> loss
I0511 16:13:19.455643  2244 layer_factory.hpp:77] Creating layer loss
…
I0511 16:13:19.456259  2244 solver.cpp:172] Creating test net (#0) specified by net file: models/LeNet/lenet_train.prototxt
I0511 16:13:19.456318  2244 net.cpp:294] The NetState phase (1) differed from the phase (0) specified by a rule in layer L4G_IDS
I0511 16:13:19.456554  2244 net.cpp:51] Initializing net from parameters: 
name: "LeNet"
state {
  phase: TEST
}
layer {
  name: "L4G_IDS"
  type: "ImageData"
  top: "data"
  top: "label"
  include {
    phase: TEST
  }
  transform_param {
    scale: 0.00390625
  }
  image_data_param {
    source: "Test.txt"
    batch_size: 100
  }
}
layer {
  name: "conv1"
  type: "Convolution"
  bottom: "data"
  top: "conv1"
  param {
    lr_mult: 1
  }
  param {
    lr_mult: 2
  }
  convolution_param {
    num_output: 20
    kernel_size: 3
    stride: 1
    weight_filler {
      type: "xavier"
    }
    bias_filler {
      type: "constant"
    }
  }
}
layer {
  name: "pool1"
  type: "Pooling"
  bottom: "conv1"
  top: "pool1"
  pooling_param {
    pool: MAX
    kernel_size: 2
    stride: 2
  }
}
layer {
  name: "conv2"
  type: "Convolution"
  bottom: "pool1"
  top: "conv2"
  param {
    lr_mult: 1
  }
  param {
    lr_mult: 2
  }
  convolution_param {
    num_output: 50
    kernel_size: 3
    stride: 1
    weight_filler {
      type: "xavier"
    }
    bias_filler {
      type: "constant"
    }
  }
}
layer {
  name: "pool2"
  type: "Pooling"
  bottom: "conv2"
  top: "pool2"
  pooling_param {
    pool: MAX
    kernel_size: 2
    stride: 2
  }
}
layer {
  name: "ip1"
  type: "InnerProduct"
  bottom: "pool2"
  top: "ip1"
  param {
    lr_mult: 1
  }
  param {
    lr_mult: 2
  }
  inner_product_param {
    num_output: 500
    weight_filler {
      type: "xavier"
    }
    bias_filler {
      type: "constant"
    }
  }
}
layer {
  name: "relu1"
  type: "ReLU"
  bottom: "ip1"
  top: "ip1"
}
layer {
  name: "ip2"
  type: "InnerProduct"
  bottom: "ip1"
  top: "ip2"
  param {
    lr_mult: 1
  }
  param {
    lr_mult: 2
  }
  inner_product_param {
    num_output: 2
    weight_filler {
      type: "xavier"
    }
    bias_filler {
      type: "constant"
    }
  }
}
layer {
  name: "accuracy"
  type: "Accuracy"
  bottom: "ip2"
  bottom: "label"
  top: "accuracy"
  include {
    phase: TEST
  }
}
layer {
  name: "loss"
  type: "SoftmaxWithLoss"
  bottom: "ip2"
  bottom: "label"
  top: "loss"
}
I0511 16:13:19.456702  2244 layer_factory.hpp:77] Creating layer L4G_IDS
I0511 16:13:19.456732  2244 net.cpp:84] Creating Layer L4G_IDS
I0511 16:13:19.456745  2244 net.cpp:380] L4G_IDS -> data
I0511 16:13:19.456763  2244 net.cpp:380] L4G_IDS -> label
I0511 16:13:19.456779  2244 image_data_layer.cpp:38] Opening file Test.txt
I0511 16:13:19.489797  2244 image_data_layer.cpp:63] A total of 22543 images.
I0511 16:13:19.537137  2244 image_data_layer.cpp:90] output data size: 100,3,7,7
I0511 16:13:19.537369  2244 net.cpp:122] Setting up L4G_IDS
I0511 16:13:19.537400  2244 net.cpp:129] Top shape: 100 3 7 7 (14700)
I0511 16:13:19.537415  2244 net.cpp:129] Top shape: 100 (100)
I0511 16:13:19.537425  2244 net.cpp:137] Memory required for data: 59200
I0511 16:13:19.537436  2244 layer_factory.hpp:77] Creating layer label_L4G_IDS_1_split
I0511 16:13:19.537459  2244 net.cpp:84] Creating Layer label_L4G_IDS_1_split
I0511 16:13:19.537470  2244 net.cpp:406] label_L4G_IDS_1_split <- label
I0511 16:13:19.537487  2244 net.cpp:380] label_L4G_IDS_1_split -> label_L4G_IDS_1_split_0
I0511 16:13:19.537508  2244 net.cpp:380] label_L4G_IDS_1_split -> label_L4G_IDS_1_split_1
I0511 16:13:19.537528  2244 net.cpp:122] Setting up label_L4G_IDS_1_split
I0511 16:13:19.537540  2244 net.cpp:129] Top shape: 100 (100)
I0511 16:13:19.537551  2244 net.cpp:129] Top shape: 100 (100)
I0511 16:13:19.537560  2244 net.cpp:137] Memory required for data: 60000
I0511 16:13:19.537569  2244 layer_factory.hpp:77] Creating layer conv1
I0511 16:13:19.537593  2244 net.cpp:84] Creating Layer conv1
I0511 16:13:19.537605  2244 net.cpp:406] conv1 <- data
I0511 16:13:19.537619  2244 net.cpp:380] conv1 -> conv1
I0511 16:13:19.537679  2244 net.cpp:122] Setting up conv1
I0511 16:13:19.537698  2244 net.cpp:129] Top shape: 100 20 5 5 (50000)
I0511 16:13:19.537708  2244 net.cpp:137] Memory required for data: 260000
I0511 16:13:19.537729  2244 layer_factory.hpp:77] Creating layer pool1
I0511 16:13:19.537798  2244 net.cpp:84] Creating Layer pool1
I0511 16:13:19.537811  2244 net.cpp:406] pool1 <- conv1
I0511 16:13:19.537824  2244 net.cpp:380] pool1 -> pool1
I0511 16:13:19.537844  2244 net.cpp:122] Setting up pool1
I0511 16:13:19.537861  2244 net.cpp:129] Top shape: 100 20 3 3 (18000)
I0511 16:13:19.537870  2244 net.cpp:137] Memory required for data: 332000
I0511 16:13:19.537879  2244 layer_factory.hpp:77] Creating layer conv2
I0511 16:13:19.537930  2244 net.cpp:84] Creating Layer conv2
I0511 16:13:19.537941  2244 net.cpp:406] conv2 <- pool1
I0511 16:13:19.537955  2244 net.cpp:380] conv2 -> conv2
I0511 16:13:19.538128  2244 net.cpp:122] Setting up conv2
I0511 16:13:19.538146  2244 net.cpp:129] Top shape: 100 50 1 1 (5000)
I0511 16:13:19.538154  2244 net.cpp:137] Memory required for data: 352000
I0511 16:13:19.538172  2244 layer_factory.hpp:77] Creating layer pool2
I0511 16:13:19.538184  2244 net.cpp:84] Creating Layer pool2
I0511 16:13:19.538194  2244 net.cpp:406] pool2 <- conv2
I0511 16:13:19.538206  2244 net.cpp:380] pool2 -> pool2
I0511 16:13:19.538221  2244 net.cpp:122] Setting up pool2
I0511 16:13:19.538233  2244 net.cpp:129] Top shape: 100 50 1 1 (5000)
I0511 16:13:19.538244  2244 net.cpp:137] Memory required for data: 372000
I0511 16:13:19.538252  2244 layer_factory.hpp:77] Creating layer ip1
I0511 16:13:19.538267  2244 net.cpp:84] Creating Layer ip1
I0511 16:13:19.538277  2244 net.cpp:406] ip1 <- pool2
I0511 16:13:19.538290  2244 net.cpp:380] ip1 -> ip1
I0511 16:13:19.538687  2244 net.cpp:122] Setting up ip1
I0511 16:13:19.538704  2244 net.cpp:129] Top shape: 100 500 (50000)
I0511 16:13:19.538713  2244 net.cpp:137] Memory required for data: 572000
I0511 16:13:19.538729  2244 layer_factory.hpp:77] Creating layer relu1
I0511 16:13:19.538743  2244 net.cpp:84] Creating Layer relu1
I0511 16:13:19.538754  2244 net.cpp:406] relu1 <- ip1
I0511 16:13:19.538767  2244 net.cpp:367] relu1 -> ip1 (in-place)
I0511 16:13:19.538782  2244 net.cpp:122] Setting up relu1
I0511 16:13:19.538794  2244 net.cpp:129] Top shape: 100 500 (50000)
I0511 16:13:19.538805  2244 net.cpp:137] Memory required for data: 772000
I0511 16:13:19.538815  2244 layer_factory.hpp:77] Creating layer ip2
I0511 16:13:19.538832  2244 net.cpp:84] Creating Layer ip2
I0511 16:13:19.538841  2244 net.cpp:406] ip2 <- ip1
I0511 16:13:19.538856  2244 net.cpp:380] ip2 -> ip2
I0511 16:13:19.538923  2244 net.cpp:122] Setting up ip2
I0511 16:13:19.538936  2244 net.cpp:129] Top shape: 100 2 (200)
I0511 16:13:19.538946  2244 net.cpp:137] Memory required for data: 772800
I0511 16:13:19.538959  2244 layer_factory.hpp:77] Creating layer ip2_ip2_0_split
I0511 16:13:19.538974  2244 net.cpp:84] Creating Layer ip2_ip2_0_split
I0511 16:13:19.538985  2244 net.cpp:406] ip2_ip2_0_split <- ip2
I0511 16:13:19.539000  2244 net.cpp:380] ip2_ip2_0_split -> ip2_ip2_0_split_0
I0511 16:13:19.539016  2244 net.cpp:380] ip2_ip2_0_split -> ip2_ip2_0_split_1
I0511 16:13:19.539034  2244 net.cpp:122] Setting up ip2_ip2_0_split
I0511 16:13:19.539047  2244 net.cpp:129] Top shape: 100 2 (200)
I0511 16:13:19.539058  2244 net.cpp:129] Top shape: 100 2 (200)
I0511 16:13:19.539067  2244 net.cpp:137] Memory required for data: 774400
I0511 16:13:19.539077  2244 layer_factory.hpp:77] Creating layer accuracy
I0511 16:13:19.539096  2244 net.cpp:84] Creating Layer accuracy
I0511 16:13:19.539116  2244 net.cpp:406] accuracy <- ip2_ip2_0_split_0
I0511 16:13:19.539130  2244 net.cpp:406] accuracy <- label_L4G_IDS_1_split_0
I0511 16:13:19.539145  2244 net.cpp:380] accuracy -> accuracy
…
