…
I0511 13:29:32.921891 22758 net.cpp:294] The NetState phase (0) differed from the phase (1) specified by a rule in layer L4G_IDS
I0511 13:29:32.922016 22758 net.cpp:294] The NetState phase (0) differed from the phase (1) specified by a rule in layer accuracy
I0511 13:29:32.922272 22758 net.cpp:51] Initializing net from parameters: 
name: "LeNet"
state {
  phase: TRAIN
  level: 0
  stage: ""
}
layer {
  name: "L4G_IDS"
  type: "ImageData"
  top: "data"
  top: "label"
  include {
    phase: TRAIN
  }
  transform_param {
    scale: 0.00390625
  }
  image_data_param {
    source: "Train.txt"
    batch_size: 256
  }
}
layer {
  name: "conv1"
  type: "Convolution"
  bottom: "data"
  top: "conv1"
  param {
    lr_mult: 1
  }
  param {
    lr_mult: 2
  }
  convolution_param {
    num_output: 20
    kernel_size: 3
    stride: 1
    weight_filler {
      type: "xavier"
    }
    bias_filler {
      type: "constant"
    }
  }
}
layer {
  name: "pool1"
  type: "Pooling"
  bottom: "conv1"
  top: "pool1"
  pooling_param {
    pool: MAX
    kernel_size: 2
    stride: 2
  }
}
layer {
  name: "conv2"
  type: "Convolution"
  bottom: "pool1"
  top: "conv2"
  param {
    lr_mult: 1
  }
  param {
    lr_mult: 2
  }
  convolution_param {
    num_output: 50
    kernel_size: 3
    stride: 1
    weight_filler {
      type: "xavier"
    }
    bias_filler {
      type: "constant"
    }
  }
}
layer {
  name: "pool2"
  type: "Pooling"
  bottom: "conv2"
  top: "pool2"
  pooling_param {
    pool: MAX
    kernel_size: 2
    stride: 2
  }
}
layer {
  name: "ip1"
  type: "InnerProduct"
  bottom: "pool2"
  top: "ip1"
  param {
    lr_mult: 1
  }
  param {
    lr_mult: 2
  }
  inner_product_param {
    num_output: 500
    weight_filler {
      type: "xavier"
    }
    bias_filler {
      type: "constant"
    }
  }
}
layer {
  name: "relu1"
  type: "ReLU"
  bottom: "ip1"
  top: "ip1"
}
layer {
  name: "ip2"
  type: "InnerProduct"
  bottom: "ip1"
  top: "ip2"
  param {
    lr_mult: 1
  }
  param {
    lr_mult: 2
  }
  inner_product_param {
    num_output: 2
    weight_filler {
      type: "xavier"
    }
    bias_filler {
      type: "constant"
    }
  }
}
layer {
  name: "loss"
  type: "SoftmaxWithLoss"
  bottom: "ip2"
  bottom: "label"
  top: "loss"
}
I0511 13:29:32.922343 22758 layer_factory.hpp:77] Creating layer L4G_IDS
I0511 13:29:32.922397 22758 net.cpp:84] Creating Layer L4G_IDS
I0511 13:29:32.922406 22758 net.cpp:380] L4G_IDS -> data
I0511 13:29:32.944138 22758 net.cpp:380] L4G_IDS -> label
I0511 13:29:32.944181 22758 image_data_layer.cpp:38] Opening file Train.txt
I0511 13:29:33.015875 22758 image_data_layer.cpp:63] A total of 125973 images.
I0511 13:29:33.034318 22758 image_data_layer.cpp:90] output data size: 256,3,7,7
I0511 13:29:33.034729 22758 net.cpp:122] Setting up L4G_IDS
I0511 13:29:33.034747 22758 net.cpp:129] Top shape: 256 3 7 7 (37632)
I0511 13:29:33.034752 22758 net.cpp:129] Top shape: 256 (256)
I0511 13:29:33.034756 22758 net.cpp:137] Memory required for data: 151552
I0511 13:29:33.034761 22758 layer_factory.hpp:77] Creating layer conv1
I0511 13:29:33.034776 22758 net.cpp:84] Creating Layer conv1
I0511 13:29:33.034781 22758 net.cpp:406] conv1 <- data
I0511 13:29:33.034791 22758 net.cpp:380] conv1 -> conv1
I0511 13:29:33.034834 22758 net.cpp:122] Setting up conv1
I0511 13:29:33.034845 22758 net.cpp:129] Top shape: 256 20 5 5 (128000)
I0511 13:29:33.034850 22758 net.cpp:137] Memory required for data: 663552
I0511 13:29:33.034867 22758 layer_factory.hpp:77] Creating layer pool1
I0511 13:29:33.034875 22758 net.cpp:84] Creating Layer pool1
I0511 13:29:33.034880 22758 net.cpp:406] pool1 <- conv1
I0511 13:29:33.034914 22758 net.cpp:380] pool1 -> pool1
I0511 13:29:33.043807 22758 net.cpp:122] Setting up pool1
I0511 13:29:33.043850 22758 net.cpp:129] Top shape: 256 20 3 3 (46080)
I0511 13:29:33.043861 22758 net.cpp:137] Memory required for data: 847872
I0511 13:29:33.043872 22758 layer_factory.hpp:77] Creating layer conv2
I0511 13:29:33.043910 22758 net.cpp:84] Creating Layer conv2
I0511 13:29:33.043921 22758 net.cpp:406] conv2 <- pool1
I0511 13:29:33.043943 22758 net.cpp:380] conv2 -> conv2
I0511 13:29:33.044158 22758 net.cpp:122] Setting up conv2
I0511 13:29:33.044178 22758 net.cpp:129] Top shape: 256 50 1 1 (12800)
I0511 13:29:33.044186 22758 net.cpp:137] Memory required for data: 899072
I0511 13:29:33.044204 22758 layer_factory.hpp:77] Creating layer pool2
I0511 13:29:33.044224 22758 net.cpp:84] Creating Layer pool2
I0511 13:29:33.044234 22758 net.cpp:406] pool2 <- conv2
I0511 13:29:33.044246 22758 net.cpp:380] pool2 -> pool2
I0511 13:29:33.044265 22758 net.cpp:122] Setting up pool2
I0511 13:29:33.044281 22758 net.cpp:129] Top shape: 256 50 1 1 (12800)
I0511 13:29:33.044289 22758 net.cpp:137] Memory required for data: 950272
I0511 13:29:33.044298 22758 layer_factory.hpp:77] Creating layer ip1
I0511 13:29:33.044317 22758 net.cpp:84] Creating Layer ip1
I0511 13:29:33.044327 22758 net.cpp:406] ip1 <- pool2
I0511 13:29:33.044342 22758 net.cpp:380] ip1 -> ip1
I0511 13:29:33.044894 22758 net.cpp:122] Setting up ip1
I0511 13:29:33.044914 22758 net.cpp:129] Top shape: 256 500 (128000)
I0511 13:29:33.044924 22758 net.cpp:137] Memory required for data: 1462272
I0511 13:29:33.044945 22758 layer_factory.hpp:77] Creating layer relu1
I0511 13:29:33.044957 22758 net.cpp:84] Creating Layer relu1
I0511 13:29:33.044967 22758 net.cpp:406] relu1 <- ip1
I0511 13:29:33.044980 22758 net.cpp:367] relu1 -> ip1 (in-place)
I0511 13:29:33.045001 22758 net.cpp:122] Setting up relu1
I0511 13:29:33.045011 22758 net.cpp:129] Top shape: 256 500 (128000)
I0511 13:29:33.045020 22758 net.cpp:137] Memory required for data: 1974272
I0511 13:29:33.045029 22758 layer_factory.hpp:77] Creating layer ip2
I0511 13:29:33.045042 22758 net.cpp:84] Creating Layer ip2
I0511 13:29:33.045051 22758 net.cpp:406] ip2 <- ip1
I0511 13:29:33.045068 22758 net.cpp:380] ip2 -> ip2
I0511 13:29:33.045119 22758 net.cpp:122] Setting up ip2
I0511 13:29:33.045132 22758 net.cpp:129] Top shape: 256 2 (512)
I0511 13:29:33.045141 22758 net.cpp:137] Memory required for data: 1976320
I0511 13:29:33.045155 22758 layer_factory.hpp:77] Creating layer loss
I0511 13:29:33.045172 22758 net.cpp:84] Creating Layer loss
I0511 13:29:33.045181 22758 net.cpp:406] loss <- ip2
I0511 13:29:33.045192 22758 net.cpp:406] loss <- label
I0511 13:29:33.045204 22758 net.cpp:380] loss -> loss
I0511 13:29:33.045238 22758 layer_factory.hpp:77] Creating layer loss
…
I0511 13:29:33.045843 22758 solver.cpp:172] Creating test net (#0) specified by net file: models/LeNet/lenet_train.prototxt
I0511 13:29:33.045907 22758 net.cpp:294] The NetState phase (1) differed from the phase (0) specified by a rule in layer L4G_IDS
I0511 13:29:33.046149 22758 net.cpp:51] Initializing net from parameters: 
name: "LeNet"
state {
  phase: TEST
}
layer {
  name: "L4G_IDS"
  type: "ImageData"
  top: "data"
  top: "label"
  include {
    phase: TEST
  }
  transform_param {
    scale: 0.00390625
  }
  image_data_param {
    source: "Test.txt"
    batch_size: 100
  }
}
layer {
  name: "conv1"
  type: "Convolution"
  bottom: "data"
  top: "conv1"
  param {
    lr_mult: 1
  }
  param {
    lr_mult: 2
  }
  convolution_param {
    num_output: 20
    kernel_size: 3
    stride: 1
    weight_filler {
      type: "xavier"
    }
    bias_filler {
      type: "constant"
    }
  }
}
layer {
  name: "pool1"
  type: "Pooling"
  bottom: "conv1"
  top: "pool1"
  pooling_param {
    pool: MAX
    kernel_size: 2
    stride: 2
  }
}
layer {
  name: "conv2"
  type: "Convolution"
  bottom: "pool1"
  top: "conv2"
  param {
    lr_mult: 1
  }
  param {
    lr_mult: 2
  }
  convolution_param {
    num_output: 50
    kernel_size: 3
    stride: 1
    weight_filler {
      type: "xavier"
    }
    bias_filler {
      type: "constant"
    }
  }
}
layer {
  name: "pool2"
  type: "Pooling"
  bottom: "conv2"
  top: "pool2"
  pooling_param {
    pool: MAX
    kernel_size: 2
    stride: 2
  }
}
layer {
  name: "ip1"
  type: "InnerProduct"
  bottom: "pool2"
  top: "ip1"
  param {
    lr_mult: 1
  }
  param {
    lr_mult: 2
  }
  inner_product_param {
    num_output: 500
    weight_filler {
      type: "xavier"
    }
    bias_filler {
      type: "constant"
    }
  }
}
layer {
  name: "relu1"
  type: "ReLU"
  bottom: "ip1"
  top: "ip1"
}
layer {
  name: "ip2"
  type: "InnerProduct"
  bottom: "ip1"
  top: "ip2"
  param {
    lr_mult: 1
  }
  param {
    lr_mult: 2
  }
  inner_product_param {
    num_output: 2
    weight_filler {
      type: "xavier"
    }
    bias_filler {
      type: "constant"
    }
  }
}
layer {
  name: "accuracy"
  type: "Accuracy"
  bottom: "ip2"
  bottom: "label"
  top: "accuracy"
  include {
    phase: TEST
  }
}
layer {
  name: "loss"
  type: "SoftmaxWithLoss"
  bottom: "ip2"
  bottom: "label"
  top: "loss"
}
I0511 13:29:33.046298 22758 layer_factory.hpp:77] Creating layer L4G_IDS
I0511 13:29:33.046326 22758 net.cpp:84] Creating Layer L4G_IDS
I0511 13:29:33.046339 22758 net.cpp:380] L4G_IDS -> data
I0511 13:29:33.046357 22758 net.cpp:380] L4G_IDS -> label
I0511 13:29:33.046375 22758 image_data_layer.cpp:38] Opening file Test.txt
I0511 13:29:33.169070 22758 image_data_layer.cpp:63] A total of 22543 images.
I0511 13:29:33.189579 22758 image_data_layer.cpp:90] output data size: 100,3,7,7
I0511 13:29:33.189771 22758 net.cpp:122] Setting up L4G_IDS
I0511 13:29:33.189800 22758 net.cpp:129] Top shape: 100 3 7 7 (14700)
I0511 13:29:33.189815 22758 net.cpp:129] Top shape: 100 (100)
I0511 13:29:33.189823 22758 net.cpp:137] Memory required for data: 59200
I0511 13:29:33.189836 22758 layer_factory.hpp:77] Creating layer label_L4G_IDS_1_split
I0511 13:29:33.189857 22758 net.cpp:84] Creating Layer label_L4G_IDS_1_split
I0511 13:29:33.189867 22758 net.cpp:406] label_L4G_IDS_1_split <- label
I0511 13:29:33.189914 22758 net.cpp:380] label_L4G_IDS_1_split -> label_L4G_IDS_1_split_0
I0511 13:29:33.189937 22758 net.cpp:380] label_L4G_IDS_1_split -> label_L4G_IDS_1_split_1
I0511 13:29:33.189956 22758 net.cpp:122] Setting up label_L4G_IDS_1_split
I0511 13:29:33.189972 22758 net.cpp:129] Top shape: 100 (100)
I0511 13:29:33.189983 22758 net.cpp:129] Top shape: 100 (100)
I0511 13:29:33.189992 22758 net.cpp:137] Memory required for data: 60000
I0511 13:29:33.190001 22758 layer_factory.hpp:77] Creating layer conv1
I0511 13:29:33.190027 22758 net.cpp:84] Creating Layer conv1
I0511 13:29:33.190038 22758 net.cpp:406] conv1 <- data
I0511 13:29:33.190053 22758 net.cpp:380] conv1 -> conv1
I0511 13:29:33.190114 22758 net.cpp:122] Setting up conv1
I0511 13:29:33.190155 22758 net.cpp:129] Top shape: 100 20 5 5 (50000)
I0511 13:29:33.190165 22758 net.cpp:137] Memory required for data: 260000
I0511 13:29:33.190186 22758 layer_factory.hpp:77] Creating layer pool1
I0511 13:29:33.190245 22758 net.cpp:84] Creating Layer pool1
I0511 13:29:33.190264 22758 net.cpp:406] pool1 <- conv1
I0511 13:29:33.190279 22758 net.cpp:380] pool1 -> pool1
I0511 13:29:33.190299 22758 net.cpp:122] Setting up pool1
I0511 13:29:33.190315 22758 net.cpp:129] Top shape: 100 20 3 3 (18000)
I0511 13:29:33.190325 22758 net.cpp:137] Memory required for data: 332000
I0511 13:29:33.190333 22758 layer_factory.hpp:77] Creating layer conv2
I0511 13:29:33.190351 22758 net.cpp:84] Creating Layer conv2
I0511 13:29:33.190361 22758 net.cpp:406] conv2 <- pool1
I0511 13:29:33.190376 22758 net.cpp:380] conv2 -> conv2
I0511 13:29:33.190546 22758 net.cpp:122] Setting up conv2
I0511 13:29:33.190562 22758 net.cpp:129] Top shape: 100 50 1 1 (5000)
I0511 13:29:33.190572 22758 net.cpp:137] Memory required for data: 352000
I0511 13:29:33.190588 22758 layer_factory.hpp:77] Creating layer pool2
I0511 13:29:33.190603 22758 net.cpp:84] Creating Layer pool2
I0511 13:29:33.190611 22758 net.cpp:406] pool2 <- conv2
I0511 13:29:33.190624 22758 net.cpp:380] pool2 -> pool2
I0511 13:29:33.190639 22758 net.cpp:122] Setting up pool2
I0511 13:29:33.190651 22758 net.cpp:129] Top shape: 100 50 1 1 (5000)
I0511 13:29:33.190660 22758 net.cpp:137] Memory required for data: 372000
I0511 13:29:33.190668 22758 layer_factory.hpp:77] Creating layer ip1
I0511 13:29:33.190685 22758 net.cpp:84] Creating Layer ip1
I0511 13:29:33.190695 22758 net.cpp:406] ip1 <- pool2
I0511 13:29:33.190707 22758 net.cpp:380] ip1 -> ip1
I0511 13:29:33.191107 22758 net.cpp:122] Setting up ip1
I0511 13:29:33.191124 22758 net.cpp:129] Top shape: 100 500 (50000)
I0511 13:29:33.191133 22758 net.cpp:137] Memory required for data: 572000
I0511 13:29:33.191148 22758 layer_factory.hpp:77] Creating layer relu1
I0511 13:29:33.191161 22758 net.cpp:84] Creating Layer relu1
I0511 13:29:33.191171 22758 net.cpp:406] relu1 <- ip1
I0511 13:29:33.191184 22758 net.cpp:367] relu1 -> ip1 (in-place)
I0511 13:29:33.191196 22758 net.cpp:122] Setting up relu1
I0511 13:29:33.191207 22758 net.cpp:129] Top shape: 100 500 (50000)
I0511 13:29:33.191216 22758 net.cpp:137] Memory required for data: 772000
I0511 13:29:33.191226 22758 layer_factory.hpp:77] Creating layer ip2
I0511 13:29:33.191241 22758 net.cpp:84] Creating Layer ip2
I0511 13:29:33.191249 22758 net.cpp:406] ip2 <- ip1
I0511 13:29:33.191262 22758 net.cpp:380] ip2 -> ip2
I0511 13:29:33.191299 22758 net.cpp:122] Setting up ip2
I0511 13:29:33.191314 22758 net.cpp:129] Top shape: 100 2 (200)
I0511 13:29:33.191323 22758 net.cpp:137] Memory required for data: 772800
I0511 13:29:33.191336 22758 layer_factory.hpp:77] Creating layer ip2_ip2_0_split
I0511 13:29:33.191349 22758 net.cpp:84] Creating Layer ip2_ip2_0_split
I0511 13:29:33.191359 22758 net.cpp:406] ip2_ip2_0_split <- ip2
I0511 13:29:33.191371 22758 net.cpp:380] ip2_ip2_0_split -> ip2_ip2_0_split_0
I0511 13:29:33.191387 22758 net.cpp:380] ip2_ip2_0_split -> ip2_ip2_0_split_1
I0511 13:29:33.191407 22758 net.cpp:122] Setting up ip2_ip2_0_split
I0511 13:29:33.191419 22758 net.cpp:129] Top shape: 100 2 (200)
I0511 13:29:33.191431 22758 net.cpp:129] Top shape: 100 2 (200)
I0511 13:29:33.191438 22758 net.cpp:137] Memory required for data: 774400
I0511 13:29:33.191447 22758 layer_factory.hpp:77] Creating layer accuracy
I0511 13:29:33.191462 22758 net.cpp:84] Creating Layer accuracy
I0511 13:29:33.191473 22758 net.cpp:406] accuracy <- ip2_ip2_0_split_0
I0511 13:29:33.191484 22758 net.cpp:406] accuracy <- label_L4G_IDS_1_split_0
I0511 13:29:33.191498 22758 net.cpp:380] accuracy -> accuracy
…
